I0525 06:39:07.692343  2037 caffe.cpp:343] Use CPU.
I0525 06:39:07.713274  2037 net.cpp:53] Initializing net from parameters: 
name: "ResNet-18"
state {
  phase: TRAIN
  level: 0
  stage: ""
}
layer {
  name: "data"
  type: "Input"
  top: "data"
  input_param {
    shape {
      dim: 1
      dim: 3
      dim: 224
      dim: 224
    }
  }
}
layer {
  name: "conv1"
  type: "Convolution"
  bottom: "data"
  top: "conv1"
  convolution_param {
    num_output: 64
    bias_term: false
    pad: 3
    kernel_size: 7
    stride: 2
    weight_filler {
      type: "msra"
    }
  }
}
layer {
  name: "bn_conv1"
  type: "BatchNorm"
  bottom: "conv1"
  top: "conv1"
  batch_norm_param {
    moving_average_fraction: 0.9
  }
}
layer {
  name: "scale_conv1"
  type: "Scale"
  bottom: "conv1"
  top: "conv1"
  scale_param {
    bias_term: true
  }
}
layer {
  name: "conv1_relu"
  type: "ReLU"
  bottom: "conv1"
  top: "conv1"
}
layer {
  name: "pool1"
  type: "Pooling"
  bottom: "conv1"
  top: "pool1"
  pooling_param {
    pool: MAX
    kernel_size: 3
    stride: 2
  }
}
layer {
  name: "res2a_branch1"
  type: "Convolution"
  bottom: "pool1"
  top: "res2a_branch1"
  convolution_param {
    num_output: 64
    bias_term: false
    pad: 0
    kernel_size: 1
    stride: 1
    weight_filler {
      type: "msra"
    }
  }
}
layer {
  name: "bn2a_branch1"
  type: "BatchNorm"
  bottom: "res2a_branch1"
  top: "res2a_branch1"
  batch_norm_param {
    moving_average_fraction: 0.9
  }
}
layer {
  name: "scale2a_branch1"
  type: "Scale"
  bottom: "res2a_branch1"
  top: "res2a_branch1"
  scale_param {
    bias_term: true
  }
}
layer {
  name: "res2a_branch2a"
  type: "Convolution"
  bottom: "pool1"
  top: "res2a_branch2a"
  convolution_param {
    num_output: 64
    bias_term: false
    pad: 1
    kernel_size: 3
    stride: 1
    weight_filler {
      type: "msra"
    }
  }
}
layer {
  name: "bn2a_branch2a"
  type: "BatchNorm"
  bottom: "res2a_branch2a"
  top: "res2a_branch2a"
  batch_norm_param {
    moving_average_fraction: 0.9
  }
}
layer {
  name: "scale2a_branch2a"
  type: "Scale"
  bottom: "res2a_branch2a"
  top: "res2a_branch2a"
  scale_param {
    bias_term: true
  }
}
layer {
  name: "res2a_branch2a_relu"
  type: "ReLU"
  bottom: "res2a_branch2a"
  top: "res2a_branch2a"
}
layer {
  name: "res2a_branch2b"
  type: "Convolution"
  bottom: "res2a_branch2a"
  top: "res2a_branch2b"
  convolution_param {
    num_output: 64
    bias_term: false
    pad: 1
    kernel_size: 3
    stride: 1
    weight_filler {
      type: "msra"
    }
  }
}
layer {
  name: "bn2a_branch2b"
  type: "BatchNorm"
  bottom: "res2a_branch2b"
  top: "res2a_branch2b"
  batch_norm_param {
    moving_average_fraction: 0.9
  }
}
layer {
  name: "scale2a_branch2b"
  type: "Scale"
  bottom: "res2a_branch2b"
  top: "res2a_branch2b"
  scale_param {
    bias_term: true
  }
}
layer {
  name: "res2a"
  type: "Eltwise"
  bottom: "res2a_branch1"
  bottom: "res2a_branch2b"
  top: "res2a"
  eltwise_param {
    operation: SUM
  }
}
layer {
  name: "res2a_relu"
  type: "ReLU"
  bottom: "res2a"
  top: "res2a"
}
layer {
  name: "res2b_branch2a"
  type: "Convolution"
  bottom: "res2a"
  top: "res2b_branch2a"
  convolution_param {
    num_output: 64
    bias_term: false
    pad: 1
    kernel_size: 3
    stride: 1
    weight_filler {
      type: "msra"
    }
  }
}
layer {
  name: "bn2b_branch2a"
  type: "BatchNorm"
  bottom: "res2b_branch2a"
  top: "res2b_branch2a"
  batch_norm_param {
    moving_average_fraction: 0.9
  }
}
layer {
  name: "scale2b_branch2a"
  type: "Scale"
  bottom: "res2b_branch2a"
  top: "res2b_branch2a"
  scale_param {
    bias_term: true
  }
}
layer {
  name: "res2b_branch2a_relu"
  type: "ReLU"
  bottom: "res2b_branch2a"
  top: "res2b_branch2a"
}
layer {
  name: "res2b_branch2b"
  type: "Convolution"
  bottom: "res2b_branch2a"
  top: "res2b_branch2b"
  convolution_param {
    num_output: 64
    bias_term: false
    pad: 1
    kernel_size: 3
    stride: 1
    weight_filler {
      type: "msra"
    }
  }
}
layer {
  name: "bn2b_branch2b"
  type: "BatchNorm"
  bottom: "res2b_branch2b"
  top: "res2b_branch2b"
  batch_norm_param {
    moving_average_fraction: 0.9
  }
}
layer {
  name: "scale2b_branch2b"
  type: "Scale"
  bottom: "res2b_branch2b"
  top: "res2b_branch2b"
  scale_param {
    bias_term: true
  }
}
layer {
  name: "res2b"
  type: "Eltwise"
  bottom: "res2a"
  bottom: "res2b_branch2b"
  top: "res2b"
  eltwise_param {
    operation: SUM
  }
}
layer {
  name: "res2b_relu"
  type: "ReLU"
  bottom: "res2b"
  top: "res2b"
}
layer {
  name: "res3a_branch1"
  type: "Convolution"
  bottom: "res2b"
  top: "res3a_branch1"
  convolution_param {
    num_output: 128
    bias_term: false
    pad: 0
    kernel_size: 1
    stride: 2
    weight_filler {
      type: "msra"
    }
  }
}
layer {
  name: "bn3a_branch1"
  type: "BatchNorm"
  bottom: "res3a_branch1"
  top: "res3a_branch1"
  batch_norm_param {
    moving_average_fraction: 0.9
  }
}
layer {
  name: "scale3a_branch1"
  type: "Scale"
  bottom: "res3a_branch1"
  top: "res3a_branch1"
  scale_param {
    bias_term: true
  }
}
layer {
  name: "res3a_branch2a"
  type: "Convolution"
  bottom: "res2b"
  top: "res3a_branch2a"
  convolution_param {
    num_output: 128
    bias_term: false
    pad: 1
    kernel_size: 3
    stride: 2
    weight_filler {
      type: "msra"
    }
  }
}
layer {
  name: "bn3a_branch2a"
  type: "BatchNorm"
  bottom: "res3a_branch2a"
  top: "res3a_branch2a"
  batch_norm_param {
    moving_average_fraction: 0.9
  }
}
layer {
  name: "scale3a_branch2a"
  type: "Scale"
  bottom: "res3a_branch2a"
  top: "res3a_branch2a"
  scale_param {
    bias_term: true
  }
}
layer {
  name: "res3a_branch2a_relu"
  type: "ReLU"
  bottom: "res3a_branch2a"
  top: "res3a_branch2a"
}
layer {
  name: "res3a_branch2b"
  type: "Convolution"
  bottom: "res3a_branch2a"
  top: "res3a_branch2b"
  convolution_param {
    num_output: 128
    bias_term: false
    pad: 1
    kernel_size: 3
    stride: 1
    weight_filler {
      type: "msra"
    }
  }
}
layer {
  name: "bn3a_branch2b"
  type: "BatchNorm"
  bottom: "res3a_branch2b"
  top: "res3a_branch2b"
  batch_norm_param {
    moving_average_fraction: 0.9
  }
}
layer {
  name: "scale3a_branch2b"
  type: "Scale"
  bottom: "res3a_branch2b"
  top: "res3a_branch2b"
  scale_param {
    bias_term: true
  }
}
layer {
  name: "res3a"
  type: "Eltwise"
  bottom: "res3a_branch1"
  bottom: "res3a_branch2b"
  top: "res3a"
  eltwise_param {
    operation: SUM
  }
}
layer {
  name: "res3a_relu"
  type: "ReLU"
  bottom: "res3a"
  top: "res3a"
}
layer {
  name: "res3b_branch2a"
  type: "Convolution"
  bottom: "res3a"
  top: "res3b_branch2a"
  convolution_param {
    num_output: 128
    bias_term: false
    pad: 1
    kernel_size: 3
    stride: 1
    weight_filler {
      type: "msra"
    }
  }
}
layer {
  name: "bn3b_branch2a"
  type: "BatchNorm"
  bottom: "res3b_branch2a"
  top: "res3b_branch2a"
  batch_norm_param {
    moving_average_fraction: 0.9
  }
}
layer {
  name: "scale3b_branch2a"
  type: "Scale"
  bottom: "res3b_branch2a"
  top: "res3b_branch2a"
  scale_param {
    bias_term: true
  }
}
layer {
  name: "res3b_branch2a_relu"
  type: "ReLU"
  bottom: "res3b_branch2a"
  top: "res3b_branch2a"
}
layer {
  name: "res3b_branch2b"
  type: "Convolution"
  bottom: "res3b_branch2a"
  top: "res3b_branch2b"
  convolution_param {
    num_output: 128
    bias_term: false
    pad: 1
    kernel_size: 3
    stride: 1
    weight_filler {
      type: "msra"
    }
  }
}
layer {
  name: "bn3b_branch2b"
  type: "BatchNorm"
  bottom: "res3b_branch2b"
  top: "res3b_branch2b"
  batch_norm_param {
    moving_average_fraction: 0.9
  }
}
layer {
  name: "scale3b_branch2b"
  type: "Scale"
  bottom: "res3b_branch2b"
  top: "res3b_branch2b"
  scale_param {
    bias_term: true
  }
}
layer {
  name: "res3b"
  type: "Eltwise"
  bottom: "res3a"
  bottom: "res3b_branch2b"
  top: "res3b"
  eltwise_param {
    operation: SUM
  }
}
layer {
  name: "res3b_relu"
  type: "ReLU"
  bottom: "res3b"
  top: "res3b"
}
layer {
  name: "res4a_branch1"
  type: "Convolution"
  bottom: "res3b"
  top: "res4a_branch1"
  convolution_param {
    num_output: 256
    bias_term: false
    pad: 0
    kernel_size: 1
    stride: 2
    weight_filler {
      type: "msra"
    }
  }
}
layer {
  name: "bn4a_branch1"
  type: "BatchNorm"
  bottom: "res4a_branch1"
  top: "res4a_branch1"
  batch_norm_param {
    moving_average_fraction: 0.9
  }
}
layer {
  name: "scale4a_branch1"
  type: "Scale"
  bottom: "res4a_branch1"
  top: "res4a_branch1"
  scale_param {
    bias_term: true
  }
}
layer {
  name: "res4a_branch2a"
  type: "Convolution"
  bottom: "res3b"
  top: "res4a_branch2a"
  convolution_param {
    num_output: 256
    bias_term: false
    pad: 1
    kernel_size: 3
    stride: 2
    weight_filler {
      type: "msra"
    }
  }
}
layer {
  name: "bn4a_branch2a"
  type: "BatchNorm"
  bottom: "res4a_branch2a"
  top: "res4a_branch2a"
  batch_norm_param {
    moving_average_fraction: 0.9
  }
}
layer {
  name: "scale4a_branch2a"
  type: "Scale"
  bottom: "res4a_branch2a"
  top: "res4a_branch2a"
  scale_param {
    bias_term: true
  }
}
layer {
  name: "res4a_branch2a_relu"
  type: "ReLU"
  bottom: "res4a_branch2a"
  top: "res4a_branch2a"
}
layer {
  name: "res4a_branch2b"
  type: "Convolution"
  bottom: "res4a_branch2a"
  top: "res4a_branch2b"
  convolution_param {
    num_output: 256
    bias_term: false
    pad: 1
    kernel_size: 3
    stride: 1
    weight_filler {
      type: "msra"
    }
  }
}
layer {
  name: "bn4a_branch2b"
  type: "BatchNorm"
  bottom: "res4a_branch2b"
  top: "res4a_branch2b"
  batch_norm_param {
    moving_average_fraction: 0.9
  }
}
layer {
  name: "scale4a_branch2b"
  type: "Scale"
  bottom: "res4a_branch2b"
  top: "res4a_branch2b"
  scale_param {
    bias_term: true
  }
}
layer {
  name: "res4a"
  type: "Eltwise"
  bottom: "res4a_branch1"
  bottom: "res4a_branch2b"
  top: "res4a"
  eltwise_param {
    operation: SUM
  }
}
layer {
  name: "res4a_relu"
  type: "ReLU"
  bottom: "res4a"
  top: "res4a"
}
layer {
  name: "res4b_branch2a"
  type: "Convolution"
  bottom: "res4a"
  top: "res4b_branch2a"
  convolution_param {
    num_output: 256
    bias_term: false
    pad: 1
    kernel_size: 3
    stride: 1
    weight_filler {
      type: "msra"
    }
  }
}
layer {
  name: "bn4b_branch2a"
  type: "BatchNorm"
  bottom: "res4b_branch2a"
  top: "res4b_branch2a"
  batch_norm_param {
    moving_average_fraction: 0.9
  }
}
layer {
  name: "scale4b_branch2a"
  type: "Scale"
  bottom: "res4b_branch2a"
  top: "res4b_branch2a"
  scale_param {
    bias_term: true
  }
}
layer {
  name: "res4b_branch2a_relu"
  type: "ReLU"
  bottom: "res4b_branch2a"
  top: "res4b_branch2a"
}
layer {
  name: "res4b_branch2b"
  type: "Convolution"
  bottom: "res4b_branch2a"
  top: "res4b_branch2b"
  convolution_param {
    num_output: 256
    bias_term: false
    pad: 1
    kernel_size: 3
    stride: 1
    weight_filler {
      type: "msra"
    }
  }
}
layer {
  name: "bn4b_branch2b"
  type: "BatchNorm"
  bottom: "res4b_branch2b"
  top: "res4b_branch2b"
  batch_norm_param {
    moving_average_fraction: 0.9
  }
}
layer {
  name: "scale4b_branch2b"
  type: "Scale"
  bottom: "res4b_branch2b"
  top: "res4b_branch2b"
  scale_param {
    bias_term: true
  }
}
layer {
  name: "res4b"
  type: "Eltwise"
  bottom: "res4a"
  bottom: "res4b_branch2b"
  top: "res4b"
  eltwise_param {
    operation: SUM
  }
}
layer {
  name: "res4b_relu"
  type: "ReLU"
  bottom: "res4b"
  top: "res4b"
}
layer {
  name: "res5a_branch1"
  type: "Convolution"
  bottom: "res4b"
  top: "res5a_branch1"
  convolution_param {
    num_output: 512
    bias_term: false
    pad: 0
    kernel_size: 1
    stride: 2
    weight_filler {
      type: "msra"
    }
  }
}
layer {
  name: "bn5a_branch1"
  type: "BatchNorm"
  bottom: "res5a_branch1"
  top: "res5a_branch1"
  batch_norm_param {
    moving_average_fraction: 0.9
  }
}
layer {
  name: "scale5a_branch1"
  type: "Scale"
  bottom: "res5a_branch1"
  top: "res5a_branch1"
  scale_param {
    bias_term: true
  }
}
layer {
  name: "res5a_branch2a"
  type: "Convolution"
  bottom: "res4b"
  top: "res5a_branch2a"
  convolution_param {
    num_output: 512
    bias_term: false
    pad: 1
    kernel_size: 3
    stride: 2
    weight_filler {
      type: "msra"
    }
  }
}
layer {
  name: "bn5a_branch2a"
  type: "BatchNorm"
  bottom: "res5a_branch2a"
  top: "res5a_branch2a"
  batch_norm_param {
    moving_average_fraction: 0.9
  }
}
layer {
  name: "scale5a_branch2a"
  type: "Scale"
  bottom: "res5a_branch2a"
  top: "res5a_branch2a"
  scale_param {
    bias_term: true
  }
}
layer {
  name: "res5a_branch2a_relu"
  type: "ReLU"
  bottom: "res5a_branch2a"
  top: "res5a_branch2a"
}
layer {
  name: "res5a_branch2b"
  type: "Convolution"
  bottom: "res5a_branch2a"
  top: "res5a_branch2b"
  convolution_param {
    num_output: 512
    bias_term: false
    pad: 1
    kernel_size: 3
    stride: 1
    weight_filler {
      type: "msra"
    }
  }
}
layer {
  name: "bn5a_branch2b"
  type: "BatchNorm"
  bottom: "res5a_branch2b"
  top: "res5a_branch2b"
  batch_norm_param {
    moving_average_fraction: 0.9
  }
}
layer {
  name: "scale5a_branch2b"
  type: "Scale"
  bottom: "res5a_branch2b"
  top: "res5a_branch2b"
  scale_param {
    bias_term: true
  }
}
layer {
  name: "res5a"
  type: "Eltwise"
  bottom: "res5a_branch1"
  bottom: "res5a_branch2b"
  top: "res5a"
  eltwise_param {
    operation: SUM
  }
}
layer {
  name: "res5a_relu"
  type: "ReLU"
  bottom: "res5a"
  top: "res5a"
}
layer {
  name: "res5b_branch2a"
  type: "Convolution"
  bottom: "res5a"
  top: "res5b_branch2a"
  convolution_param {
    num_output: 512
    bias_term: false
    pad: 1
    kernel_size: 3
    stride: 1
    weight_filler {
      type: "msra"
    }
  }
}
layer {
  name: "bn5b_branch2a"
  type: "BatchNorm"
  bottom: "res5b_branch2a"
  top: "res5b_branch2a"
  batch_norm_param {
    moving_average_fraction: 0.9
  }
}
layer {
  name: "scale5b_branch2a"
  type: "Scale"
  bottom: "res5b_branch2a"
  top: "res5b_branch2a"
  scale_param {
    bias_term: true
  }
}
layer {
  name: "res5b_branch2a_relu"
  type: "ReLU"
  bottom: "res5b_branch2a"
  top: "res5b_branch2a"
}
layer {
  name: "res5b_branch2b"
  type: "Convolution"
  bottom: "res5b_branch2a"
  top: "res5b_branch2b"
  convolution_param {
    num_output: 512
    bias_term: false
    pad: 1
    kernel_size: 3
    stride: 1
    weight_filler {
      type: "msra"
    }
  }
}
layer {
  name: "bn5b_branch2b"
  type: "BatchNorm"
  bottom: "res5b_branch2b"
  top: "res5b_branch2b"
  batch_norm_param {
    moving_average_fraction: 0.9
  }
}
layer {
  name: "scale5b_branch2b"
  type: "Scale"
  bottom: "res5b_branch2b"
  top: "res5b_branch2b"
  scale_param {
    bias_term: true
  }
}
layer {
  name: "res5b"
  type: "Eltwise"
  bottom: "res5a"
  bottom: "res5b_branch2b"
  top: "res5b"
  eltwise_param {
    operation: SUM
  }
}
layer {
  name: "res5b_relu"
  type: "ReLU"
  bottom: "res5b"
  top: "res5b"
}
layer {
  name: "pool5"
  type: "Pooling"
  bottom: "res5b"
  top: "pool5"
  pooling_param {
    pool: AVE
    kernel_size: 7
    stride: 1
  }
}
layer {
  name: "fc1000"
  type: "InnerProduct"
  bottom: "pool5"
  top: "fc1000"
  param {
    lr_mult: 1
    decay_mult: 1
  }
  param {
    lr_mult: 2
    decay_mult: 1
  }
  inner_product_param {
    num_output: 1000
    weight_filler {
      type: "xavier"
    }
    bias_filler {
      type: "constant"
      value: 0
    }
  }
}
layer {
  name: "prob"
  type: "Softmax"
  bottom: "fc1000"
  top: "prob"
}
I0525 06:39:07.720918  2037 layer_factory.hpp:77] Creating layer data
I0525 06:39:07.721092  2037 net.cpp:86] Creating Layer data
I0525 06:39:07.721185  2037 net.cpp:382] data -> data
I0525 06:39:07.721424  2037 net.cpp:124] Setting up data
I0525 06:39:07.721508  2037 net.cpp:131] Top shape: 1 3 224 224 (150528)
I0525 06:39:07.721594  2037 net.cpp:139] Memory required for data: 602112
I0525 06:39:07.721678  2037 layer_factory.hpp:77] Creating layer conv1
I0525 06:39:07.721797  2037 net.cpp:86] Creating Layer conv1
I0525 06:39:07.721874  2037 net.cpp:408] conv1 <- data
I0525 06:39:07.721968  2037 net.cpp:382] conv1 -> conv1
I0525 06:39:07.723711  2037 net.cpp:124] Setting up conv1
I0525 06:39:07.723809  2037 net.cpp:131] Top shape: 1 64 112 112 (802816)
I0525 06:39:07.723896  2037 net.cpp:139] Memory required for data: 3813376
I0525 06:39:07.724076  2037 layer_factory.hpp:77] Creating layer bn_conv1
I0525 06:39:07.724259  2037 net.cpp:86] Creating Layer bn_conv1
I0525 06:39:07.724329  2037 net.cpp:408] bn_conv1 <- conv1
I0525 06:39:07.724411  2037 net.cpp:369] bn_conv1 -> conv1 (in-place)
I0525 06:39:07.724689  2037 net.cpp:124] Setting up bn_conv1
I0525 06:39:07.724767  2037 net.cpp:131] Top shape: 1 64 112 112 (802816)
I0525 06:39:07.724853  2037 net.cpp:139] Memory required for data: 7024640
I0525 06:39:07.724998  2037 layer_factory.hpp:77] Creating layer scale_conv1
I0525 06:39:07.725082  2037 net.cpp:86] Creating Layer scale_conv1
I0525 06:39:07.725147  2037 net.cpp:408] scale_conv1 <- conv1
I0525 06:39:07.725224  2037 net.cpp:369] scale_conv1 -> conv1 (in-place)
I0525 06:39:07.725356  2037 layer_factory.hpp:77] Creating layer scale_conv1
I0525 06:39:07.725766  2037 net.cpp:124] Setting up scale_conv1
I0525 06:39:07.725862  2037 net.cpp:131] Top shape: 1 64 112 112 (802816)
I0525 06:39:07.725948  2037 net.cpp:139] Memory required for data: 10235904
I0525 06:39:07.726061  2037 layer_factory.hpp:77] Creating layer conv1_relu
I0525 06:39:07.726161  2037 net.cpp:86] Creating Layer conv1_relu
I0525 06:39:07.726229  2037 net.cpp:408] conv1_relu <- conv1
I0525 06:39:07.726306  2037 net.cpp:369] conv1_relu -> conv1 (in-place)
I0525 06:39:07.726388  2037 net.cpp:124] Setting up conv1_relu
I0525 06:39:07.726450  2037 net.cpp:131] Top shape: 1 64 112 112 (802816)
I0525 06:39:07.726531  2037 net.cpp:139] Memory required for data: 13447168
I0525 06:39:07.726593  2037 layer_factory.hpp:77] Creating layer pool1
I0525 06:39:07.726670  2037 net.cpp:86] Creating Layer pool1
I0525 06:39:07.726732  2037 net.cpp:408] pool1 <- conv1
I0525 06:39:07.726810  2037 net.cpp:382] pool1 -> pool1
I0525 06:39:07.726971  2037 net.cpp:124] Setting up pool1
I0525 06:39:07.727046  2037 net.cpp:131] Top shape: 1 64 56 56 (200704)
I0525 06:39:07.727128  2037 net.cpp:139] Memory required for data: 14249984
I0525 06:39:07.727190  2037 layer_factory.hpp:77] Creating layer pool1_pool1_0_split
I0525 06:39:07.727267  2037 net.cpp:86] Creating Layer pool1_pool1_0_split
I0525 06:39:07.727329  2037 net.cpp:408] pool1_pool1_0_split <- pool1
I0525 06:39:07.727407  2037 net.cpp:382] pool1_pool1_0_split -> pool1_pool1_0_split_0
I0525 06:39:07.727497  2037 net.cpp:382] pool1_pool1_0_split -> pool1_pool1_0_split_1
I0525 06:39:07.727600  2037 net.cpp:124] Setting up pool1_pool1_0_split
I0525 06:39:07.727663  2037 net.cpp:131] Top shape: 1 64 56 56 (200704)
I0525 06:39:07.727757  2037 net.cpp:131] Top shape: 1 64 56 56 (200704)
I0525 06:39:07.727836  2037 net.cpp:139] Memory required for data: 15855616
I0525 06:39:07.727897  2037 layer_factory.hpp:77] Creating layer res2a_branch1
I0525 06:39:07.727993  2037 net.cpp:86] Creating Layer res2a_branch1
I0525 06:39:07.728058  2037 net.cpp:408] res2a_branch1 <- pool1_pool1_0_split_0
I0525 06:39:07.728163  2037 net.cpp:382] res2a_branch1 -> res2a_branch1
I0525 06:39:07.728926  2037 net.cpp:124] Setting up res2a_branch1
I0525 06:39:07.729027  2037 net.cpp:131] Top shape: 1 64 56 56 (200704)
I0525 06:39:07.729111  2037 net.cpp:139] Memory required for data: 16658432
I0525 06:39:07.729192  2037 layer_factory.hpp:77] Creating layer bn2a_branch1
I0525 06:39:07.729283  2037 net.cpp:86] Creating Layer bn2a_branch1
I0525 06:39:07.729349  2037 net.cpp:408] bn2a_branch1 <- res2a_branch1
I0525 06:39:07.729439  2037 net.cpp:369] bn2a_branch1 -> res2a_branch1 (in-place)
I0525 06:39:07.729607  2037 net.cpp:124] Setting up bn2a_branch1
I0525 06:39:07.729677  2037 net.cpp:131] Top shape: 1 64 56 56 (200704)
I0525 06:39:07.729756  2037 net.cpp:139] Memory required for data: 17461248
I0525 06:39:07.729879  2037 layer_factory.hpp:77] Creating layer scale2a_branch1
I0525 06:39:07.729981  2037 net.cpp:86] Creating Layer scale2a_branch1
I0525 06:39:07.730048  2037 net.cpp:408] scale2a_branch1 <- res2a_branch1
I0525 06:39:07.730129  2037 net.cpp:369] scale2a_branch1 -> res2a_branch1 (in-place)
I0525 06:39:07.730242  2037 layer_factory.hpp:77] Creating layer scale2a_branch1
I0525 06:39:07.730482  2037 net.cpp:124] Setting up scale2a_branch1
I0525 06:39:07.730640  2037 net.cpp:131] Top shape: 1 64 56 56 (200704)
I0525 06:39:07.730736  2037 net.cpp:139] Memory required for data: 18264064
I0525 06:39:07.730829  2037 layer_factory.hpp:77] Creating layer res2a_branch2a
I0525 06:39:07.730926  2037 net.cpp:86] Creating Layer res2a_branch2a
I0525 06:39:07.730993  2037 net.cpp:408] res2a_branch2a <- pool1_pool1_0_split_1
I0525 06:39:07.731078  2037 net.cpp:382] res2a_branch2a -> res2a_branch2a
I0525 06:39:07.735721  2037 net.cpp:124] Setting up res2a_branch2a
I0525 06:39:07.735822  2037 net.cpp:131] Top shape: 1 64 56 56 (200704)
I0525 06:39:07.735910  2037 net.cpp:139] Memory required for data: 19066880
I0525 06:39:07.735993  2037 layer_factory.hpp:77] Creating layer bn2a_branch2a
I0525 06:39:07.736078  2037 net.cpp:86] Creating Layer bn2a_branch2a
I0525 06:39:07.736143  2037 net.cpp:408] bn2a_branch2a <- res2a_branch2a
I0525 06:39:07.736236  2037 net.cpp:369] bn2a_branch2a -> res2a_branch2a (in-place)
I0525 06:39:07.736435  2037 net.cpp:124] Setting up bn2a_branch2a
I0525 06:39:07.736507  2037 net.cpp:131] Top shape: 1 64 56 56 (200704)
I0525 06:39:07.736589  2037 net.cpp:139] Memory required for data: 19869696
I0525 06:39:07.736696  2037 layer_factory.hpp:77] Creating layer scale2a_branch2a
I0525 06:39:07.736784  2037 net.cpp:86] Creating Layer scale2a_branch2a
I0525 06:39:07.736851  2037 net.cpp:408] scale2a_branch2a <- res2a_branch2a
I0525 06:39:07.736930  2037 net.cpp:369] scale2a_branch2a -> res2a_branch2a (in-place)
I0525 06:39:07.737048  2037 layer_factory.hpp:77] Creating layer scale2a_branch2a
I0525 06:39:07.737262  2037 net.cpp:124] Setting up scale2a_branch2a
I0525 06:39:07.737375  2037 net.cpp:131] Top shape: 1 64 56 56 (200704)
I0525 06:39:07.737474  2037 net.cpp:139] Memory required for data: 20672512
I0525 06:39:07.737594  2037 layer_factory.hpp:77] Creating layer res2a_branch2a_relu
I0525 06:39:07.737679  2037 net.cpp:86] Creating Layer res2a_branch2a_relu
I0525 06:39:07.737744  2037 net.cpp:408] res2a_branch2a_relu <- res2a_branch2a
I0525 06:39:07.737823  2037 net.cpp:369] res2a_branch2a_relu -> res2a_branch2a (in-place)
I0525 06:39:07.737907  2037 net.cpp:124] Setting up res2a_branch2a_relu
I0525 06:39:07.737968  2037 net.cpp:131] Top shape: 1 64 56 56 (200704)
I0525 06:39:07.738047  2037 net.cpp:139] Memory required for data: 21475328
I0525 06:39:07.738109  2037 layer_factory.hpp:77] Creating layer res2a_branch2b
I0525 06:39:07.738200  2037 net.cpp:86] Creating Layer res2a_branch2b
I0525 06:39:07.738327  2037 net.cpp:408] res2a_branch2b <- res2a_branch2a
I0525 06:39:07.738436  2037 net.cpp:382] res2a_branch2b -> res2a_branch2b
I0525 06:39:07.743086  2037 net.cpp:124] Setting up res2a_branch2b
I0525 06:39:07.743189  2037 net.cpp:131] Top shape: 1 64 56 56 (200704)
I0525 06:39:07.743278  2037 net.cpp:139] Memory required for data: 22278144
I0525 06:39:07.743362  2037 layer_factory.hpp:77] Creating layer bn2a_branch2b
I0525 06:39:07.743445  2037 net.cpp:86] Creating Layer bn2a_branch2b
I0525 06:39:07.743513  2037 net.cpp:408] bn2a_branch2b <- res2a_branch2b
I0525 06:39:07.743603  2037 net.cpp:369] bn2a_branch2b -> res2a_branch2b (in-place)
I0525 06:39:07.743785  2037 net.cpp:124] Setting up bn2a_branch2b
I0525 06:39:07.743853  2037 net.cpp:131] Top shape: 1 64 56 56 (200704)
I0525 06:39:07.743933  2037 net.cpp:139] Memory required for data: 23080960
I0525 06:39:07.744041  2037 layer_factory.hpp:77] Creating layer scale2a_branch2b
I0525 06:39:07.744158  2037 net.cpp:86] Creating Layer scale2a_branch2b
I0525 06:39:07.744228  2037 net.cpp:408] scale2a_branch2b <- res2a_branch2b
I0525 06:39:07.744309  2037 net.cpp:369] scale2a_branch2b -> res2a_branch2b (in-place)
I0525 06:39:07.744429  2037 layer_factory.hpp:77] Creating layer scale2a_branch2b
I0525 06:39:07.744621  2037 net.cpp:124] Setting up scale2a_branch2b
I0525 06:39:07.744691  2037 net.cpp:131] Top shape: 1 64 56 56 (200704)
I0525 06:39:07.744774  2037 net.cpp:139] Memory required for data: 23883776
I0525 06:39:07.744868  2037 layer_factory.hpp:77] Creating layer res2a
I0525 06:39:07.745079  2037 net.cpp:86] Creating Layer res2a
I0525 06:39:07.745149  2037 net.cpp:408] res2a <- res2a_branch1
I0525 06:39:07.745223  2037 net.cpp:408] res2a <- res2a_branch2b
I0525 06:39:07.745302  2037 net.cpp:382] res2a -> res2a
I0525 06:39:07.745424  2037 net.cpp:124] Setting up res2a
I0525 06:39:07.745493  2037 net.cpp:131] Top shape: 1 64 56 56 (200704)
I0525 06:39:07.745574  2037 net.cpp:139] Memory required for data: 24686592
I0525 06:39:07.745637  2037 layer_factory.hpp:77] Creating layer res2a_relu
I0525 06:39:07.745712  2037 net.cpp:86] Creating Layer res2a_relu
I0525 06:39:07.745776  2037 net.cpp:408] res2a_relu <- res2a
I0525 06:39:07.745851  2037 net.cpp:369] res2a_relu -> res2a (in-place)
I0525 06:39:07.745930  2037 net.cpp:124] Setting up res2a_relu
I0525 06:39:07.745991  2037 net.cpp:131] Top shape: 1 64 56 56 (200704)
I0525 06:39:07.746079  2037 net.cpp:139] Memory required for data: 25489408
I0525 06:39:07.746142  2037 layer_factory.hpp:77] Creating layer res2a_res2a_relu_0_split
I0525 06:39:07.746219  2037 net.cpp:86] Creating Layer res2a_res2a_relu_0_split
I0525 06:39:07.746282  2037 net.cpp:408] res2a_res2a_relu_0_split <- res2a
I0525 06:39:07.746359  2037 net.cpp:382] res2a_res2a_relu_0_split -> res2a_res2a_relu_0_split_0
I0525 06:39:07.746450  2037 net.cpp:382] res2a_res2a_relu_0_split -> res2a_res2a_relu_0_split_1
I0525 06:39:07.746548  2037 net.cpp:124] Setting up res2a_res2a_relu_0_split
I0525 06:39:07.746611  2037 net.cpp:131] Top shape: 1 64 56 56 (200704)
I0525 06:39:07.746690  2037 net.cpp:131] Top shape: 1 64 56 56 (200704)
I0525 06:39:07.746767  2037 net.cpp:139] Memory required for data: 27095040
I0525 06:39:07.746829  2037 layer_factory.hpp:77] Creating layer res2b_branch2a
I0525 06:39:07.746930  2037 net.cpp:86] Creating Layer res2b_branch2a
I0525 06:39:07.746999  2037 net.cpp:408] res2b_branch2a <- res2a_res2a_relu_0_split_0
I0525 06:39:07.747082  2037 net.cpp:382] res2b_branch2a -> res2b_branch2a
I0525 06:39:07.751809  2037 net.cpp:124] Setting up res2b_branch2a
I0525 06:39:07.751929  2037 net.cpp:131] Top shape: 1 64 56 56 (200704)
I0525 06:39:07.752017  2037 net.cpp:139] Memory required for data: 27897856
I0525 06:39:07.752104  2037 layer_factory.hpp:77] Creating layer bn2b_branch2a
I0525 06:39:07.752188  2037 net.cpp:86] Creating Layer bn2b_branch2a
I0525 06:39:07.752256  2037 net.cpp:408] bn2b_branch2a <- res2b_branch2a
I0525 06:39:07.752347  2037 net.cpp:369] bn2b_branch2a -> res2b_branch2a (in-place)
I0525 06:39:07.752530  2037 net.cpp:124] Setting up bn2b_branch2a
I0525 06:39:07.752601  2037 net.cpp:131] Top shape: 1 64 56 56 (200704)
I0525 06:39:07.752682  2037 net.cpp:139] Memory required for data: 28700672
I0525 06:39:07.752790  2037 layer_factory.hpp:77] Creating layer scale2b_branch2a
I0525 06:39:07.752871  2037 net.cpp:86] Creating Layer scale2b_branch2a
I0525 06:39:07.752948  2037 net.cpp:408] scale2b_branch2a <- res2b_branch2a
I0525 06:39:07.753027  2037 net.cpp:369] scale2b_branch2a -> res2b_branch2a (in-place)
I0525 06:39:07.753144  2037 layer_factory.hpp:77] Creating layer scale2b_branch2a
I0525 06:39:07.753355  2037 net.cpp:124] Setting up scale2b_branch2a
I0525 06:39:07.753464  2037 net.cpp:131] Top shape: 1 64 56 56 (200704)
I0525 06:39:07.753552  2037 net.cpp:139] Memory required for data: 29503488
I0525 06:39:07.753648  2037 layer_factory.hpp:77] Creating layer res2b_branch2a_relu
I0525 06:39:07.753729  2037 net.cpp:86] Creating Layer res2b_branch2a_relu
I0525 06:39:07.753795  2037 net.cpp:408] res2b_branch2a_relu <- res2b_branch2a
I0525 06:39:07.753872  2037 net.cpp:369] res2b_branch2a_relu -> res2b_branch2a (in-place)
I0525 06:39:07.753957  2037 net.cpp:124] Setting up res2b_branch2a_relu
I0525 06:39:07.754017  2037 net.cpp:131] Top shape: 1 64 56 56 (200704)
I0525 06:39:07.754097  2037 net.cpp:139] Memory required for data: 30306304
I0525 06:39:07.754159  2037 layer_factory.hpp:77] Creating layer res2b_branch2b
I0525 06:39:07.754252  2037 net.cpp:86] Creating Layer res2b_branch2b
I0525 06:39:07.754360  2037 net.cpp:408] res2b_branch2b <- res2b_branch2a
I0525 06:39:07.754535  2037 net.cpp:382] res2b_branch2b -> res2b_branch2b
I0525 06:39:07.759265  2037 net.cpp:124] Setting up res2b_branch2b
I0525 06:39:07.759382  2037 net.cpp:131] Top shape: 1 64 56 56 (200704)
I0525 06:39:07.759469  2037 net.cpp:139] Memory required for data: 31109120
I0525 06:39:07.759565  2037 layer_factory.hpp:77] Creating layer bn2b_branch2b
I0525 06:39:07.759652  2037 net.cpp:86] Creating Layer bn2b_branch2b
I0525 06:39:07.759721  2037 net.cpp:408] bn2b_branch2b <- res2b_branch2b
I0525 06:39:07.759801  2037 net.cpp:369] bn2b_branch2b -> res2b_branch2b (in-place)
I0525 06:39:07.759994  2037 net.cpp:124] Setting up bn2b_branch2b
I0525 06:39:07.760064  2037 net.cpp:131] Top shape: 1 64 56 56 (200704)
I0525 06:39:07.760146  2037 net.cpp:139] Memory required for data: 31911936
I0525 06:39:07.760298  2037 layer_factory.hpp:77] Creating layer scale2b_branch2b
I0525 06:39:07.760393  2037 net.cpp:86] Creating Layer scale2b_branch2b
I0525 06:39:07.760464  2037 net.cpp:408] scale2b_branch2b <- res2b_branch2b
I0525 06:39:07.760545  2037 net.cpp:369] scale2b_branch2b -> res2b_branch2b (in-place)
I0525 06:39:07.760666  2037 layer_factory.hpp:77] Creating layer scale2b_branch2b
I0525 06:39:07.760864  2037 net.cpp:124] Setting up scale2b_branch2b
I0525 06:39:07.760938  2037 net.cpp:131] Top shape: 1 64 56 56 (200704)
I0525 06:39:07.761020  2037 net.cpp:139] Memory required for data: 32714752
I0525 06:39:07.761112  2037 layer_factory.hpp:77] Creating layer res2b
I0525 06:39:07.761204  2037 net.cpp:86] Creating Layer res2b
I0525 06:39:07.761272  2037 net.cpp:408] res2b <- res2a_res2a_relu_0_split_1
I0525 06:39:07.761345  2037 net.cpp:408] res2b <- res2b_branch2b
I0525 06:39:07.761426  2037 net.cpp:382] res2b -> res2b
I0525 06:39:07.761520  2037 net.cpp:124] Setting up res2b
I0525 06:39:07.761584  2037 net.cpp:131] Top shape: 1 64 56 56 (200704)
I0525 06:39:07.761662  2037 net.cpp:139] Memory required for data: 33517568
I0525 06:39:07.761724  2037 layer_factory.hpp:77] Creating layer res2b_relu
I0525 06:39:07.761798  2037 net.cpp:86] Creating Layer res2b_relu
I0525 06:39:07.761862  2037 net.cpp:408] res2b_relu <- res2b
I0525 06:39:07.761937  2037 net.cpp:369] res2b_relu -> res2b (in-place)
I0525 06:39:07.762017  2037 net.cpp:124] Setting up res2b_relu
I0525 06:39:07.762079  2037 net.cpp:131] Top shape: 1 64 56 56 (200704)
I0525 06:39:07.762156  2037 net.cpp:139] Memory required for data: 34320384
I0525 06:39:07.762218  2037 layer_factory.hpp:77] Creating layer res2b_res2b_relu_0_split
I0525 06:39:07.762295  2037 net.cpp:86] Creating Layer res2b_res2b_relu_0_split
I0525 06:39:07.762358  2037 net.cpp:408] res2b_res2b_relu_0_split <- res2b
I0525 06:39:07.762439  2037 net.cpp:382] res2b_res2b_relu_0_split -> res2b_res2b_relu_0_split_0
I0525 06:39:07.762529  2037 net.cpp:382] res2b_res2b_relu_0_split -> res2b_res2b_relu_0_split_1
I0525 06:39:07.762626  2037 net.cpp:124] Setting up res2b_res2b_relu_0_split
I0525 06:39:07.762689  2037 net.cpp:131] Top shape: 1 64 56 56 (200704)
I0525 06:39:07.762768  2037 net.cpp:131] Top shape: 1 64 56 56 (200704)
I0525 06:39:07.762846  2037 net.cpp:139] Memory required for data: 35926016
I0525 06:39:07.762908  2037 layer_factory.hpp:77] Creating layer res3a_branch1
I0525 06:39:07.763011  2037 net.cpp:86] Creating Layer res3a_branch1
I0525 06:39:07.763079  2037 net.cpp:408] res3a_branch1 <- res2b_res2b_relu_0_split_0
I0525 06:39:07.763166  2037 net.cpp:382] res3a_branch1 -> res3a_branch1
I0525 06:39:07.764370  2037 net.cpp:124] Setting up res3a_branch1
I0525 06:39:07.764452  2037 net.cpp:131] Top shape: 1 128 28 28 (100352)
I0525 06:39:07.764536  2037 net.cpp:139] Memory required for data: 36327424
I0525 06:39:07.764617  2037 layer_factory.hpp:77] Creating layer bn3a_branch1
I0525 06:39:07.764698  2037 net.cpp:86] Creating Layer bn3a_branch1
I0525 06:39:07.764763  2037 net.cpp:408] bn3a_branch1 <- res3a_branch1
I0525 06:39:07.764850  2037 net.cpp:369] bn3a_branch1 -> res3a_branch1 (in-place)
I0525 06:39:07.765018  2037 net.cpp:124] Setting up bn3a_branch1
I0525 06:39:07.765136  2037 net.cpp:131] Top shape: 1 128 28 28 (100352)
I0525 06:39:07.765303  2037 net.cpp:139] Memory required for data: 36728832
I0525 06:39:07.765416  2037 layer_factory.hpp:77] Creating layer scale3a_branch1
I0525 06:39:07.765553  2037 net.cpp:86] Creating Layer scale3a_branch1
I0525 06:39:07.765658  2037 net.cpp:408] scale3a_branch1 <- res3a_branch1
I0525 06:39:07.765745  2037 net.cpp:369] scale3a_branch1 -> res3a_branch1 (in-place)
I0525 06:39:07.765867  2037 layer_factory.hpp:77] Creating layer scale3a_branch1
I0525 06:39:07.766047  2037 net.cpp:124] Setting up scale3a_branch1
I0525 06:39:07.766120  2037 net.cpp:131] Top shape: 1 128 28 28 (100352)
I0525 06:39:07.766202  2037 net.cpp:139] Memory required for data: 37130240
I0525 06:39:07.766297  2037 layer_factory.hpp:77] Creating layer res3a_branch2a
I0525 06:39:07.766393  2037 net.cpp:86] Creating Layer res3a_branch2a
I0525 06:39:07.766461  2037 net.cpp:408] res3a_branch2a <- res2b_res2b_relu_0_split_1
I0525 06:39:07.766547  2037 net.cpp:382] res3a_branch2a -> res3a_branch2a
I0525 06:39:07.775665  2037 net.cpp:124] Setting up res3a_branch2a
I0525 06:39:07.775801  2037 net.cpp:131] Top shape: 1 128 28 28 (100352)
I0525 06:39:07.775892  2037 net.cpp:139] Memory required for data: 37531648
I0525 06:39:07.775980  2037 layer_factory.hpp:77] Creating layer bn3a_branch2a
I0525 06:39:07.776078  2037 net.cpp:86] Creating Layer bn3a_branch2a
I0525 06:39:07.776149  2037 net.cpp:408] bn3a_branch2a <- res3a_branch2a
I0525 06:39:07.776229  2037 net.cpp:369] bn3a_branch2a -> res3a_branch2a (in-place)
I0525 06:39:07.776396  2037 net.cpp:124] Setting up bn3a_branch2a
I0525 06:39:07.776463  2037 net.cpp:131] Top shape: 1 128 28 28 (100352)
I0525 06:39:07.776546  2037 net.cpp:139] Memory required for data: 37933056
I0525 06:39:07.776654  2037 layer_factory.hpp:77] Creating layer scale3a_branch2a
I0525 06:39:07.776736  2037 net.cpp:86] Creating Layer scale3a_branch2a
I0525 06:39:07.776801  2037 net.cpp:408] scale3a_branch2a <- res3a_branch2a
I0525 06:39:07.776881  2037 net.cpp:369] scale3a_branch2a -> res3a_branch2a (in-place)
I0525 06:39:07.777004  2037 layer_factory.hpp:77] Creating layer scale3a_branch2a
I0525 06:39:07.777168  2037 net.cpp:124] Setting up scale3a_branch2a
I0525 06:39:07.777235  2037 net.cpp:131] Top shape: 1 128 28 28 (100352)
I0525 06:39:07.777318  2037 net.cpp:139] Memory required for data: 38334464
I0525 06:39:07.777408  2037 layer_factory.hpp:77] Creating layer res3a_branch2a_relu
I0525 06:39:07.777487  2037 net.cpp:86] Creating Layer res3a_branch2a_relu
I0525 06:39:07.777552  2037 net.cpp:408] res3a_branch2a_relu <- res3a_branch2a
I0525 06:39:07.777629  2037 net.cpp:369] res3a_branch2a_relu -> res3a_branch2a (in-place)
I0525 06:39:07.777712  2037 net.cpp:124] Setting up res3a_branch2a_relu
I0525 06:39:07.777774  2037 net.cpp:131] Top shape: 1 128 28 28 (100352)
I0525 06:39:07.777854  2037 net.cpp:139] Memory required for data: 38735872
I0525 06:39:07.777915  2037 layer_factory.hpp:77] Creating layer res3a_branch2b
I0525 06:39:07.778015  2037 net.cpp:86] Creating Layer res3a_branch2b
I0525 06:39:07.778084  2037 net.cpp:408] res3a_branch2b <- res3a_branch2a
I0525 06:39:07.778169  2037 net.cpp:382] res3a_branch2b -> res3a_branch2b
I0525 06:39:07.796198  2037 net.cpp:124] Setting up res3a_branch2b
I0525 06:39:07.796355  2037 net.cpp:131] Top shape: 1 128 28 28 (100352)
I0525 06:39:07.796450  2037 net.cpp:139] Memory required for data: 39137280
I0525 06:39:07.796538  2037 layer_factory.hpp:77] Creating layer bn3a_branch2b
I0525 06:39:07.796628  2037 net.cpp:86] Creating Layer bn3a_branch2b
I0525 06:39:07.796698  2037 net.cpp:408] bn3a_branch2b <- res3a_branch2b
I0525 06:39:07.796797  2037 net.cpp:369] bn3a_branch2b -> res3a_branch2b (in-place)
I0525 06:39:07.796964  2037 net.cpp:124] Setting up bn3a_branch2b
I0525 06:39:07.797032  2037 net.cpp:131] Top shape: 1 128 28 28 (100352)
I0525 06:39:07.797114  2037 net.cpp:139] Memory required for data: 39538688
I0525 06:39:07.797221  2037 layer_factory.hpp:77] Creating layer scale3a_branch2b
I0525 06:39:07.797354  2037 net.cpp:86] Creating Layer scale3a_branch2b
I0525 06:39:07.797514  2037 net.cpp:408] scale3a_branch2b <- res3a_branch2b
I0525 06:39:07.797600  2037 net.cpp:369] scale3a_branch2b -> res3a_branch2b (in-place)
I0525 06:39:07.797737  2037 layer_factory.hpp:77] Creating layer scale3a_branch2b
I0525 06:39:07.797904  2037 net.cpp:124] Setting up scale3a_branch2b
I0525 06:39:07.797973  2037 net.cpp:131] Top shape: 1 128 28 28 (100352)
I0525 06:39:07.798054  2037 net.cpp:139] Memory required for data: 39940096
I0525 06:39:07.798147  2037 layer_factory.hpp:77] Creating layer res3a
I0525 06:39:07.798228  2037 net.cpp:86] Creating Layer res3a
I0525 06:39:07.798357  2037 net.cpp:408] res3a <- res3a_branch1
I0525 06:39:07.798431  2037 net.cpp:408] res3a <- res3a_branch2b
I0525 06:39:07.798521  2037 net.cpp:382] res3a -> res3a
I0525 06:39:07.798620  2037 net.cpp:124] Setting up res3a
I0525 06:39:07.798684  2037 net.cpp:131] Top shape: 1 128 28 28 (100352)
I0525 06:39:07.798765  2037 net.cpp:139] Memory required for data: 40341504
I0525 06:39:07.798826  2037 layer_factory.hpp:77] Creating layer res3a_relu
I0525 06:39:07.798902  2037 net.cpp:86] Creating Layer res3a_relu
I0525 06:39:07.798966  2037 net.cpp:408] res3a_relu <- res3a
I0525 06:39:07.799041  2037 net.cpp:369] res3a_relu -> res3a (in-place)
I0525 06:39:07.799122  2037 net.cpp:124] Setting up res3a_relu
I0525 06:39:07.799182  2037 net.cpp:131] Top shape: 1 128 28 28 (100352)
I0525 06:39:07.799260  2037 net.cpp:139] Memory required for data: 40742912
I0525 06:39:07.799322  2037 layer_factory.hpp:77] Creating layer res3a_res3a_relu_0_split
I0525 06:39:07.799398  2037 net.cpp:86] Creating Layer res3a_res3a_relu_0_split
I0525 06:39:07.799463  2037 net.cpp:408] res3a_res3a_relu_0_split <- res3a
I0525 06:39:07.799540  2037 net.cpp:382] res3a_res3a_relu_0_split -> res3a_res3a_relu_0_split_0
I0525 06:39:07.799641  2037 net.cpp:382] res3a_res3a_relu_0_split -> res3a_res3a_relu_0_split_1
I0525 06:39:07.799742  2037 net.cpp:124] Setting up res3a_res3a_relu_0_split
I0525 06:39:07.799805  2037 net.cpp:131] Top shape: 1 128 28 28 (100352)
I0525 06:39:07.799885  2037 net.cpp:131] Top shape: 1 128 28 28 (100352)
I0525 06:39:07.799959  2037 net.cpp:139] Memory required for data: 41545728
I0525 06:39:07.800021  2037 layer_factory.hpp:77] Creating layer res3b_branch2a
I0525 06:39:07.800117  2037 net.cpp:86] Creating Layer res3b_branch2a
I0525 06:39:07.800182  2037 net.cpp:408] res3b_branch2a <- res3a_res3a_relu_0_split_0
I0525 06:39:07.800268  2037 net.cpp:382] res3b_branch2a -> res3b_branch2a
I0525 06:39:07.818310  2037 net.cpp:124] Setting up res3b_branch2a
I0525 06:39:07.818457  2037 net.cpp:131] Top shape: 1 128 28 28 (100352)
I0525 06:39:07.818567  2037 net.cpp:139] Memory required for data: 41947136
I0525 06:39:07.818657  2037 layer_factory.hpp:77] Creating layer bn3b_branch2a
I0525 06:39:07.818748  2037 net.cpp:86] Creating Layer bn3b_branch2a
I0525 06:39:07.818819  2037 net.cpp:408] bn3b_branch2a <- res3b_branch2a
I0525 06:39:07.818902  2037 net.cpp:369] bn3b_branch2a -> res3b_branch2a (in-place)
I0525 06:39:07.819069  2037 net.cpp:124] Setting up bn3b_branch2a
I0525 06:39:07.819139  2037 net.cpp:131] Top shape: 1 128 28 28 (100352)
I0525 06:39:07.819217  2037 net.cpp:139] Memory required for data: 42348544
I0525 06:39:07.819324  2037 layer_factory.hpp:77] Creating layer scale3b_branch2a
I0525 06:39:07.819407  2037 net.cpp:86] Creating Layer scale3b_branch2a
I0525 06:39:07.819473  2037 net.cpp:408] scale3b_branch2a <- res3b_branch2a
I0525 06:39:07.819559  2037 net.cpp:369] scale3b_branch2a -> res3b_branch2a (in-place)
I0525 06:39:07.819684  2037 layer_factory.hpp:77] Creating layer scale3b_branch2a
I0525 06:39:07.819849  2037 net.cpp:124] Setting up scale3b_branch2a
I0525 06:39:07.819917  2037 net.cpp:131] Top shape: 1 128 28 28 (100352)
I0525 06:39:07.819998  2037 net.cpp:139] Memory required for data: 42749952
I0525 06:39:07.820099  2037 layer_factory.hpp:77] Creating layer res3b_branch2a_relu
I0525 06:39:07.820178  2037 net.cpp:86] Creating Layer res3b_branch2a_relu
I0525 06:39:07.820291  2037 net.cpp:408] res3b_branch2a_relu <- res3b_branch2a
I0525 06:39:07.820456  2037 net.cpp:369] res3b_branch2a_relu -> res3b_branch2a (in-place)
I0525 06:39:07.820546  2037 net.cpp:124] Setting up res3b_branch2a_relu
I0525 06:39:07.820608  2037 net.cpp:131] Top shape: 1 128 28 28 (100352)
I0525 06:39:07.820688  2037 net.cpp:139] Memory required for data: 43151360
I0525 06:39:07.820749  2037 layer_factory.hpp:77] Creating layer res3b_branch2b
I0525 06:39:07.820843  2037 net.cpp:86] Creating Layer res3b_branch2b
I0525 06:39:07.820910  2037 net.cpp:408] res3b_branch2b <- res3b_branch2a
I0525 06:39:07.821017  2037 net.cpp:382] res3b_branch2b -> res3b_branch2b
I0525 06:39:07.839084  2037 net.cpp:124] Setting up res3b_branch2b
I0525 06:39:07.839238  2037 net.cpp:131] Top shape: 1 128 28 28 (100352)
I0525 06:39:07.839332  2037 net.cpp:139] Memory required for data: 43552768
I0525 06:39:07.839423  2037 layer_factory.hpp:77] Creating layer bn3b_branch2b
I0525 06:39:07.839512  2037 net.cpp:86] Creating Layer bn3b_branch2b
I0525 06:39:07.839582  2037 net.cpp:408] bn3b_branch2b <- res3b_branch2b
I0525 06:39:07.839665  2037 net.cpp:369] bn3b_branch2b -> res3b_branch2b (in-place)
I0525 06:39:07.839834  2037 net.cpp:124] Setting up bn3b_branch2b
I0525 06:39:07.839905  2037 net.cpp:131] Top shape: 1 128 28 28 (100352)
I0525 06:39:07.839985  2037 net.cpp:139] Memory required for data: 43954176
I0525 06:39:07.840095  2037 layer_factory.hpp:77] Creating layer scale3b_branch2b
I0525 06:39:07.840178  2037 net.cpp:86] Creating Layer scale3b_branch2b
I0525 06:39:07.840245  2037 net.cpp:408] scale3b_branch2b <- res3b_branch2b
I0525 06:39:07.840323  2037 net.cpp:369] scale3b_branch2b -> res3b_branch2b (in-place)
I0525 06:39:07.840447  2037 layer_factory.hpp:77] Creating layer scale3b_branch2b
I0525 06:39:07.840611  2037 net.cpp:124] Setting up scale3b_branch2b
I0525 06:39:07.840680  2037 net.cpp:131] Top shape: 1 128 28 28 (100352)
I0525 06:39:07.840761  2037 net.cpp:139] Memory required for data: 44355584
I0525 06:39:07.840950  2037 layer_factory.hpp:77] Creating layer res3b
I0525 06:39:07.841091  2037 net.cpp:86] Creating Layer res3b
I0525 06:39:07.841166  2037 net.cpp:408] res3b <- res3a_res3a_relu_0_split_1
I0525 06:39:07.841240  2037 net.cpp:408] res3b <- res3b_branch2b
I0525 06:39:07.841323  2037 net.cpp:382] res3b -> res3b
I0525 06:39:07.841423  2037 net.cpp:124] Setting up res3b
I0525 06:39:07.841487  2037 net.cpp:131] Top shape: 1 128 28 28 (100352)
I0525 06:39:07.841567  2037 net.cpp:139] Memory required for data: 44756992
I0525 06:39:07.841629  2037 layer_factory.hpp:77] Creating layer res3b_relu
I0525 06:39:07.841706  2037 net.cpp:86] Creating Layer res3b_relu
I0525 06:39:07.841769  2037 net.cpp:408] res3b_relu <- res3b
I0525 06:39:07.841845  2037 net.cpp:369] res3b_relu -> res3b (in-place)
I0525 06:39:07.841925  2037 net.cpp:124] Setting up res3b_relu
I0525 06:39:07.841986  2037 net.cpp:131] Top shape: 1 128 28 28 (100352)
I0525 06:39:07.842065  2037 net.cpp:139] Memory required for data: 45158400
I0525 06:39:07.842128  2037 layer_factory.hpp:77] Creating layer res3b_res3b_relu_0_split
I0525 06:39:07.842202  2037 net.cpp:86] Creating Layer res3b_res3b_relu_0_split
I0525 06:39:07.842267  2037 net.cpp:408] res3b_res3b_relu_0_split <- res3b
I0525 06:39:07.842346  2037 net.cpp:382] res3b_res3b_relu_0_split -> res3b_res3b_relu_0_split_0
I0525 06:39:07.842439  2037 net.cpp:382] res3b_res3b_relu_0_split -> res3b_res3b_relu_0_split_1
I0525 06:39:07.842538  2037 net.cpp:124] Setting up res3b_res3b_relu_0_split
I0525 06:39:07.842602  2037 net.cpp:131] Top shape: 1 128 28 28 (100352)
I0525 06:39:07.842681  2037 net.cpp:131] Top shape: 1 128 28 28 (100352)
I0525 06:39:07.842758  2037 net.cpp:139] Memory required for data: 45961216
I0525 06:39:07.842819  2037 layer_factory.hpp:77] Creating layer res4a_branch1
I0525 06:39:07.842912  2037 net.cpp:86] Creating Layer res4a_branch1
I0525 06:39:07.842979  2037 net.cpp:408] res4a_branch1 <- res3b_res3b_relu_0_split_0
I0525 06:39:07.843075  2037 net.cpp:382] res4a_branch1 -> res4a_branch1
I0525 06:39:07.847343  2037 net.cpp:124] Setting up res4a_branch1
I0525 06:39:07.847446  2037 net.cpp:131] Top shape: 1 256 14 14 (50176)
I0525 06:39:07.847537  2037 net.cpp:139] Memory required for data: 46161920
I0525 06:39:07.847621  2037 layer_factory.hpp:77] Creating layer bn4a_branch1
I0525 06:39:07.847705  2037 net.cpp:86] Creating Layer bn4a_branch1
I0525 06:39:07.847774  2037 net.cpp:408] bn4a_branch1 <- res4a_branch1
I0525 06:39:07.847853  2037 net.cpp:369] bn4a_branch1 -> res4a_branch1 (in-place)
I0525 06:39:07.848019  2037 net.cpp:124] Setting up bn4a_branch1
I0525 06:39:07.848089  2037 net.cpp:131] Top shape: 1 256 14 14 (50176)
I0525 06:39:07.848178  2037 net.cpp:139] Memory required for data: 46362624
I0525 06:39:07.848333  2037 layer_factory.hpp:77] Creating layer scale4a_branch1
I0525 06:39:07.848435  2037 net.cpp:86] Creating Layer scale4a_branch1
I0525 06:39:07.848505  2037 net.cpp:408] scale4a_branch1 <- res4a_branch1
I0525 06:39:07.848584  2037 net.cpp:369] scale4a_branch1 -> res4a_branch1 (in-place)
I0525 06:39:07.848706  2037 layer_factory.hpp:77] Creating layer scale4a_branch1
I0525 06:39:07.848889  2037 net.cpp:124] Setting up scale4a_branch1
I0525 06:39:07.848959  2037 net.cpp:131] Top shape: 1 256 14 14 (50176)
I0525 06:39:07.849043  2037 net.cpp:139] Memory required for data: 46563328
I0525 06:39:07.849135  2037 layer_factory.hpp:77] Creating layer res4a_branch2a
I0525 06:39:07.849238  2037 net.cpp:86] Creating Layer res4a_branch2a
I0525 06:39:07.849308  2037 net.cpp:408] res4a_branch2a <- res3b_res3b_relu_0_split_1
I0525 06:39:07.849396  2037 net.cpp:382] res4a_branch2a -> res4a_branch2a
I0525 06:39:07.885157  2037 net.cpp:124] Setting up res4a_branch2a
I0525 06:39:07.885324  2037 net.cpp:131] Top shape: 1 256 14 14 (50176)
I0525 06:39:07.885418  2037 net.cpp:139] Memory required for data: 46764032
I0525 06:39:07.885509  2037 layer_factory.hpp:77] Creating layer bn4a_branch2a
I0525 06:39:07.885601  2037 net.cpp:86] Creating Layer bn4a_branch2a
I0525 06:39:07.885670  2037 net.cpp:408] bn4a_branch2a <- res4a_branch2a
I0525 06:39:07.885753  2037 net.cpp:369] bn4a_branch2a -> res4a_branch2a (in-place)
I0525 06:39:07.885927  2037 net.cpp:124] Setting up bn4a_branch2a
I0525 06:39:07.885998  2037 net.cpp:131] Top shape: 1 256 14 14 (50176)
I0525 06:39:07.886078  2037 net.cpp:139] Memory required for data: 46964736
I0525 06:39:07.886188  2037 layer_factory.hpp:77] Creating layer scale4a_branch2a
I0525 06:39:07.886271  2037 net.cpp:86] Creating Layer scale4a_branch2a
I0525 06:39:07.886339  2037 net.cpp:408] scale4a_branch2a <- res4a_branch2a
I0525 06:39:07.886418  2037 net.cpp:369] scale4a_branch2a -> res4a_branch2a (in-place)
I0525 06:39:07.886545  2037 layer_factory.hpp:77] Creating layer scale4a_branch2a
I0525 06:39:07.886708  2037 net.cpp:124] Setting up scale4a_branch2a
I0525 06:39:07.886776  2037 net.cpp:131] Top shape: 1 256 14 14 (50176)
I0525 06:39:07.886857  2037 net.cpp:139] Memory required for data: 47165440
I0525 06:39:07.886950  2037 layer_factory.hpp:77] Creating layer res4a_branch2a_relu
I0525 06:39:07.887030  2037 net.cpp:86] Creating Layer res4a_branch2a_relu
I0525 06:39:07.887096  2037 net.cpp:408] res4a_branch2a_relu <- res4a_branch2a
I0525 06:39:07.887181  2037 net.cpp:369] res4a_branch2a_relu -> res4a_branch2a (in-place)
I0525 06:39:07.887267  2037 net.cpp:124] Setting up res4a_branch2a_relu
I0525 06:39:07.887329  2037 net.cpp:131] Top shape: 1 256 14 14 (50176)
I0525 06:39:07.887409  2037 net.cpp:139] Memory required for data: 47366144
I0525 06:39:07.887471  2037 layer_factory.hpp:77] Creating layer res4a_branch2b
I0525 06:39:07.887565  2037 net.cpp:86] Creating Layer res4a_branch2b
I0525 06:39:07.887630  2037 net.cpp:408] res4a_branch2b <- res4a_branch2a
I0525 06:39:07.887717  2037 net.cpp:382] res4a_branch2b -> res4a_branch2b
I0525 06:39:07.959065  2037 net.cpp:124] Setting up res4a_branch2b
I0525 06:39:07.959239  2037 net.cpp:131] Top shape: 1 256 14 14 (50176)
I0525 06:39:07.959336  2037 net.cpp:139] Memory required for data: 47566848
I0525 06:39:07.959481  2037 layer_factory.hpp:77] Creating layer bn4a_branch2b
I0525 06:39:07.959678  2037 net.cpp:86] Creating Layer bn4a_branch2b
I0525 06:39:07.959753  2037 net.cpp:408] bn4a_branch2b <- res4a_branch2b
I0525 06:39:07.959852  2037 net.cpp:369] bn4a_branch2b -> res4a_branch2b (in-place)
I0525 06:39:07.960022  2037 net.cpp:124] Setting up bn4a_branch2b
I0525 06:39:07.960094  2037 net.cpp:131] Top shape: 1 256 14 14 (50176)
I0525 06:39:07.960175  2037 net.cpp:139] Memory required for data: 47767552
I0525 06:39:07.960283  2037 layer_factory.hpp:77] Creating layer scale4a_branch2b
I0525 06:39:07.960366  2037 net.cpp:86] Creating Layer scale4a_branch2b
I0525 06:39:07.960436  2037 net.cpp:408] scale4a_branch2b <- res4a_branch2b
I0525 06:39:07.960515  2037 net.cpp:369] scale4a_branch2b -> res4a_branch2b (in-place)
I0525 06:39:07.960640  2037 layer_factory.hpp:77] Creating layer scale4a_branch2b
I0525 06:39:07.960806  2037 net.cpp:124] Setting up scale4a_branch2b
I0525 06:39:07.960876  2037 net.cpp:131] Top shape: 1 256 14 14 (50176)
I0525 06:39:07.960958  2037 net.cpp:139] Memory required for data: 47968256
I0525 06:39:07.961050  2037 layer_factory.hpp:77] Creating layer res4a
I0525 06:39:07.961130  2037 net.cpp:86] Creating Layer res4a
I0525 06:39:07.961195  2037 net.cpp:408] res4a <- res4a_branch1
I0525 06:39:07.961266  2037 net.cpp:408] res4a <- res4a_branch2b
I0525 06:39:07.961345  2037 net.cpp:382] res4a -> res4a
I0525 06:39:07.961441  2037 net.cpp:124] Setting up res4a
I0525 06:39:07.961503  2037 net.cpp:131] Top shape: 1 256 14 14 (50176)
I0525 06:39:07.961583  2037 net.cpp:139] Memory required for data: 48168960
I0525 06:39:07.961645  2037 layer_factory.hpp:77] Creating layer res4a_relu
I0525 06:39:07.961786  2037 net.cpp:86] Creating Layer res4a_relu
I0525 06:39:07.961856  2037 net.cpp:408] res4a_relu <- res4a
I0525 06:39:07.961935  2037 net.cpp:369] res4a_relu -> res4a (in-place)
I0525 06:39:07.962018  2037 net.cpp:124] Setting up res4a_relu
I0525 06:39:07.962080  2037 net.cpp:131] Top shape: 1 256 14 14 (50176)
I0525 06:39:07.962162  2037 net.cpp:139] Memory required for data: 48369664
I0525 06:39:07.962226  2037 layer_factory.hpp:77] Creating layer res4a_res4a_relu_0_split
I0525 06:39:07.962303  2037 net.cpp:86] Creating Layer res4a_res4a_relu_0_split
I0525 06:39:07.962366  2037 net.cpp:408] res4a_res4a_relu_0_split <- res4a
I0525 06:39:07.962446  2037 net.cpp:382] res4a_res4a_relu_0_split -> res4a_res4a_relu_0_split_0
I0525 06:39:07.962539  2037 net.cpp:382] res4a_res4a_relu_0_split -> res4a_res4a_relu_0_split_1
I0525 06:39:07.962669  2037 net.cpp:124] Setting up res4a_res4a_relu_0_split
I0525 06:39:07.962735  2037 net.cpp:131] Top shape: 1 256 14 14 (50176)
I0525 06:39:07.962821  2037 net.cpp:131] Top shape: 1 256 14 14 (50176)
I0525 06:39:07.962899  2037 net.cpp:139] Memory required for data: 48771072
I0525 06:39:07.962961  2037 layer_factory.hpp:77] Creating layer res4b_branch2a
I0525 06:39:07.963064  2037 net.cpp:86] Creating Layer res4b_branch2a
I0525 06:39:07.963133  2037 net.cpp:408] res4b_branch2a <- res4a_res4a_relu_0_split_0
I0525 06:39:07.963222  2037 net.cpp:382] res4b_branch2a -> res4b_branch2a
I0525 06:39:08.034566  2037 net.cpp:124] Setting up res4b_branch2a
I0525 06:39:08.034739  2037 net.cpp:131] Top shape: 1 256 14 14 (50176)
I0525 06:39:08.034834  2037 net.cpp:139] Memory required for data: 48971776
I0525 06:39:08.034927  2037 layer_factory.hpp:77] Creating layer bn4b_branch2a
I0525 06:39:08.035022  2037 net.cpp:86] Creating Layer bn4b_branch2a
I0525 06:39:08.035092  2037 net.cpp:408] bn4b_branch2a <- res4b_branch2a
I0525 06:39:08.035177  2037 net.cpp:369] bn4b_branch2a -> res4b_branch2a (in-place)
I0525 06:39:08.035367  2037 net.cpp:124] Setting up bn4b_branch2a
I0525 06:39:08.035436  2037 net.cpp:131] Top shape: 1 256 14 14 (50176)
I0525 06:39:08.035518  2037 net.cpp:139] Memory required for data: 49172480
I0525 06:39:08.035627  2037 layer_factory.hpp:77] Creating layer scale4b_branch2a
I0525 06:39:08.035712  2037 net.cpp:86] Creating Layer scale4b_branch2a
I0525 06:39:08.035778  2037 net.cpp:408] scale4b_branch2a <- res4b_branch2a
I0525 06:39:08.035996  2037 net.cpp:369] scale4b_branch2a -> res4b_branch2a (in-place)
I0525 06:39:08.036131  2037 layer_factory.hpp:77] Creating layer scale4b_branch2a
I0525 06:39:08.036295  2037 net.cpp:124] Setting up scale4b_branch2a
I0525 06:39:08.036365  2037 net.cpp:131] Top shape: 1 256 14 14 (50176)
I0525 06:39:08.036448  2037 net.cpp:139] Memory required for data: 49373184
I0525 06:39:08.036540  2037 layer_factory.hpp:77] Creating layer res4b_branch2a_relu
I0525 06:39:08.036620  2037 net.cpp:86] Creating Layer res4b_branch2a_relu
I0525 06:39:08.036687  2037 net.cpp:408] res4b_branch2a_relu <- res4b_branch2a
I0525 06:39:08.036774  2037 net.cpp:369] res4b_branch2a_relu -> res4b_branch2a (in-place)
I0525 06:39:08.036860  2037 net.cpp:124] Setting up res4b_branch2a_relu
I0525 06:39:08.036924  2037 net.cpp:131] Top shape: 1 256 14 14 (50176)
I0525 06:39:08.037003  2037 net.cpp:139] Memory required for data: 49573888
I0525 06:39:08.037065  2037 layer_factory.hpp:77] Creating layer res4b_branch2b
I0525 06:39:08.037158  2037 net.cpp:86] Creating Layer res4b_branch2b
I0525 06:39:08.037225  2037 net.cpp:408] res4b_branch2b <- res4b_branch2a
I0525 06:39:08.037312  2037 net.cpp:382] res4b_branch2b -> res4b_branch2b
I0525 06:39:08.108655  2037 net.cpp:124] Setting up res4b_branch2b
I0525 06:39:08.108826  2037 net.cpp:131] Top shape: 1 256 14 14 (50176)
I0525 06:39:08.108922  2037 net.cpp:139] Memory required for data: 49774592
I0525 06:39:08.109014  2037 layer_factory.hpp:77] Creating layer bn4b_branch2b
I0525 06:39:08.109107  2037 net.cpp:86] Creating Layer bn4b_branch2b
I0525 06:39:08.109177  2037 net.cpp:408] bn4b_branch2b <- res4b_branch2b
I0525 06:39:08.109274  2037 net.cpp:369] bn4b_branch2b -> res4b_branch2b (in-place)
I0525 06:39:08.109444  2037 net.cpp:124] Setting up bn4b_branch2b
I0525 06:39:08.109513  2037 net.cpp:131] Top shape: 1 256 14 14 (50176)
I0525 06:39:08.109593  2037 net.cpp:139] Memory required for data: 49975296
I0525 06:39:08.109701  2037 layer_factory.hpp:77] Creating layer scale4b_branch2b
I0525 06:39:08.109783  2037 net.cpp:86] Creating Layer scale4b_branch2b
I0525 06:39:08.109850  2037 net.cpp:408] scale4b_branch2b <- res4b_branch2b
I0525 06:39:08.109930  2037 net.cpp:369] scale4b_branch2b -> res4b_branch2b (in-place)
I0525 06:39:08.110055  2037 layer_factory.hpp:77] Creating layer scale4b_branch2b
I0525 06:39:08.110234  2037 net.cpp:124] Setting up scale4b_branch2b
I0525 06:39:08.110306  2037 net.cpp:131] Top shape: 1 256 14 14 (50176)
I0525 06:39:08.110388  2037 net.cpp:139] Memory required for data: 50176000
I0525 06:39:08.110481  2037 layer_factory.hpp:77] Creating layer res4b
I0525 06:39:08.110563  2037 net.cpp:86] Creating Layer res4b
I0525 06:39:08.110630  2037 net.cpp:408] res4b <- res4a_res4a_relu_0_split_1
I0525 06:39:08.110703  2037 net.cpp:408] res4b <- res4b_branch2b
I0525 06:39:08.110785  2037 net.cpp:382] res4b -> res4b
I0525 06:39:08.110879  2037 net.cpp:124] Setting up res4b
I0525 06:39:08.110944  2037 net.cpp:131] Top shape: 1 256 14 14 (50176)
I0525 06:39:08.111021  2037 net.cpp:139] Memory required for data: 50376704
I0525 06:39:08.111083  2037 layer_factory.hpp:77] Creating layer res4b_relu
I0525 06:39:08.111156  2037 net.cpp:86] Creating Layer res4b_relu
I0525 06:39:08.111220  2037 net.cpp:408] res4b_relu <- res4b
I0525 06:39:08.111295  2037 net.cpp:369] res4b_relu -> res4b (in-place)
I0525 06:39:08.111375  2037 net.cpp:124] Setting up res4b_relu
I0525 06:39:08.111436  2037 net.cpp:131] Top shape: 1 256 14 14 (50176)
I0525 06:39:08.111515  2037 net.cpp:139] Memory required for data: 50577408
I0525 06:39:08.111577  2037 layer_factory.hpp:77] Creating layer res4b_res4b_relu_0_split
I0525 06:39:08.111654  2037 net.cpp:86] Creating Layer res4b_res4b_relu_0_split
I0525 06:39:08.111717  2037 net.cpp:408] res4b_res4b_relu_0_split <- res4b
I0525 06:39:08.111796  2037 net.cpp:382] res4b_res4b_relu_0_split -> res4b_res4b_relu_0_split_0
I0525 06:39:08.111889  2037 net.cpp:382] res4b_res4b_relu_0_split -> res4b_res4b_relu_0_split_1
I0525 06:39:08.112038  2037 net.cpp:124] Setting up res4b_res4b_relu_0_split
I0525 06:39:08.112191  2037 net.cpp:131] Top shape: 1 256 14 14 (50176)
I0525 06:39:08.112287  2037 net.cpp:131] Top shape: 1 256 14 14 (50176)
I0525 06:39:08.112365  2037 net.cpp:139] Memory required for data: 50978816
I0525 06:39:08.112426  2037 layer_factory.hpp:77] Creating layer res5a_branch1
I0525 06:39:08.112522  2037 net.cpp:86] Creating Layer res5a_branch1
I0525 06:39:08.112592  2037 net.cpp:408] res5a_branch1 <- res4b_res4b_relu_0_split_0
I0525 06:39:08.112679  2037 net.cpp:382] res5a_branch1 -> res5a_branch1
I0525 06:39:08.128687  2037 net.cpp:124] Setting up res5a_branch1
I0525 06:39:08.128840  2037 net.cpp:131] Top shape: 1 512 7 7 (25088)
I0525 06:39:08.128932  2037 net.cpp:139] Memory required for data: 51079168
I0525 06:39:08.129022  2037 layer_factory.hpp:77] Creating layer bn5a_branch1
I0525 06:39:08.129113  2037 net.cpp:86] Creating Layer bn5a_branch1
I0525 06:39:08.129184  2037 net.cpp:408] bn5a_branch1 <- res5a_branch1
I0525 06:39:08.129302  2037 net.cpp:369] bn5a_branch1 -> res5a_branch1 (in-place)
I0525 06:39:08.129513  2037 net.cpp:124] Setting up bn5a_branch1
I0525 06:39:08.129585  2037 net.cpp:131] Top shape: 1 512 7 7 (25088)
I0525 06:39:08.129667  2037 net.cpp:139] Memory required for data: 51179520
I0525 06:39:08.129776  2037 layer_factory.hpp:77] Creating layer scale5a_branch1
I0525 06:39:08.129859  2037 net.cpp:86] Creating Layer scale5a_branch1
I0525 06:39:08.129925  2037 net.cpp:408] scale5a_branch1 <- res5a_branch1
I0525 06:39:08.130003  2037 net.cpp:369] scale5a_branch1 -> res5a_branch1 (in-place)
I0525 06:39:08.130136  2037 layer_factory.hpp:77] Creating layer scale5a_branch1
I0525 06:39:08.130295  2037 net.cpp:124] Setting up scale5a_branch1
I0525 06:39:08.130363  2037 net.cpp:131] Top shape: 1 512 7 7 (25088)
I0525 06:39:08.130445  2037 net.cpp:139] Memory required for data: 51279872
I0525 06:39:08.130538  2037 layer_factory.hpp:77] Creating layer res5a_branch2a
I0525 06:39:08.130636  2037 net.cpp:86] Creating Layer res5a_branch2a
I0525 06:39:08.130705  2037 net.cpp:408] res5a_branch2a <- res4b_res4b_relu_0_split_1
I0525 06:39:08.130801  2037 net.cpp:382] res5a_branch2a -> res5a_branch2a
I0525 06:39:08.273327  2037 net.cpp:124] Setting up res5a_branch2a
I0525 06:39:08.273502  2037 net.cpp:131] Top shape: 1 512 7 7 (25088)
I0525 06:39:08.273600  2037 net.cpp:139] Memory required for data: 51380224
I0525 06:39:08.273694  2037 layer_factory.hpp:77] Creating layer bn5a_branch2a
I0525 06:39:08.273787  2037 net.cpp:86] Creating Layer bn5a_branch2a
I0525 06:39:08.273857  2037 net.cpp:408] bn5a_branch2a <- res5a_branch2a
I0525 06:39:08.273941  2037 net.cpp:369] bn5a_branch2a -> res5a_branch2a (in-place)
I0525 06:39:08.274112  2037 net.cpp:124] Setting up bn5a_branch2a
I0525 06:39:08.274185  2037 net.cpp:131] Top shape: 1 512 7 7 (25088)
I0525 06:39:08.274266  2037 net.cpp:139] Memory required for data: 51480576
I0525 06:39:08.274374  2037 layer_factory.hpp:77] Creating layer scale5a_branch2a
I0525 06:39:08.274456  2037 net.cpp:86] Creating Layer scale5a_branch2a
I0525 06:39:08.274524  2037 net.cpp:408] scale5a_branch2a <- res5a_branch2a
I0525 06:39:08.274603  2037 net.cpp:369] scale5a_branch2a -> res5a_branch2a (in-place)
I0525 06:39:08.274739  2037 layer_factory.hpp:77] Creating layer scale5a_branch2a
I0525 06:39:08.274900  2037 net.cpp:124] Setting up scale5a_branch2a
I0525 06:39:08.274971  2037 net.cpp:131] Top shape: 1 512 7 7 (25088)
I0525 06:39:08.275053  2037 net.cpp:139] Memory required for data: 51580928
I0525 06:39:08.275147  2037 layer_factory.hpp:77] Creating layer res5a_branch2a_relu
I0525 06:39:08.275228  2037 net.cpp:86] Creating Layer res5a_branch2a_relu
I0525 06:39:08.275295  2037 net.cpp:408] res5a_branch2a_relu <- res5a_branch2a
I0525 06:39:08.275372  2037 net.cpp:369] res5a_branch2a_relu -> res5a_branch2a (in-place)
I0525 06:39:08.275457  2037 net.cpp:124] Setting up res5a_branch2a_relu
I0525 06:39:08.275518  2037 net.cpp:131] Top shape: 1 512 7 7 (25088)
I0525 06:39:08.275599  2037 net.cpp:139] Memory required for data: 51681280
I0525 06:39:08.275710  2037 layer_factory.hpp:77] Creating layer res5a_branch2b
I0525 06:39:08.275918  2037 net.cpp:86] Creating Layer res5a_branch2b
I0525 06:39:08.275990  2037 net.cpp:408] res5a_branch2b <- res5a_branch2a
I0525 06:39:08.276077  2037 net.cpp:382] res5a_branch2b -> res5a_branch2b
I0525 06:39:08.560889  2037 net.cpp:124] Setting up res5a_branch2b
I0525 06:39:08.561064  2037 net.cpp:131] Top shape: 1 512 7 7 (25088)
I0525 06:39:08.561158  2037 net.cpp:139] Memory required for data: 51781632
I0525 06:39:08.561251  2037 layer_factory.hpp:77] Creating layer bn5a_branch2b
I0525 06:39:08.561343  2037 net.cpp:86] Creating Layer bn5a_branch2b
I0525 06:39:08.561414  2037 net.cpp:408] bn5a_branch2b <- res5a_branch2b
I0525 06:39:08.561501  2037 net.cpp:369] bn5a_branch2b -> res5a_branch2b (in-place)
I0525 06:39:08.561673  2037 net.cpp:124] Setting up bn5a_branch2b
I0525 06:39:08.561744  2037 net.cpp:131] Top shape: 1 512 7 7 (25088)
I0525 06:39:08.561826  2037 net.cpp:139] Memory required for data: 51881984
I0525 06:39:08.561935  2037 layer_factory.hpp:77] Creating layer scale5a_branch2b
I0525 06:39:08.562019  2037 net.cpp:86] Creating Layer scale5a_branch2b
I0525 06:39:08.562085  2037 net.cpp:408] scale5a_branch2b <- res5a_branch2b
I0525 06:39:08.562165  2037 net.cpp:369] scale5a_branch2b -> res5a_branch2b (in-place)
I0525 06:39:08.562292  2037 layer_factory.hpp:77] Creating layer scale5a_branch2b
I0525 06:39:08.562463  2037 net.cpp:124] Setting up scale5a_branch2b
I0525 06:39:08.562534  2037 net.cpp:131] Top shape: 1 512 7 7 (25088)
I0525 06:39:08.562616  2037 net.cpp:139] Memory required for data: 51982336
I0525 06:39:08.562711  2037 layer_factory.hpp:77] Creating layer res5a
I0525 06:39:08.562791  2037 net.cpp:86] Creating Layer res5a
I0525 06:39:08.562856  2037 net.cpp:408] res5a <- res5a_branch1
I0525 06:39:08.562927  2037 net.cpp:408] res5a <- res5a_branch2b
I0525 06:39:08.563006  2037 net.cpp:382] res5a -> res5a
I0525 06:39:08.563102  2037 net.cpp:124] Setting up res5a
I0525 06:39:08.563164  2037 net.cpp:131] Top shape: 1 512 7 7 (25088)
I0525 06:39:08.563244  2037 net.cpp:139] Memory required for data: 52082688
I0525 06:39:08.563306  2037 layer_factory.hpp:77] Creating layer res5a_relu
I0525 06:39:08.563381  2037 net.cpp:86] Creating Layer res5a_relu
I0525 06:39:08.563447  2037 net.cpp:408] res5a_relu <- res5a
I0525 06:39:08.563524  2037 net.cpp:369] res5a_relu -> res5a (in-place)
I0525 06:39:08.563606  2037 net.cpp:124] Setting up res5a_relu
I0525 06:39:08.563668  2037 net.cpp:131] Top shape: 1 512 7 7 (25088)
I0525 06:39:08.563745  2037 net.cpp:139] Memory required for data: 52183040
I0525 06:39:08.563807  2037 layer_factory.hpp:77] Creating layer res5a_res5a_relu_0_split
I0525 06:39:08.563884  2037 net.cpp:86] Creating Layer res5a_res5a_relu_0_split
I0525 06:39:08.563947  2037 net.cpp:408] res5a_res5a_relu_0_split <- res5a
I0525 06:39:08.564026  2037 net.cpp:382] res5a_res5a_relu_0_split -> res5a_res5a_relu_0_split_0
I0525 06:39:08.564119  2037 net.cpp:382] res5a_res5a_relu_0_split -> res5a_res5a_relu_0_split_1
I0525 06:39:08.564218  2037 net.cpp:124] Setting up res5a_res5a_relu_0_split
I0525 06:39:08.564280  2037 net.cpp:131] Top shape: 1 512 7 7 (25088)
I0525 06:39:08.564369  2037 net.cpp:131] Top shape: 1 512 7 7 (25088)
I0525 06:39:08.564446  2037 net.cpp:139] Memory required for data: 52383744
I0525 06:39:08.564508  2037 layer_factory.hpp:77] Creating layer res5b_branch2a
I0525 06:39:08.564604  2037 net.cpp:86] Creating Layer res5b_branch2a
I0525 06:39:08.564671  2037 net.cpp:408] res5b_branch2a <- res5a_res5a_relu_0_split_0
I0525 06:39:08.564756  2037 net.cpp:382] res5b_branch2a -> res5b_branch2a
I0525 06:39:08.849392  2037 net.cpp:124] Setting up res5b_branch2a
I0525 06:39:08.849566  2037 net.cpp:131] Top shape: 1 512 7 7 (25088)
I0525 06:39:08.849661  2037 net.cpp:139] Memory required for data: 52484096
I0525 06:39:08.849756  2037 layer_factory.hpp:77] Creating layer bn5b_branch2a
I0525 06:39:08.849849  2037 net.cpp:86] Creating Layer bn5b_branch2a
I0525 06:39:08.849972  2037 net.cpp:408] bn5b_branch2a <- res5b_branch2a
I0525 06:39:08.850162  2037 net.cpp:369] bn5b_branch2a -> res5b_branch2a (in-place)
I0525 06:39:08.850337  2037 net.cpp:124] Setting up bn5b_branch2a
I0525 06:39:08.850407  2037 net.cpp:131] Top shape: 1 512 7 7 (25088)
I0525 06:39:08.850488  2037 net.cpp:139] Memory required for data: 52584448
I0525 06:39:08.850598  2037 layer_factory.hpp:77] Creating layer scale5b_branch2a
I0525 06:39:08.850682  2037 net.cpp:86] Creating Layer scale5b_branch2a
I0525 06:39:08.850747  2037 net.cpp:408] scale5b_branch2a <- res5b_branch2a
I0525 06:39:08.850827  2037 net.cpp:369] scale5b_branch2a -> res5b_branch2a (in-place)
I0525 06:39:08.850963  2037 layer_factory.hpp:77] Creating layer scale5b_branch2a
I0525 06:39:08.851123  2037 net.cpp:124] Setting up scale5b_branch2a
I0525 06:39:08.851195  2037 net.cpp:131] Top shape: 1 512 7 7 (25088)
I0525 06:39:08.851276  2037 net.cpp:139] Memory required for data: 52684800
I0525 06:39:08.851370  2037 layer_factory.hpp:77] Creating layer res5b_branch2a_relu
I0525 06:39:08.851449  2037 net.cpp:86] Creating Layer res5b_branch2a_relu
I0525 06:39:08.851514  2037 net.cpp:408] res5b_branch2a_relu <- res5b_branch2a
I0525 06:39:08.851593  2037 net.cpp:369] res5b_branch2a_relu -> res5b_branch2a (in-place)
I0525 06:39:08.851676  2037 net.cpp:124] Setting up res5b_branch2a_relu
I0525 06:39:08.851738  2037 net.cpp:131] Top shape: 1 512 7 7 (25088)
I0525 06:39:08.851817  2037 net.cpp:139] Memory required for data: 52785152
I0525 06:39:08.851879  2037 layer_factory.hpp:77] Creating layer res5b_branch2b
I0525 06:39:08.851980  2037 net.cpp:86] Creating Layer res5b_branch2b
I0525 06:39:08.852049  2037 net.cpp:408] res5b_branch2b <- res5b_branch2a
I0525 06:39:08.852135  2037 net.cpp:382] res5b_branch2b -> res5b_branch2b
I0525 06:39:09.136804  2037 net.cpp:124] Setting up res5b_branch2b
I0525 06:39:09.136979  2037 net.cpp:131] Top shape: 1 512 7 7 (25088)
I0525 06:39:09.137074  2037 net.cpp:139] Memory required for data: 52885504
I0525 06:39:09.137166  2037 layer_factory.hpp:77] Creating layer bn5b_branch2b
I0525 06:39:09.137257  2037 net.cpp:86] Creating Layer bn5b_branch2b
I0525 06:39:09.137328  2037 net.cpp:408] bn5b_branch2b <- res5b_branch2b
I0525 06:39:09.137413  2037 net.cpp:369] bn5b_branch2b -> res5b_branch2b (in-place)
I0525 06:39:09.137599  2037 net.cpp:124] Setting up bn5b_branch2b
I0525 06:39:09.137671  2037 net.cpp:131] Top shape: 1 512 7 7 (25088)
I0525 06:39:09.137753  2037 net.cpp:139] Memory required for data: 52985856
I0525 06:39:09.137861  2037 layer_factory.hpp:77] Creating layer scale5b_branch2b
I0525 06:39:09.137945  2037 net.cpp:86] Creating Layer scale5b_branch2b
I0525 06:39:09.138012  2037 net.cpp:408] scale5b_branch2b <- res5b_branch2b
I0525 06:39:09.138092  2037 net.cpp:369] scale5b_branch2b -> res5b_branch2b (in-place)
I0525 06:39:09.138227  2037 layer_factory.hpp:77] Creating layer scale5b_branch2b
I0525 06:39:09.138461  2037 net.cpp:124] Setting up scale5b_branch2b
I0525 06:39:09.138535  2037 net.cpp:131] Top shape: 1 512 7 7 (25088)
I0525 06:39:09.138617  2037 net.cpp:139] Memory required for data: 53086208
I0525 06:39:09.138710  2037 layer_factory.hpp:77] Creating layer res5b
I0525 06:39:09.138790  2037 net.cpp:86] Creating Layer res5b
I0525 06:39:09.138857  2037 net.cpp:408] res5b <- res5a_res5a_relu_0_split_1
I0525 06:39:09.138931  2037 net.cpp:408] res5b <- res5b_branch2b
I0525 06:39:09.139011  2037 net.cpp:382] res5b -> res5b
I0525 06:39:09.139106  2037 net.cpp:124] Setting up res5b
I0525 06:39:09.139171  2037 net.cpp:131] Top shape: 1 512 7 7 (25088)
I0525 06:39:09.139250  2037 net.cpp:139] Memory required for data: 53186560
I0525 06:39:09.139312  2037 layer_factory.hpp:77] Creating layer res5b_relu
I0525 06:39:09.139386  2037 net.cpp:86] Creating Layer res5b_relu
I0525 06:39:09.139449  2037 net.cpp:408] res5b_relu <- res5b
I0525 06:39:09.139525  2037 net.cpp:369] res5b_relu -> res5b (in-place)
I0525 06:39:09.139607  2037 net.cpp:124] Setting up res5b_relu
I0525 06:39:09.139667  2037 net.cpp:131] Top shape: 1 512 7 7 (25088)
I0525 06:39:09.139796  2037 net.cpp:139] Memory required for data: 53286912
I0525 06:39:09.139945  2037 layer_factory.hpp:77] Creating layer pool5
I0525 06:39:09.140027  2037 net.cpp:86] Creating Layer pool5
I0525 06:39:09.140092  2037 net.cpp:408] pool5 <- res5b
I0525 06:39:09.140182  2037 net.cpp:382] pool5 -> pool5
I0525 06:39:09.140280  2037 net.cpp:124] Setting up pool5
I0525 06:39:09.140345  2037 net.cpp:131] Top shape: 1 512 1 1 (512)
I0525 06:39:09.140421  2037 net.cpp:139] Memory required for data: 53288960
I0525 06:39:09.140483  2037 layer_factory.hpp:77] Creating layer fc1000
I0525 06:39:09.140566  2037 net.cpp:86] Creating Layer fc1000
I0525 06:39:09.140630  2037 net.cpp:408] fc1000 <- pool5
I0525 06:39:09.140713  2037 net.cpp:382] fc1000 -> fc1000
I0525 06:39:09.185470  2037 net.cpp:124] Setting up fc1000
I0525 06:39:09.185679  2037 net.cpp:131] Top shape: 1 1000 (1000)
I0525 06:39:09.185776  2037 net.cpp:139] Memory required for data: 53292960
I0525 06:39:09.185884  2037 layer_factory.hpp:77] Creating layer prob
I0525 06:39:09.185974  2037 net.cpp:86] Creating Layer prob
I0525 06:39:09.186043  2037 net.cpp:408] prob <- fc1000
I0525 06:39:09.186125  2037 net.cpp:382] prob -> prob
I0525 06:39:09.186250  2037 net.cpp:124] Setting up prob
I0525 06:39:09.186317  2037 net.cpp:131] Top shape: 1 1000 (1000)
I0525 06:39:09.186403  2037 net.cpp:139] Memory required for data: 53296960
I0525 06:39:09.186465  2037 net.cpp:202] prob does not need backward computation.
I0525 06:39:09.186563  2037 net.cpp:202] fc1000 does not need backward computation.
I0525 06:39:09.186626  2037 net.cpp:202] pool5 does not need backward computation.
I0525 06:39:09.186691  2037 net.cpp:202] res5b_relu does not need backward computation.
…
