I0525 07:12:48.784945  2962 caffe.cpp:343] Use CPU.
I0525 07:12:48.822474  2962 net.cpp:53] Initializing net from parameters: 
name: "resnet18-cifar10"
state {
  phase: TRAIN
  level: 0
  stage: ""
}
layer {
  name: "data"
  type: "Input"
  top: "data"
  input_param {
    shape {
      dim: 1
      dim: 3
      dim: 32
      dim: 32
    }
  }
}
layer {
  name: "first_conv"
  type: "Convolution"
  bottom: "data"
  top: "first_conv"
  param {
    lr_mult: 1
    decay_mult: 1
  }
  convolution_param {
    num_output: 16
    pad: 1
    kernel_size: 3
    stride: 1
    weight_filler {
      type: "msra"
    }
  }
}
layer {
  name: "first_conv_bn"
  type: "BatchNorm"
  bottom: "first_conv"
  top: "first_conv"
}
layer {
  name: "first_conv_scale"
  type: "Scale"
  bottom: "first_conv"
  top: "first_conv"
  scale_param {
    bias_term: true
  }
}
layer {
  name: "first_conv_relu"
  type: "ReLU"
  bottom: "first_conv"
  top: "first_conv"
}
layer {
  name: "group0_block0_conv0"
  type: "Convolution"
  bottom: "first_conv"
  top: "group0_block0_conv0"
  param {
    lr_mult: 1
    decay_mult: 1
  }
  convolution_param {
    num_output: 16
    pad: 1
    kernel_size: 3
    stride: 1
    weight_filler {
      type: "msra"
    }
  }
}
layer {
  name: "group0_block0_conv0_bn"
  type: "BatchNorm"
  bottom: "group0_block0_conv0"
  top: "group0_block0_conv0"
}
layer {
  name: "group0_block0_conv0_scale"
  type: "Scale"
  bottom: "group0_block0_conv0"
  top: "group0_block0_conv0"
  scale_param {
    bias_term: true
  }
}
layer {
  name: "group0_block0_conv0_relu"
  type: "ReLU"
  bottom: "group0_block0_conv0"
  top: "group0_block0_conv0"
}
layer {
  name: "group0_block0_conv1"
  type: "Convolution"
  bottom: "group0_block0_conv0"
  top: "group0_block0_conv1"
  param {
    lr_mult: 1
    decay_mult: 1
  }
  convolution_param {
    num_output: 16
    pad: 1
    kernel_size: 3
    stride: 1
    weight_filler {
      type: "msra"
    }
  }
}
layer {
  name: "group0_block0_conv1_bn"
  type: "BatchNorm"
  bottom: "group0_block0_conv1"
  top: "group0_block0_conv1"
}
layer {
  name: "group0_block0_conv1_scale"
  type: "Scale"
  bottom: "group0_block0_conv1"
  top: "group0_block0_conv1"
  scale_param {
    bias_term: true
  }
}
layer {
  name: "group0_block0_sum"
  type: "Eltwise"
  bottom: "group0_block0_conv1"
  bottom: "first_conv"
  top: "group0_block0_sum"
  eltwise_param {
    operation: SUM
  }
}
layer {
  name: "group0_block0_relu"
  type: "ReLU"
  bottom: "group0_block0_sum"
  top: "group0_block0_sum"
}
layer {
  name: "group0_block1_conv0"
  type: "Convolution"
  bottom: "group0_block0_sum"
  top: "group0_block1_conv0"
  param {
    lr_mult: 1
    decay_mult: 1
  }
  convolution_param {
    num_output: 16
    pad: 1
    kernel_size: 3
    stride: 1
    weight_filler {
      type: "msra"
    }
  }
}
layer {
  name: "group0_block1_conv0_bn"
  type: "BatchNorm"
  bottom: "group0_block1_conv0"
  top: "group0_block1_conv0"
}
layer {
  name: "group0_block1_conv0_scale"
  type: "Scale"
  bottom: "group0_block1_conv0"
  top: "group0_block1_conv0"
  scale_param {
    bias_term: true
  }
}
layer {
  name: "group0_block1_conv0_relu"
  type: "ReLU"
  bottom: "group0_block1_conv0"
  top: "group0_block1_conv0"
}
layer {
  name: "group0_block1_conv1"
  type: "Convolution"
  bottom: "group0_block1_conv0"
  top: "group0_block1_conv1"
  param {
    lr_mult: 1
    decay_mult: 1
  }
  convolution_param {
    num_output: 16
    pad: 1
    kernel_size: 3
    stride: 1
    weight_filler {
      type: "msra"
    }
  }
}
layer {
  name: "group0_block1_conv1_bn"
  type: "BatchNorm"
  bottom: "group0_block1_conv1"
  top: "group0_block1_conv1"
}
layer {
  name: "group0_block1_conv1_scale"
  type: "Scale"
  bottom: "group0_block1_conv1"
  top: "group0_block1_conv1"
  scale_param {
    bias_term: true
  }
}
layer {
  name: "group0_block1_sum"
  type: "Eltwise"
  bottom: "group0_block1_conv1"
  bottom: "group0_block0_sum"
  top: "group0_block1_sum"
  eltwise_param {
    operation: SUM
  }
}
layer {
  name: "group0_block1_relu"
  type: "ReLU"
  bottom: "group0_block1_sum"
  top: "group0_block1_sum"
}
layer {
  name: "group0_block2_conv0"
  type: "Convolution"
  bottom: "group0_block1_sum"
  top: "group0_block2_conv0"
  param {
    lr_mult: 1
    decay_mult: 1
  }
  convolution_param {
    num_output: 16
    pad: 1
    kernel_size: 3
    stride: 1
    weight_filler {
      type: "msra"
    }
  }
}
layer {
  name: "group0_block2_conv0_bn"
  type: "BatchNorm"
  bottom: "group0_block2_conv0"
  top: "group0_block2_conv0"
}
layer {
  name: "group0_block2_conv0_scale"
  type: "Scale"
  bottom: "group0_block2_conv0"
  top: "group0_block2_conv0"
  scale_param {
    bias_term: true
  }
}
layer {
  name: "group0_block2_conv0_relu"
  type: "ReLU"
  bottom: "group0_block2_conv0"
  top: "group0_block2_conv0"
}
layer {
  name: "group0_block2_conv1"
  type: "Convolution"
  bottom: "group0_block2_conv0"
  top: "group0_block2_conv1"
  param {
    lr_mult: 1
    decay_mult: 1
  }
  convolution_param {
    num_output: 16
    pad: 1
    kernel_size: 3
    stride: 1
    weight_filler {
      type: "msra"
    }
  }
}
layer {
  name: "group0_block2_conv1_bn"
  type: "BatchNorm"
  bottom: "group0_block2_conv1"
  top: "group0_block2_conv1"
}
layer {
  name: "group0_block2_conv1_scale"
  type: "Scale"
  bottom: "group0_block2_conv1"
  top: "group0_block2_conv1"
  scale_param {
    bias_term: true
  }
}
layer {
  name: "group0_block2_sum"
  type: "Eltwise"
  bottom: "group0_block2_conv1"
  bottom: "group0_block1_sum"
  top: "group0_block2_sum"
  eltwise_param {
    operation: SUM
  }
}
layer {
  name: "group0_block2_relu"
  type: "ReLU"
  bottom: "group0_block2_sum"
  top: "group0_block2_sum"
}
layer {
  name: "group1_block0_conv0"
  type: "Convolution"
  bottom: "group0_block2_sum"
  top: "group1_block0_conv0"
  param {
    lr_mult: 1
    decay_mult: 1
  }
  convolution_param {
    num_output: 32
    pad: 1
    kernel_size: 3
    stride: 2
    weight_filler {
      type: "msra"
    }
  }
}
layer {
  name: "group1_block0_conv0_bn"
  type: "BatchNorm"
  bottom: "group1_block0_conv0"
  top: "group1_block0_conv0"
}
layer {
  name: "group1_block0_conv0_scale"
  type: "Scale"
  bottom: "group1_block0_conv0"
  top: "group1_block0_conv0"
  scale_param {
    bias_term: true
  }
}
layer {
  name: "group1_block0_conv0_relu"
  type: "ReLU"
  bottom: "group1_block0_conv0"
  top: "group1_block0_conv0"
}
layer {
  name: "group1_block0_conv1"
  type: "Convolution"
  bottom: "group1_block0_conv0"
  top: "group1_block0_conv1"
  param {
    lr_mult: 1
    decay_mult: 1
  }
  convolution_param {
    num_output: 32
    pad: 1
    kernel_size: 3
    stride: 1
    weight_filler {
      type: "msra"
    }
  }
}
layer {
  name: "group1_block0_conv1_bn"
  type: "BatchNorm"
  bottom: "group1_block0_conv1"
  top: "group1_block0_conv1"
}
layer {
  name: "group1_block0_conv1_scale"
  type: "Scale"
  bottom: "group1_block0_conv1"
  top: "group1_block0_conv1"
  scale_param {
    bias_term: true
  }
}
layer {
  name: "group1_block0_proj"
  type: "Convolution"
  bottom: "group0_block2_sum"
  top: "group1_block0_proj"
  param {
    lr_mult: 1
    decay_mult: 1
  }
  convolution_param {
    num_output: 32
    pad: 0
    kernel_size: 1
    stride: 2
    weight_filler {
      type: "msra"
    }
  }
}
layer {
  name: "group1_block0_proj_bn"
  type: "BatchNorm"
  bottom: "group1_block0_proj"
  top: "group1_block0_proj"
}
layer {
  name: "group1_block0_proj_scale"
  type: "Scale"
  bottom: "group1_block0_proj"
  top: "group1_block0_proj"
  scale_param {
    bias_term: true
  }
}
layer {
  name: "group1_block0_sum"
  type: "Eltwise"
  bottom: "group1_block0_proj"
  bottom: "group1_block0_conv1"
  top: "group1_block0_sum"
  eltwise_param {
    operation: SUM
  }
}
layer {
  name: "group1_block0_relu"
  type: "ReLU"
  bottom: "group1_block0_sum"
  top: "group1_block0_sum"
}
layer {
  name: "group1_block1_conv0"
  type: "Convolution"
  bottom: "group1_block0_sum"
  top: "group1_block1_conv0"
  param {
    lr_mult: 1
    decay_mult: 1
  }
  convolution_param {
    num_output: 32
    pad: 1
    kernel_size: 3
    stride: 1
    weight_filler {
      type: "msra"
    }
  }
}
layer {
  name: "group1_block1_conv0_bn"
  type: "BatchNorm"
  bottom: "group1_block1_conv0"
  top: "group1_block1_conv0"
}
layer {
  name: "group1_block1_conv0_scale"
  type: "Scale"
  bottom: "group1_block1_conv0"
  top: "group1_block1_conv0"
  scale_param {
    bias_term: true
  }
}
layer {
  name: "group1_block1_conv0_relu"
  type: "ReLU"
  bottom: "group1_block1_conv0"
  top: "group1_block1_conv0"
}
layer {
  name: "group1_block1_conv1"
  type: "Convolution"
  bottom: "group1_block1_conv0"
  top: "group1_block1_conv1"
  param {
    lr_mult: 1
    decay_mult: 1
  }
  convolution_param {
    num_output: 32
    pad: 1
    kernel_size: 3
    stride: 1
    weight_filler {
      type: "msra"
    }
  }
}
layer {
  name: "group1_block1_conv1_bn"
  type: "BatchNorm"
  bottom: "group1_block1_conv1"
  top: "group1_block1_conv1"
}
layer {
  name: "group1_block1_conv1_scale"
  type: "Scale"
  bottom: "group1_block1_conv1"
  top: "group1_block1_conv1"
  scale_param {
    bias_term: true
  }
}
layer {
  name: "group1_block1_sum"
  type: "Eltwise"
  bottom: "group1_block1_conv1"
  bottom: "group1_block0_sum"
  top: "group1_block1_sum"
  eltwise_param {
    operation: SUM
  }
}
layer {
  name: "group1_block1_relu"
  type: "ReLU"
  bottom: "group1_block1_sum"
  top: "group1_block1_sum"
}
layer {
  name: "group1_block2_conv0"
  type: "Convolution"
  bottom: "group1_block1_sum"
  top: "group1_block2_conv0"
  param {
    lr_mult: 1
    decay_mult: 1
  }
  convolution_param {
    num_output: 32
    pad: 1
    kernel_size: 3
    stride: 1
    weight_filler {
      type: "msra"
    }
  }
}
layer {
  name: "group1_block2_conv0_bn"
  type: "BatchNorm"
  bottom: "group1_block2_conv0"
  top: "group1_block2_conv0"
}
layer {
  name: "group1_block2_conv0_scale"
  type: "Scale"
  bottom: "group1_block2_conv0"
  top: "group1_block2_conv0"
  scale_param {
    bias_term: true
  }
}
layer {
  name: "group1_block2_conv0_relu"
  type: "ReLU"
  bottom: "group1_block2_conv0"
  top: "group1_block2_conv0"
}
layer {
  name: "group1_block2_conv1"
  type: "Convolution"
  bottom: "group1_block2_conv0"
  top: "group1_block2_conv1"
  param {
    lr_mult: 1
    decay_mult: 1
  }
  convolution_param {
    num_output: 32
    pad: 1
    kernel_size: 3
    stride: 1
    weight_filler {
      type: "msra"
    }
  }
}
layer {
  name: "group1_block2_conv1_bn"
  type: "BatchNorm"
  bottom: "group1_block2_conv1"
  top: "group1_block2_conv1"
}
layer {
  name: "group1_block2_conv1_scale"
  type: "Scale"
  bottom: "group1_block2_conv1"
  top: "group1_block2_conv1"
  scale_param {
    bias_term: true
  }
}
layer {
  name: "group1_block2_sum"
  type: "Eltwise"
  bottom: "group1_block2_conv1"
  bottom: "group1_block1_sum"
  top: "group1_block2_sum"
  eltwise_param {
    operation: SUM
  }
}
layer {
  name: "group1_block2_relu"
  type: "ReLU"
  bottom: "group1_block2_sum"
  top: "group1_block2_sum"
}
layer {
  name: "group2_block0_conv0"
  type: "Convolution"
  bottom: "group1_block2_sum"
  top: "group2_block0_conv0"
  param {
    lr_mult: 1
    decay_mult: 1
  }
  convolution_param {
    num_output: 64
    pad: 1
    kernel_size: 3
    stride: 2
    weight_filler {
      type: "msra"
    }
  }
}
layer {
  name: "group2_block0_conv0_bn"
  type: "BatchNorm"
  bottom: "group2_block0_conv0"
  top: "group2_block0_conv0"
}
layer {
  name: "group2_block0_conv0_scale"
  type: "Scale"
  bottom: "group2_block0_conv0"
  top: "group2_block0_conv0"
  scale_param {
    bias_term: true
  }
}
layer {
  name: "group2_block0_conv0_relu"
  type: "ReLU"
  bottom: "group2_block0_conv0"
  top: "group2_block0_conv0"
}
layer {
  name: "group2_block0_conv1"
  type: "Convolution"
  bottom: "group2_block0_conv0"
  top: "group2_block0_conv1"
  param {
    lr_mult: 1
    decay_mult: 1
  }
  convolution_param {
    num_output: 64
    pad: 1
    kernel_size: 3
    stride: 1
    weight_filler {
      type: "msra"
    }
  }
}
layer {
  name: "group2_block0_conv1_bn"
  type: "BatchNorm"
  bottom: "group2_block0_conv1"
  top: "group2_block0_conv1"
}
layer {
  name: "group2_block0_conv1_scale"
  type: "Scale"
  bottom: "group2_block0_conv1"
  top: "group2_block0_conv1"
  scale_param {
    bias_term: true
  }
}
layer {
  name: "group2_block0_proj"
  type: "Convolution"
  bottom: "group1_block2_sum"
  top: "group2_block0_proj"
  param {
    lr_mult: 1
    decay_mult: 1
  }
  convolution_param {
    num_output: 64
    pad: 0
    kernel_size: 1
    stride: 2
    weight_filler {
      type: "msra"
    }
  }
}
layer {
  name: "group2_block0_proj_bn"
  type: "BatchNorm"
  bottom: "group2_block0_proj"
  top: "group2_block0_proj"
}
layer {
  name: "group2_block0_proj_scale"
  type: "Scale"
  bottom: "group2_block0_proj"
  top: "group2_block0_proj"
  scale_param {
    bias_term: true
  }
}
layer {
  name: "group2_block0_sum"
  type: "Eltwise"
  bottom: "group2_block0_proj"
  bottom: "group2_block0_conv1"
  top: "group2_block0_sum"
  eltwise_param {
    operation: SUM
  }
}
layer {
  name: "group2_block0_relu"
  type: "ReLU"
  bottom: "group2_block0_sum"
  top: "group2_block0_sum"
}
layer {
  name: "group2_block1_conv0"
  type: "Convolution"
  bottom: "group2_block0_sum"
  top: "group2_block1_conv0"
  param {
    lr_mult: 1
    decay_mult: 1
  }
  convolution_param {
    num_output: 64
    pad: 1
    kernel_size: 3
    stride: 1
    weight_filler {
      type: "msra"
    }
  }
}
layer {
  name: "group2_block1_conv0_bn"
  type: "BatchNorm"
  bottom: "group2_block1_conv0"
  top: "group2_block1_conv0"
}
layer {
  name: "group2_block1_conv0_scale"
  type: "Scale"
  bottom: "group2_block1_conv0"
  top: "group2_block1_conv0"
  scale_param {
    bias_term: true
  }
}
layer {
  name: "group2_block1_conv0_relu"
  type: "ReLU"
  bottom: "group2_block1_conv0"
  top: "group2_block1_conv0"
}
layer {
  name: "group2_block1_conv1"
  type: "Convolution"
  bottom: "group2_block1_conv0"
  top: "group2_block1_conv1"
  param {
    lr_mult: 1
    decay_mult: 1
  }
  convolution_param {
    num_output: 64
    pad: 1
    kernel_size: 3
    stride: 1
    weight_filler {
      type: "msra"
    }
  }
}
layer {
  name: "group2_block1_conv1_bn"
  type: "BatchNorm"
  bottom: "group2_block1_conv1"
  top: "group2_block1_conv1"
}
layer {
  name: "group2_block1_conv1_scale"
  type: "Scale"
  bottom: "group2_block1_conv1"
  top: "group2_block1_conv1"
  scale_param {
    bias_term: true
  }
}
layer {
  name: "group2_block1_sum"
  type: "Eltwise"
  bottom: "group2_block1_conv1"
  bottom: "group2_block0_sum"
  top: "group2_block1_sum"
  eltwise_param {
    operation: SUM
  }
}
layer {
  name: "group2_block1_relu"
  type: "ReLU"
  bottom: "group2_block1_sum"
  top: "group2_block1_sum"
}
layer {
  name: "global_avg_pool"
  type: "Pooling"
  bottom: "group2_block1_sum"
  top: "global_avg_pool"
  pooling_param {
    pool: AVE
    global_pooling: true
  }
}
layer {
  name: "fc"
  type: "InnerProduct"
  bottom: "global_avg_pool"
  top: "fc"
  param {
    lr_mult: 1
    decay_mult: 1
  }
  param {
    lr_mult: 2
    decay_mult: 0
  }
  inner_product_param {
    num_output: 10
    weight_filler {
      type: "msra"
    }
    bias_filler {
      type: "constant"
      value: 0
    }
  }
}
layer {
  name: "softmax"
  type: "Softmax"
  bottom: "fc"
  top: "softmax"
}
I0525 07:12:48.851430  2962 layer_factory.hpp:77] Creating layer data
I0525 07:12:48.858798  2962 net.cpp:86] Creating Layer data
I0525 07:12:48.858989  2962 net.cpp:382] data -> data
I0525 07:12:48.859297  2962 net.cpp:124] Setting up data
I0525 07:12:48.859402  2962 net.cpp:131] Top shape: 1 3 32 32 (3072)
I0525 07:12:48.859503  2962 net.cpp:139] Memory required for data: 12288
I0525 07:12:48.859597  2962 layer_factory.hpp:77] Creating layer first_conv
I0525 07:12:48.859742  2962 net.cpp:86] Creating Layer first_conv
I0525 07:12:48.859835  2962 net.cpp:408] first_conv <- data
I0525 07:12:48.859946  2962 net.cpp:382] first_conv -> first_conv
I0525 07:12:48.860666  2962 net.cpp:124] Setting up first_conv
I0525 07:12:48.860778  2962 net.cpp:131] Top shape: 1 16 32 32 (16384)
I0525 07:12:48.860891  2962 net.cpp:139] Memory required for data: 77824
I0525 07:12:48.861074  2962 layer_factory.hpp:77] Creating layer first_conv_bn
I0525 07:12:48.861234  2962 net.cpp:86] Creating Layer first_conv_bn
I0525 07:12:48.861424  2962 net.cpp:408] first_conv_bn <- first_conv
I0525 07:12:48.861523  2962 net.cpp:369] first_conv_bn -> first_conv (in-place)
I0525 07:12:48.861744  2962 net.cpp:124] Setting up first_conv_bn
I0525 07:12:48.861829  2962 net.cpp:131] Top shape: 1 16 32 32 (16384)
I0525 07:12:48.861922  2962 net.cpp:139] Memory required for data: 143360
I0525 07:12:48.862072  2962 layer_factory.hpp:77] Creating layer first_conv_scale
I0525 07:12:48.862181  2962 net.cpp:86] Creating Layer first_conv_scale
I0525 07:12:48.862257  2962 net.cpp:408] first_conv_scale <- first_conv
I0525 07:12:48.862344  2962 net.cpp:369] first_conv_scale -> first_conv (in-place)
I0525 07:12:48.862491  2962 layer_factory.hpp:77] Creating layer first_conv_scale
I0525 07:12:48.862727  2962 net.cpp:124] Setting up first_conv_scale
I0525 07:12:48.862812  2962 net.cpp:131] Top shape: 1 16 32 32 (16384)
I0525 07:12:48.862905  2962 net.cpp:139] Memory required for data: 208896
I0525 07:12:48.863008  2962 layer_factory.hpp:77] Creating layer first_conv_relu
I0525 07:12:48.863111  2962 net.cpp:86] Creating Layer first_conv_relu
I0525 07:12:48.863186  2962 net.cpp:408] first_conv_relu <- first_conv
I0525 07:12:48.863292  2962 net.cpp:369] first_conv_relu -> first_conv (in-place)
I0525 07:12:48.863386  2962 net.cpp:124] Setting up first_conv_relu
I0525 07:12:48.863457  2962 net.cpp:131] Top shape: 1 16 32 32 (16384)
I0525 07:12:48.863548  2962 net.cpp:139] Memory required for data: 274432
I0525 07:12:48.863615  2962 layer_factory.hpp:77] Creating layer first_conv_first_conv_relu_0_split
I0525 07:12:48.863699  2962 net.cpp:86] Creating Layer first_conv_first_conv_relu_0_split
I0525 07:12:48.863768  2962 net.cpp:408] first_conv_first_conv_relu_0_split <- first_conv
I0525 07:12:48.863855  2962 net.cpp:382] first_conv_first_conv_relu_0_split -> first_conv_first_conv_relu_0_split_0
I0525 07:12:48.863963  2962 net.cpp:382] first_conv_first_conv_relu_0_split -> first_conv_first_conv_relu_0_split_1
I0525 07:12:48.864073  2962 net.cpp:124] Setting up first_conv_first_conv_relu_0_split
I0525 07:12:48.864146  2962 net.cpp:131] Top shape: 1 16 32 32 (16384)
I0525 07:12:48.864234  2962 net.cpp:131] Top shape: 1 16 32 32 (16384)
I0525 07:12:48.864320  2962 net.cpp:139] Memory required for data: 405504
I0525 07:12:48.864387  2962 layer_factory.hpp:77] Creating layer group0_block0_conv0
I0525 07:12:48.864496  2962 net.cpp:86] Creating Layer group0_block0_conv0
I0525 07:12:48.864571  2962 net.cpp:408] group0_block0_conv0 <- first_conv_first_conv_relu_0_split_0
I0525 07:12:48.864707  2962 net.cpp:382] group0_block0_conv0 -> group0_block0_conv0
I0525 07:12:48.865331  2962 net.cpp:124] Setting up group0_block0_conv0
I0525 07:12:48.865433  2962 net.cpp:131] Top shape: 1 16 32 32 (16384)
I0525 07:12:48.865527  2962 net.cpp:139] Memory required for data: 471040
I0525 07:12:48.865650  2962 layer_factory.hpp:77] Creating layer group0_block0_conv0_bn
I0525 07:12:48.865758  2962 net.cpp:86] Creating Layer group0_block0_conv0_bn
I0525 07:12:48.865837  2962 net.cpp:408] group0_block0_conv0_bn <- group0_block0_conv0
I0525 07:12:48.865931  2962 net.cpp:369] group0_block0_conv0_bn -> group0_block0_conv0 (in-place)
I0525 07:12:48.866109  2962 net.cpp:124] Setting up group0_block0_conv0_bn
I0525 07:12:48.866189  2962 net.cpp:131] Top shape: 1 16 32 32 (16384)
I0525 07:12:48.866281  2962 net.cpp:139] Memory required for data: 536576
I0525 07:12:48.866394  2962 layer_factory.hpp:77] Creating layer group0_block0_conv0_scale
I0525 07:12:48.866513  2962 net.cpp:86] Creating Layer group0_block0_conv0_scale
I0525 07:12:48.866591  2962 net.cpp:408] group0_block0_conv0_scale <- group0_block0_conv0
I0525 07:12:48.866688  2962 net.cpp:369] group0_block0_conv0_scale -> group0_block0_conv0 (in-place)
I0525 07:12:48.866820  2962 layer_factory.hpp:77] Creating layer group0_block0_conv0_scale
I0525 07:12:48.867012  2962 net.cpp:124] Setting up group0_block0_conv0_scale
I0525 07:12:48.867091  2962 net.cpp:131] Top shape: 1 16 32 32 (16384)
I0525 07:12:48.867229  2962 net.cpp:139] Memory required for data: 602112
I0525 07:12:48.867421  2962 layer_factory.hpp:77] Creating layer group0_block0_conv0_relu
I0525 07:12:48.867520  2962 net.cpp:86] Creating Layer group0_block0_conv0_relu
I0525 07:12:48.867597  2962 net.cpp:408] group0_block0_conv0_relu <- group0_block0_conv0
I0525 07:12:48.867697  2962 net.cpp:369] group0_block0_conv0_relu -> group0_block0_conv0 (in-place)
I0525 07:12:48.867797  2962 net.cpp:124] Setting up group0_block0_conv0_relu
I0525 07:12:48.867866  2962 net.cpp:131] Top shape: 1 16 32 32 (16384)
I0525 07:12:48.867954  2962 net.cpp:139] Memory required for data: 667648
I0525 07:12:48.868023  2962 layer_factory.hpp:77] Creating layer group0_block0_conv1
I0525 07:12:48.868132  2962 net.cpp:86] Creating Layer group0_block0_conv1
I0525 07:12:48.868207  2962 net.cpp:408] group0_block0_conv1 <- group0_block0_conv0
I0525 07:12:48.878444  2962 net.cpp:382] group0_block0_conv1 -> group0_block0_conv1
I0525 07:12:48.879043  2962 net.cpp:124] Setting up group0_block0_conv1
I0525 07:12:48.879145  2962 net.cpp:131] Top shape: 1 16 32 32 (16384)
I0525 07:12:48.879240  2962 net.cpp:139] Memory required for data: 733184
I0525 07:12:48.879351  2962 layer_factory.hpp:77] Creating layer group0_block0_conv1_bn
I0525 07:12:48.879451  2962 net.cpp:86] Creating Layer group0_block0_conv1_bn
I0525 07:12:48.879528  2962 net.cpp:408] group0_block0_conv1_bn <- group0_block0_conv1
I0525 07:12:48.879619  2962 net.cpp:369] group0_block0_conv1_bn -> group0_block0_conv1 (in-place)
I0525 07:12:48.879813  2962 net.cpp:124] Setting up group0_block0_conv1_bn
I0525 07:12:48.879896  2962 net.cpp:131] Top shape: 1 16 32 32 (16384)
I0525 07:12:48.879987  2962 net.cpp:139] Memory required for data: 798720
I0525 07:12:48.880131  2962 layer_factory.hpp:77] Creating layer group0_block0_conv1_scale
I0525 07:12:48.880231  2962 net.cpp:86] Creating Layer group0_block0_conv1_scale
I0525 07:12:48.880306  2962 net.cpp:408] group0_block0_conv1_scale <- group0_block0_conv1
I0525 07:12:48.880395  2962 net.cpp:369] group0_block0_conv1_scale -> group0_block0_conv1 (in-place)
I0525 07:12:48.880527  2962 layer_factory.hpp:77] Creating layer group0_block0_conv1_scale
I0525 07:12:48.880745  2962 net.cpp:124] Setting up group0_block0_conv1_scale
I0525 07:12:48.880863  2962 net.cpp:131] Top shape: 1 16 32 32 (16384)
I0525 07:12:48.880962  2962 net.cpp:139] Memory required for data: 864256
I0525 07:12:48.881081  2962 layer_factory.hpp:77] Creating layer group0_block0_sum
I0525 07:12:48.881181  2962 net.cpp:86] Creating Layer group0_block0_sum
I0525 07:12:48.881255  2962 net.cpp:408] group0_block0_sum <- group0_block0_conv1
I0525 07:12:48.881336  2962 net.cpp:408] group0_block0_sum <- first_conv_first_conv_relu_0_split_1
I0525 07:12:48.881431  2962 net.cpp:382] group0_block0_sum -> group0_block0_sum
I0525 07:12:48.881561  2962 net.cpp:124] Setting up group0_block0_sum
I0525 07:12:48.881639  2962 net.cpp:131] Top shape: 1 16 32 32 (16384)
I0525 07:12:48.881729  2962 net.cpp:139] Memory required for data: 929792
I0525 07:12:48.881799  2962 layer_factory.hpp:77] Creating layer group0_block0_relu
I0525 07:12:48.881888  2962 net.cpp:86] Creating Layer group0_block0_relu
I0525 07:12:48.881960  2962 net.cpp:408] group0_block0_relu <- group0_block0_sum
I0525 07:12:48.882047  2962 net.cpp:369] group0_block0_relu -> group0_block0_sum (in-place)
I0525 07:12:48.882140  2962 net.cpp:124] Setting up group0_block0_relu
I0525 07:12:48.882210  2962 net.cpp:131] Top shape: 1 16 32 32 (16384)
I0525 07:12:48.882308  2962 net.cpp:139] Memory required for data: 995328
I0525 07:12:48.882377  2962 layer_factory.hpp:77] Creating layer group0_block0_sum_group0_block0_relu_0_split
I0525 07:12:48.882465  2962 net.cpp:86] Creating Layer group0_block0_sum_group0_block0_relu_0_split
I0525 07:12:48.882536  2962 net.cpp:408] group0_block0_sum_group0_block0_relu_0_split <- group0_block0_sum
I0525 07:12:48.882625  2962 net.cpp:382] group0_block0_sum_group0_block0_relu_0_split -> group0_block0_sum_group0_block0_relu_0_split_0
I0525 07:12:48.882777  2962 net.cpp:382] group0_block0_sum_group0_block0_relu_0_split -> group0_block0_sum_group0_block0_relu_0_split_1
I0525 07:12:48.883011  2962 net.cpp:124] Setting up group0_block0_sum_group0_block0_relu_0_split
I0525 07:12:48.883090  2962 net.cpp:131] Top shape: 1 16 32 32 (16384)
I0525 07:12:48.883184  2962 net.cpp:131] Top shape: 1 16 32 32 (16384)
I0525 07:12:48.883270  2962 net.cpp:139] Memory required for data: 1126400
I0525 07:12:48.883337  2962 layer_factory.hpp:77] Creating layer group0_block1_conv0
I0525 07:12:48.883484  2962 net.cpp:86] Creating Layer group0_block1_conv0
I0525 07:12:48.883565  2962 net.cpp:408] group0_block1_conv0 <- group0_block0_sum_group0_block0_relu_0_split_0
I0525 07:12:48.883669  2962 net.cpp:382] group0_block1_conv0 -> group0_block1_conv0
I0525 07:12:48.884205  2962 net.cpp:124] Setting up group0_block1_conv0
I0525 07:12:48.884296  2962 net.cpp:131] Top shape: 1 16 32 32 (16384)
I0525 07:12:48.884392  2962 net.cpp:139] Memory required for data: 1191936
I0525 07:12:48.884498  2962 layer_factory.hpp:77] Creating layer group0_block1_conv0_bn
I0525 07:12:48.884593  2962 net.cpp:86] Creating Layer group0_block1_conv0_bn
I0525 07:12:48.884666  2962 net.cpp:408] group0_block1_conv0_bn <- group0_block1_conv0
I0525 07:12:48.884765  2962 net.cpp:369] group0_block1_conv0_bn -> group0_block1_conv0 (in-place)
I0525 07:12:48.884943  2962 net.cpp:124] Setting up group0_block1_conv0_bn
I0525 07:12:48.885023  2962 net.cpp:131] Top shape: 1 16 32 32 (16384)
I0525 07:12:48.885113  2962 net.cpp:139] Memory required for data: 1257472
I0525 07:12:48.885236  2962 layer_factory.hpp:77] Creating layer group0_block1_conv0_scale
I0525 07:12:48.885335  2962 net.cpp:86] Creating Layer group0_block1_conv0_scale
I0525 07:12:48.885413  2962 net.cpp:408] group0_block1_conv0_scale <- group0_block1_conv0
I0525 07:12:48.885519  2962 net.cpp:369] group0_block1_conv0_scale -> group0_block1_conv0 (in-place)
I0525 07:12:48.885659  2962 layer_factory.hpp:77] Creating layer group0_block1_conv0_scale
I0525 07:12:48.885866  2962 net.cpp:124] Setting up group0_block1_conv0_scale
I0525 07:12:48.885946  2962 net.cpp:131] Top shape: 1 16 32 32 (16384)
I0525 07:12:48.886035  2962 net.cpp:139] Memory required for data: 1323008
I0525 07:12:48.886137  2962 layer_factory.hpp:77] Creating layer group0_block1_conv0_relu
I0525 07:12:48.886226  2962 net.cpp:86] Creating Layer group0_block1_conv0_relu
I0525 07:12:48.886302  2962 net.cpp:408] group0_block1_conv0_relu <- group0_block1_conv0
I0525 07:12:48.886399  2962 net.cpp:369] group0_block1_conv0_relu -> group0_block1_conv0 (in-place)
I0525 07:12:48.886500  2962 net.cpp:124] Setting up group0_block1_conv0_relu
I0525 07:12:48.886574  2962 net.cpp:131] Top shape: 1 16 32 32 (16384)
I0525 07:12:48.886670  2962 net.cpp:139] Memory required for data: 1388544
I0525 07:12:48.886744  2962 layer_factory.hpp:77] Creating layer group0_block1_conv1
I0525 07:12:48.886866  2962 net.cpp:86] Creating Layer group0_block1_conv1
I0525 07:12:48.886946  2962 net.cpp:408] group0_block1_conv1 <- group0_block1_conv0
I0525 07:12:48.887048  2962 net.cpp:382] group0_block1_conv1 -> group0_block1_conv1
I0525 07:12:48.887579  2962 net.cpp:124] Setting up group0_block1_conv1
I0525 07:12:48.887676  2962 net.cpp:131] Top shape: 1 16 32 32 (16384)
I0525 07:12:48.887773  2962 net.cpp:139] Memory required for data: 1454080
I0525 07:12:48.887883  2962 layer_factory.hpp:77] Creating layer group0_block1_conv1_bn
I0525 07:12:48.887979  2962 net.cpp:86] Creating Layer group0_block1_conv1_bn
I0525 07:12:48.888054  2962 net.cpp:408] group0_block1_conv1_bn <- group0_block1_conv1
I0525 07:12:48.888145  2962 net.cpp:369] group0_block1_conv1_bn -> group0_block1_conv1 (in-place)
I0525 07:12:48.898422  2962 net.cpp:124] Setting up group0_block1_conv1_bn
I0525 07:12:48.898572  2962 net.cpp:131] Top shape: 1 16 32 32 (16384)
I0525 07:12:48.898687  2962 net.cpp:139] Memory required for data: 1519616
I0525 07:12:48.898862  2962 layer_factory.hpp:77] Creating layer group0_block1_conv1_scale
I0525 07:12:48.898981  2962 net.cpp:86] Creating Layer group0_block1_conv1_scale
I0525 07:12:48.899210  2962 net.cpp:408] group0_block1_conv1_scale <- group0_block1_conv1
I0525 07:12:48.899322  2962 net.cpp:369] group0_block1_conv1_scale -> group0_block1_conv1 (in-place)
I0525 07:12:48.899472  2962 layer_factory.hpp:77] Creating layer group0_block1_conv1_scale
I0525 07:12:48.899673  2962 net.cpp:124] Setting up group0_block1_conv1_scale
I0525 07:12:48.899756  2962 net.cpp:131] Top shape: 1 16 32 32 (16384)
I0525 07:12:48.899847  2962 net.cpp:139] Memory required for data: 1585152
I0525 07:12:48.899962  2962 layer_factory.hpp:77] Creating layer group0_block1_sum
I0525 07:12:48.900061  2962 net.cpp:86] Creating Layer group0_block1_sum
I0525 07:12:48.900136  2962 net.cpp:408] group0_block1_sum <- group0_block1_conv1
I0525 07:12:48.900218  2962 net.cpp:408] group0_block1_sum <- group0_block0_sum_group0_block0_relu_0_split_1
I0525 07:12:48.900310  2962 net.cpp:382] group0_block1_sum -> group0_block1_sum
I0525 07:12:48.900421  2962 net.cpp:124] Setting up group0_block1_sum
I0525 07:12:48.900494  2962 net.cpp:131] Top shape: 1 16 32 32 (16384)
I0525 07:12:48.900585  2962 net.cpp:139] Memory required for data: 1650688
I0525 07:12:48.900655  2962 layer_factory.hpp:77] Creating layer group0_block1_relu
I0525 07:12:48.900745  2962 net.cpp:86] Creating Layer group0_block1_relu
I0525 07:12:48.900818  2962 net.cpp:408] group0_block1_relu <- group0_block1_sum
I0525 07:12:48.900908  2962 net.cpp:369] group0_block1_relu -> group0_block1_sum (in-place)
I0525 07:12:48.901002  2962 net.cpp:124] Setting up group0_block1_relu
I0525 07:12:48.901073  2962 net.cpp:131] Top shape: 1 16 32 32 (16384)
I0525 07:12:48.901176  2962 net.cpp:139] Memory required for data: 1716224
I0525 07:12:48.901249  2962 layer_factory.hpp:77] Creating layer group0_block1_sum_group0_block1_relu_0_split
I0525 07:12:48.901341  2962 net.cpp:86] Creating Layer group0_block1_sum_group0_block1_relu_0_split
I0525 07:12:48.901415  2962 net.cpp:408] group0_block1_sum_group0_block1_relu_0_split <- group0_block1_sum
I0525 07:12:48.901511  2962 net.cpp:382] group0_block1_sum_group0_block1_relu_0_split -> group0_block1_sum_group0_block1_relu_0_split_0
I0525 07:12:48.901624  2962 net.cpp:382] group0_block1_sum_group0_block1_relu_0_split -> group0_block1_sum_group0_block1_relu_0_split_1
I0525 07:12:48.901738  2962 net.cpp:124] Setting up group0_block1_sum_group0_block1_relu_0_split
I0525 07:12:48.901810  2962 net.cpp:131] Top shape: 1 16 32 32 (16384)
I0525 07:12:48.901901  2962 net.cpp:131] Top shape: 1 16 32 32 (16384)
I0525 07:12:48.901984  2962 net.cpp:139] Memory required for data: 1847296
I0525 07:12:48.902053  2962 layer_factory.hpp:77] Creating layer group0_block2_conv0
I0525 07:12:48.902164  2962 net.cpp:86] Creating Layer group0_block2_conv0
I0525 07:12:48.902241  2962 net.cpp:408] group0_block2_conv0 <- group0_block1_sum_group0_block1_relu_0_split_0
I0525 07:12:48.902346  2962 net.cpp:382] group0_block2_conv0 -> group0_block2_conv0
I0525 07:12:48.902921  2962 net.cpp:124] Setting up group0_block2_conv0
I0525 07:12:48.903064  2962 net.cpp:131] Top shape: 1 16 32 32 (16384)
I0525 07:12:48.903177  2962 net.cpp:139] Memory required for data: 1912832
I0525 07:12:48.903288  2962 layer_factory.hpp:77] Creating layer group0_block2_conv0_bn
I0525 07:12:48.903388  2962 net.cpp:86] Creating Layer group0_block2_conv0_bn
I0525 07:12:48.903470  2962 net.cpp:408] group0_block2_conv0_bn <- group0_block2_conv0
I0525 07:12:48.903565  2962 net.cpp:369] group0_block2_conv0_bn -> group0_block2_conv0 (in-place)
I0525 07:12:48.903748  2962 net.cpp:124] Setting up group0_block2_conv0_bn
I0525 07:12:48.903827  2962 net.cpp:131] Top shape: 1 16 32 32 (16384)
I0525 07:12:48.903920  2962 net.cpp:139] Memory required for data: 1978368
I0525 07:12:48.904038  2962 layer_factory.hpp:77] Creating layer group0_block2_conv0_scale
I0525 07:12:48.904134  2962 net.cpp:86] Creating Layer group0_block2_conv0_scale
I0525 07:12:48.904209  2962 net.cpp:408] group0_block2_conv0_scale <- group0_block2_conv0
I0525 07:12:48.904302  2962 net.cpp:369] group0_block2_conv0_scale -> group0_block2_conv0 (in-place)
I0525 07:12:48.904569  2962 layer_factory.hpp:77] Creating layer group0_block2_conv0_scale
I0525 07:12:48.904768  2962 net.cpp:124] Setting up group0_block2_conv0_scale
I0525 07:12:48.904852  2962 net.cpp:131] Top shape: 1 16 32 32 (16384)
I0525 07:12:48.904947  2962 net.cpp:139] Memory required for data: 2043904
I0525 07:12:48.905057  2962 layer_factory.hpp:77] Creating layer group0_block2_conv0_relu
I0525 07:12:48.905159  2962 net.cpp:86] Creating Layer group0_block2_conv0_relu
I0525 07:12:48.905238  2962 net.cpp:408] group0_block2_conv0_relu <- group0_block2_conv0
I0525 07:12:48.905328  2962 net.cpp:369] group0_block2_conv0_relu -> group0_block2_conv0 (in-place)
I0525 07:12:48.905427  2962 net.cpp:124] Setting up group0_block2_conv0_relu
I0525 07:12:48.905501  2962 net.cpp:131] Top shape: 1 16 32 32 (16384)
I0525 07:12:48.905588  2962 net.cpp:139] Memory required for data: 2109440
I0525 07:12:48.905655  2962 layer_factory.hpp:77] Creating layer group0_block2_conv1
I0525 07:12:48.905764  2962 net.cpp:86] Creating Layer group0_block2_conv1
I0525 07:12:48.905840  2962 net.cpp:408] group0_block2_conv1 <- group0_block2_conv0
I0525 07:12:48.905956  2962 net.cpp:382] group0_block2_conv1 -> group0_block2_conv1
I0525 07:12:48.906493  2962 net.cpp:124] Setting up group0_block2_conv1
I0525 07:12:48.906594  2962 net.cpp:131] Top shape: 1 16 32 32 (16384)
I0525 07:12:48.906716  2962 net.cpp:139] Memory required for data: 2174976
I0525 07:12:48.906826  2962 layer_factory.hpp:77] Creating layer group0_block2_conv1_bn
I0525 07:12:48.906924  2962 net.cpp:86] Creating Layer group0_block2_conv1_bn
I0525 07:12:48.907002  2962 net.cpp:408] group0_block2_conv1_bn <- group0_block2_conv1
I0525 07:12:48.907095  2962 net.cpp:369] group0_block2_conv1_bn -> group0_block2_conv1 (in-place)
I0525 07:12:48.907292  2962 net.cpp:124] Setting up group0_block2_conv1_bn
I0525 07:12:48.907373  2962 net.cpp:131] Top shape: 1 16 32 32 (16384)
I0525 07:12:48.907464  2962 net.cpp:139] Memory required for data: 2240512
I0525 07:12:48.907582  2962 layer_factory.hpp:77] Creating layer group0_block2_conv1_scale
I0525 07:12:48.907735  2962 net.cpp:86] Creating Layer group0_block2_conv1_scale
I0525 07:12:48.907820  2962 net.cpp:408] group0_block2_conv1_scale <- group0_block2_conv1
I0525 07:12:48.907914  2962 net.cpp:369] group0_block2_conv1_scale -> group0_block2_conv1 (in-place)
I0525 07:12:48.908051  2962 layer_factory.hpp:77] Creating layer group0_block2_conv1_scale
I0525 07:12:48.918308  2962 net.cpp:124] Setting up group0_block2_conv1_scale
I0525 07:12:48.918465  2962 net.cpp:131] Top shape: 1 16 32 32 (16384)
I0525 07:12:48.918596  2962 net.cpp:139] Memory required for data: 2306048
I0525 07:12:48.918716  2962 layer_factory.hpp:77] Creating layer group0_block2_sum
I0525 07:12:48.918821  2962 net.cpp:86] Creating Layer group0_block2_sum
I0525 07:12:48.918898  2962 net.cpp:408] group0_block2_sum <- group0_block2_conv1
I0525 07:12:48.918982  2962 net.cpp:408] group0_block2_sum <- group0_block1_sum_group0_block1_relu_0_split_1
I0525 07:12:48.919096  2962 net.cpp:382] group0_block2_sum -> group0_block2_sum
I0525 07:12:48.919266  2962 net.cpp:124] Setting up group0_block2_sum
I0525 07:12:48.919351  2962 net.cpp:131] Top shape: 1 16 32 32 (16384)
I0525 07:12:48.919448  2962 net.cpp:139] Memory required for data: 2371584
I0525 07:12:48.919530  2962 layer_factory.hpp:77] Creating layer group0_block2_relu
I0525 07:12:48.919636  2962 net.cpp:86] Creating Layer group0_block2_relu
I0525 07:12:48.919716  2962 net.cpp:408] group0_block2_relu <- group0_block2_sum
I0525 07:12:48.919812  2962 net.cpp:369] group0_block2_relu -> group0_block2_sum (in-place)
I0525 07:12:48.919912  2962 net.cpp:124] Setting up group0_block2_relu
I0525 07:12:48.919986  2962 net.cpp:131] Top shape: 1 16 32 32 (16384)
I0525 07:12:48.920078  2962 net.cpp:139] Memory required for data: 2437120
I0525 07:12:48.920153  2962 layer_factory.hpp:77] Creating layer group0_block2_sum_group0_block2_relu_0_split
I0525 07:12:48.920246  2962 net.cpp:86] Creating Layer group0_block2_sum_group0_block2_relu_0_split
I0525 07:12:48.920475  2962 net.cpp:408] group0_block2_sum_group0_block2_relu_0_split <- group0_block2_sum
I0525 07:12:48.920580  2962 net.cpp:382] group0_block2_sum_group0_block2_relu_0_split -> group0_block2_sum_group0_block2_relu_0_split_0
I0525 07:12:48.920703  2962 net.cpp:382] group0_block2_sum_group0_block2_relu_0_split -> group0_block2_sum_group0_block2_relu_0_split_1
I0525 07:12:48.920820  2962 net.cpp:124] Setting up group0_block2_sum_group0_block2_relu_0_split
I0525 07:12:48.920897  2962 net.cpp:131] Top shape: 1 16 32 32 (16384)
I0525 07:12:48.920986  2962 net.cpp:131] Top shape: 1 16 32 32 (16384)
I0525 07:12:48.921072  2962 net.cpp:139] Memory required for data: 2568192
I0525 07:12:48.921144  2962 layer_factory.hpp:77] Creating layer group1_block0_conv0
I0525 07:12:48.921259  2962 net.cpp:86] Creating Layer group1_block0_conv0
I0525 07:12:48.921340  2962 net.cpp:408] group1_block0_conv0 <- group0_block2_sum_group0_block2_relu_0_split_0
I0525 07:12:48.921447  2962 net.cpp:382] group1_block0_conv0 -> group1_block0_conv0
I0525 07:12:48.922262  2962 net.cpp:124] Setting up group1_block0_conv0
I0525 07:12:48.922374  2962 net.cpp:131] Top shape: 1 32 16 16 (8192)
I0525 07:12:48.922482  2962 net.cpp:139] Memory required for data: 2600960
I0525 07:12:48.922591  2962 layer_factory.hpp:77] Creating layer group1_block0_conv0_bn
I0525 07:12:48.922688  2962 net.cpp:86] Creating Layer group1_block0_conv0_bn
I0525 07:12:48.922763  2962 net.cpp:408] group1_block0_conv0_bn <- group1_block0_conv0
I0525 07:12:48.922854  2962 net.cpp:369] group1_block0_conv0_bn -> group1_block0_conv0 (in-place)
I0525 07:12:48.923028  2962 net.cpp:124] Setting up group1_block0_conv0_bn
I0525 07:12:48.923110  2962 net.cpp:131] Top shape: 1 32 16 16 (8192)
I0525 07:12:48.923199  2962 net.cpp:139] Memory required for data: 2633728
I0525 07:12:48.923319  2962 layer_factory.hpp:77] Creating layer group1_block0_conv0_scale
I0525 07:12:48.923416  2962 net.cpp:86] Creating Layer group1_block0_conv0_scale
I0525 07:12:48.923492  2962 net.cpp:408] group1_block0_conv0_scale <- group1_block0_conv0
I0525 07:12:48.923588  2962 net.cpp:369] group1_block0_conv0_scale -> group1_block0_conv0 (in-place)
I0525 07:12:48.923729  2962 layer_factory.hpp:77] Creating layer group1_block0_conv0_scale
I0525 07:12:48.923919  2962 net.cpp:124] Setting up group1_block0_conv0_scale
I0525 07:12:48.924005  2962 net.cpp:131] Top shape: 1 32 16 16 (8192)
I0525 07:12:48.924098  2962 net.cpp:139] Memory required for data: 2666496
I0525 07:12:48.924203  2962 layer_factory.hpp:77] Creating layer group1_block0_conv0_relu
I0525 07:12:48.924301  2962 net.cpp:86] Creating Layer group1_block0_conv0_relu
I0525 07:12:48.924377  2962 net.cpp:408] group1_block0_conv0_relu <- group1_block0_conv0
I0525 07:12:48.924472  2962 net.cpp:369] group1_block0_conv0_relu -> group1_block0_conv0 (in-place)
I0525 07:12:48.924572  2962 net.cpp:124] Setting up group1_block0_conv0_relu
I0525 07:12:48.924646  2962 net.cpp:131] Top shape: 1 32 16 16 (8192)
I0525 07:12:48.924736  2962 net.cpp:139] Memory required for data: 2699264
I0525 07:12:48.924808  2962 layer_factory.hpp:77] Creating layer group1_block0_conv1
I0525 07:12:48.924943  2962 net.cpp:86] Creating Layer group1_block0_conv1
I0525 07:12:48.925026  2962 net.cpp:408] group1_block0_conv1 <- group1_block0_conv0
I0525 07:12:48.925133  2962 net.cpp:382] group1_block0_conv1 -> group1_block0_conv1
I0525 07:12:48.926522  2962 net.cpp:124] Setting up group1_block0_conv1
I0525 07:12:48.926640  2962 net.cpp:131] Top shape: 1 32 16 16 (8192)
I0525 07:12:48.926743  2962 net.cpp:139] Memory required for data: 2732032
I0525 07:12:48.926851  2962 layer_factory.hpp:77] Creating layer group1_block0_conv1_bn
I0525 07:12:48.926950  2962 net.cpp:86] Creating Layer group1_block0_conv1_bn
I0525 07:12:48.927031  2962 net.cpp:408] group1_block0_conv1_bn <- group1_block0_conv1
I0525 07:12:48.927134  2962 net.cpp:369] group1_block0_conv1_bn -> group1_block0_conv1 (in-place)
I0525 07:12:48.927310  2962 net.cpp:124] Setting up group1_block0_conv1_bn
I0525 07:12:48.927446  2962 net.cpp:131] Top shape: 1 32 16 16 (8192)
I0525 07:12:48.927628  2962 net.cpp:139] Memory required for data: 2764800
I0525 07:12:48.927753  2962 layer_factory.hpp:77] Creating layer group1_block0_conv1_scale
I0525 07:12:48.927862  2962 net.cpp:86] Creating Layer group1_block0_conv1_scale
I0525 07:12:48.927940  2962 net.cpp:408] group1_block0_conv1_scale <- group1_block0_conv1
I0525 07:12:48.928032  2962 net.cpp:369] group1_block0_conv1_scale -> group1_block0_conv1 (in-place)
I0525 07:12:48.928166  2962 layer_factory.hpp:77] Creating layer group1_block0_conv1_scale
I0525 07:12:48.938457  2962 net.cpp:124] Setting up group1_block0_conv1_scale
I0525 07:12:48.938603  2962 net.cpp:131] Top shape: 1 32 16 16 (8192)
I0525 07:12:48.938707  2962 net.cpp:139] Memory required for data: 2797568
I0525 07:12:48.938818  2962 layer_factory.hpp:77] Creating layer group1_block0_proj
I0525 07:12:48.938963  2962 net.cpp:86] Creating Layer group1_block0_proj
I0525 07:12:48.939051  2962 net.cpp:408] group1_block0_proj <- group0_block2_sum_group0_block2_relu_0_split_1
I0525 07:12:48.939169  2962 net.cpp:382] group1_block0_proj -> group1_block0_proj
I0525 07:12:48.939498  2962 net.cpp:124] Setting up group1_block0_proj
I0525 07:12:48.939599  2962 net.cpp:131] Top shape: 1 32 16 16 (8192)
I0525 07:12:48.939702  2962 net.cpp:139] Memory required for data: 2830336
I0525 07:12:48.939888  2962 layer_factory.hpp:77] Creating layer group1_block0_proj_bn
I0525 07:12:48.940001  2962 net.cpp:86] Creating Layer group1_block0_proj_bn
I0525 07:12:48.940088  2962 net.cpp:408] group1_block0_proj_bn <- group1_block0_proj
I0525 07:12:48.940188  2962 net.cpp:369] group1_block0_proj_bn -> group1_block0_proj (in-place)
I0525 07:12:48.940369  2962 net.cpp:124] Setting up group1_block0_proj_bn
I0525 07:12:48.940451  2962 net.cpp:131] Top shape: 1 32 16 16 (8192)
I0525 07:12:48.940541  2962 net.cpp:139] Memory required for data: 2863104
I0525 07:12:48.940660  2962 layer_factory.hpp:77] Creating layer group1_block0_proj_scale
I0525 07:12:48.940755  2962 net.cpp:86] Creating Layer group1_block0_proj_scale
I0525 07:12:48.940831  2962 net.cpp:408] group1_block0_proj_scale <- group1_block0_proj
I0525 07:12:48.940925  2962 net.cpp:369] group1_block0_proj_scale -> group1_block0_proj (in-place)
I0525 07:12:48.941064  2962 layer_factory.hpp:77] Creating layer group1_block0_proj_scale
I0525 07:12:48.941244  2962 net.cpp:124] Setting up group1_block0_proj_scale
I0525 07:12:48.941323  2962 net.cpp:131] Top shape: 1 32 16 16 (8192)
I0525 07:12:48.941426  2962 net.cpp:139] Memory required for data: 2895872
I0525 07:12:48.941530  2962 layer_factory.hpp:77] Creating layer group1_block0_sum
I0525 07:12:48.941634  2962 net.cpp:86] Creating Layer group1_block0_sum
I0525 07:12:48.941717  2962 net.cpp:408] group1_block0_sum <- group1_block0_proj
I0525 07:12:48.941802  2962 net.cpp:408] group1_block0_sum <- group1_block0_conv1
I0525 07:12:48.941898  2962 net.cpp:382] group1_block0_sum -> group1_block0_sum
I0525 07:12:48.942013  2962 net.cpp:124] Setting up group1_block0_sum
I0525 07:12:48.942090  2962 net.cpp:131] Top shape: 1 32 16 16 (8192)
I0525 07:12:48.942178  2962 net.cpp:139] Memory required for data: 2928640
I0525 07:12:48.942248  2962 layer_factory.hpp:77] Creating layer group1_block0_relu
I0525 07:12:48.942339  2962 net.cpp:86] Creating Layer group1_block0_relu
I0525 07:12:48.942416  2962 net.cpp:408] group1_block0_relu <- group1_block0_sum
I0525 07:12:48.942509  2962 net.cpp:369] group1_block0_relu -> group1_block0_sum (in-place)
I0525 07:12:48.942606  2962 net.cpp:124] Setting up group1_block0_relu
I0525 07:12:48.942675  2962 net.cpp:131] Top shape: 1 32 16 16 (8192)
I0525 07:12:48.942764  2962 net.cpp:139] Memory required for data: 2961408
I0525 07:12:48.942832  2962 layer_factory.hpp:77] Creating layer group1_block0_sum_group1_block0_relu_0_split
I0525 07:12:48.942921  2962 net.cpp:86] Creating Layer group1_block0_sum_group1_block0_relu_0_split
I0525 07:12:48.942997  2962 net.cpp:408] group1_block0_sum_group1_block0_relu_0_split <- group1_block0_sum
I0525 07:12:48.943145  2962 net.cpp:382] group1_block0_sum_group1_block0_relu_0_split -> group1_block0_sum_group1_block0_relu_0_split_0
I0525 07:12:48.943357  2962 net.cpp:382] group1_block0_sum_group1_block0_relu_0_split -> group1_block0_sum_group1_block0_relu_0_split_1
I0525 07:12:48.943482  2962 net.cpp:124] Setting up group1_block0_sum_group1_block0_relu_0_split
I0525 07:12:48.943563  2962 net.cpp:131] Top shape: 1 32 16 16 (8192)
I0525 07:12:48.943660  2962 net.cpp:131] Top shape: 1 32 16 16 (8192)
I0525 07:12:48.943749  2962 net.cpp:139] Memory required for data: 3026944
I0525 07:12:48.943818  2962 layer_factory.hpp:77] Creating layer group1_block1_conv0
I0525 07:12:48.943933  2962 net.cpp:86] Creating Layer group1_block1_conv0
I0525 07:12:48.944015  2962 net.cpp:408] group1_block1_conv0 <- group1_block0_sum_group1_block0_relu_0_split_0
I0525 07:12:48.944120  2962 net.cpp:382] group1_block1_conv0 -> group1_block1_conv0
I0525 07:12:48.945499  2962 net.cpp:124] Setting up group1_block1_conv0
I0525 07:12:48.945636  2962 net.cpp:131] Top shape: 1 32 16 16 (8192)
I0525 07:12:48.945737  2962 net.cpp:139] Memory required for data: 3059712
I0525 07:12:48.945879  2962 layer_factory.hpp:77] Creating layer group1_block1_conv0_bn
I0525 07:12:48.945988  2962 net.cpp:86] Creating Layer group1_block1_conv0_bn
I0525 07:12:48.946070  2962 net.cpp:408] group1_block1_conv0_bn <- group1_block1_conv0
I0525 07:12:48.946166  2962 net.cpp:369] group1_block1_conv0_bn -> group1_block1_conv0 (in-place)
I0525 07:12:48.946359  2962 net.cpp:124] Setting up group1_block1_conv0_bn
I0525 07:12:48.946446  2962 net.cpp:131] Top shape: 1 32 16 16 (8192)
I0525 07:12:48.946537  2962 net.cpp:139] Memory required for data: 3092480
I0525 07:12:48.946656  2962 layer_factory.hpp:77] Creating layer group1_block1_conv0_scale
I0525 07:12:48.946753  2962 net.cpp:86] Creating Layer group1_block1_conv0_scale
I0525 07:12:48.946830  2962 net.cpp:408] group1_block1_conv0_scale <- group1_block1_conv0
I0525 07:12:48.946920  2962 net.cpp:369] group1_block1_conv0_scale -> group1_block1_conv0 (in-place)
I0525 07:12:48.947060  2962 layer_factory.hpp:77] Creating layer group1_block1_conv0_scale
I0525 07:12:48.947252  2962 net.cpp:124] Setting up group1_block1_conv0_scale
I0525 07:12:48.947337  2962 net.cpp:131] Top shape: 1 32 16 16 (8192)
I0525 07:12:48.947438  2962 net.cpp:139] Memory required for data: 3125248
I0525 07:12:48.947540  2962 layer_factory.hpp:77] Creating layer group1_block1_conv0_relu
I0525 07:12:48.947634  2962 net.cpp:86] Creating Layer group1_block1_conv0_relu
I0525 07:12:48.947715  2962 net.cpp:408] group1_block1_conv0_relu <- group1_block1_conv0
I0525 07:12:48.947813  2962 net.cpp:369] group1_block1_conv0_relu -> group1_block1_conv0 (in-place)
I0525 07:12:48.947916  2962 net.cpp:124] Setting up group1_block1_conv0_relu
I0525 07:12:48.947990  2962 net.cpp:131] Top shape: 1 32 16 16 (8192)
I0525 07:12:48.948081  2962 net.cpp:139] Memory required for data: 3158016
I0525 07:12:48.948153  2962 layer_factory.hpp:77] Creating layer group1_block1_conv1
I0525 07:12:48.958376  2962 net.cpp:86] Creating Layer group1_block1_conv1
I0525 07:12:48.958539  2962 net.cpp:408] group1_block1_conv1 <- group1_block1_conv0
I0525 07:12:48.958659  2962 net.cpp:382] group1_block1_conv1 -> group1_block1_conv1
I0525 07:12:48.960072  2962 net.cpp:124] Setting up group1_block1_conv1
I0525 07:12:48.960193  2962 net.cpp:131] Top shape: 1 32 16 16 (8192)
I0525 07:12:48.960291  2962 net.cpp:139] Memory required for data: 3190784
I0525 07:12:48.960408  2962 layer_factory.hpp:77] Creating layer group1_block1_conv1_bn
I0525 07:12:48.960512  2962 net.cpp:86] Creating Layer group1_block1_conv1_bn
I0525 07:12:48.960588  2962 net.cpp:408] group1_block1_conv1_bn <- group1_block1_conv1
I0525 07:12:48.960680  2962 net.cpp:369] group1_block1_conv1_bn -> group1_block1_conv1 (in-place)
I0525 07:12:48.960891  2962 net.cpp:124] Setting up group1_block1_conv1_bn
I0525 07:12:48.960981  2962 net.cpp:131] Top shape: 1 32 16 16 (8192)
I0525 07:12:48.961072  2962 net.cpp:139] Memory required for data: 3223552
I0525 07:12:48.961256  2962 layer_factory.hpp:77] Creating layer group1_block1_conv1_scale
I0525 07:12:48.961467  2962 net.cpp:86] Creating Layer group1_block1_conv1_scale
I0525 07:12:48.961550  2962 net.cpp:408] group1_block1_conv1_scale <- group1_block1_conv1
I0525 07:12:48.961647  2962 net.cpp:369] group1_block1_conv1_scale -> group1_block1_conv1 (in-place)
I0525 07:12:48.961798  2962 layer_factory.hpp:77] Creating layer group1_block1_conv1_scale
I0525 07:12:48.961992  2962 net.cpp:124] Setting up group1_block1_conv1_scale
I0525 07:12:48.962074  2962 net.cpp:131] Top shape: 1 32 16 16 (8192)
I0525 07:12:48.962167  2962 net.cpp:139] Memory required for data: 3256320
I0525 07:12:48.962273  2962 layer_factory.hpp:77] Creating layer group1_block1_sum
I0525 07:12:48.962369  2962 net.cpp:86] Creating Layer group1_block1_sum
I0525 07:12:48.962445  2962 net.cpp:408] group1_block1_sum <- group1_block1_conv1
I0525 07:12:48.962527  2962 net.cpp:408] group1_block1_sum <- group1_block0_sum_group1_block0_relu_0_split_1
I0525 07:12:48.962630  2962 net.cpp:382] group1_block1_sum -> group1_block1_sum
I0525 07:12:48.962741  2962 net.cpp:124] Setting up group1_block1_sum
I0525 07:12:48.962814  2962 net.cpp:131] Top shape: 1 32 16 16 (8192)
I0525 07:12:48.962903  2962 net.cpp:139] Memory required for data: 3289088
I0525 07:12:48.962972  2962 layer_factory.hpp:77] Creating layer group1_block1_relu
I0525 07:12:48.963057  2962 net.cpp:86] Creating Layer group1_block1_relu
I0525 07:12:48.963129  2962 net.cpp:408] group1_block1_relu <- group1_block1_sum
I0525 07:12:48.963217  2962 net.cpp:369] group1_block1_relu -> group1_block1_sum (in-place)
I0525 07:12:48.963310  2962 net.cpp:124] Setting up group1_block1_relu
I0525 07:12:48.963377  2962 net.cpp:131] Top shape: 1 32 16 16 (8192)
I0525 07:12:48.963464  2962 net.cpp:139] Memory required for data: 3321856
I0525 07:12:48.963533  2962 layer_factory.hpp:77] Creating layer group1_block1_sum_group1_block1_relu_0_split
I0525 07:12:48.963620  2962 net.cpp:86] Creating Layer group1_block1_sum_group1_block1_relu_0_split
I0525 07:12:48.963691  2962 net.cpp:408] group1_block1_sum_group1_block1_relu_0_split <- group1_block1_sum
I0525 07:12:48.963779  2962 net.cpp:382] group1_block1_sum_group1_block1_relu_0_split -> group1_block1_sum_group1_block1_relu_0_split_0
I0525 07:12:48.963891  2962 net.cpp:382] group1_block1_sum_group1_block1_relu_0_split -> group1_block1_sum_group1_block1_relu_0_split_1
I0525 07:12:48.963999  2962 net.cpp:124] Setting up group1_block1_sum_group1_block1_relu_0_split
I0525 07:12:48.964069  2962 net.cpp:131] Top shape: 1 32 16 16 (8192)
I0525 07:12:48.964159  2962 net.cpp:131] Top shape: 1 32 16 16 (8192)
I0525 07:12:48.964244  2962 net.cpp:139] Memory required for data: 3387392
I0525 07:12:48.964313  2962 layer_factory.hpp:77] Creating layer group1_block2_conv0
I0525 07:12:48.964435  2962 net.cpp:86] Creating Layer group1_block2_conv0
I0525 07:12:48.964516  2962 net.cpp:408] group1_block2_conv0 <- group1_block1_sum_group1_block1_relu_0_split_0
I0525 07:12:48.964617  2962 net.cpp:382] group1_block2_conv0 -> group1_block2_conv0
I0525 07:12:48.965986  2962 net.cpp:124] Setting up group1_block2_conv0
I0525 07:12:48.966104  2962 net.cpp:131] Top shape: 1 32 16 16 (8192)
I0525 07:12:48.966200  2962 net.cpp:139] Memory required for data: 3420160
I0525 07:12:48.966321  2962 layer_factory.hpp:77] Creating layer group1_block2_conv0_bn
I0525 07:12:48.966428  2962 net.cpp:86] Creating Layer group1_block2_conv0_bn
I0525 07:12:48.966511  2962 net.cpp:408] group1_block2_conv0_bn <- group1_block2_conv0
I0525 07:12:48.966612  2962 net.cpp:369] group1_block2_conv0_bn -> group1_block2_conv0 (in-place)
I0525 07:12:48.966832  2962 net.cpp:124] Setting up group1_block2_conv0_bn
I0525 07:12:48.966928  2962 net.cpp:131] Top shape: 1 32 16 16 (8192)
I0525 07:12:48.967028  2962 net.cpp:139] Memory required for data: 3452928
I0525 07:12:48.967155  2962 layer_factory.hpp:77] Creating layer group1_block2_conv0_scale
I0525 07:12:48.967259  2962 net.cpp:86] Creating Layer group1_block2_conv0_scale
I0525 07:12:48.967397  2962 net.cpp:408] group1_block2_conv0_scale <- group1_block2_conv0
I0525 07:12:48.967593  2962 net.cpp:369] group1_block2_conv0_scale -> group1_block2_conv0 (in-place)
I0525 07:12:48.967751  2962 layer_factory.hpp:77] Creating layer group1_block2_conv0_scale
I0525 07:12:48.967957  2962 net.cpp:124] Setting up group1_block2_conv0_scale
I0525 07:12:48.968044  2962 net.cpp:131] Top shape: 1 32 16 16 (8192)
I0525 07:12:48.968152  2962 net.cpp:139] Memory required for data: 3485696
I0525 07:12:48.978368  2962 layer_factory.hpp:77] Creating layer group1_block2_conv0_relu
I0525 07:12:48.978549  2962 net.cpp:86] Creating Layer group1_block2_conv0_relu
I0525 07:12:48.978642  2962 net.cpp:408] group1_block2_conv0_relu <- group1_block2_conv0
I0525 07:12:48.978742  2962 net.cpp:369] group1_block2_conv0_relu -> group1_block2_conv0 (in-place)
I0525 07:12:48.978857  2962 net.cpp:124] Setting up group1_block2_conv0_relu
I0525 07:12:48.978936  2962 net.cpp:131] Top shape: 1 32 16 16 (8192)
I0525 07:12:48.979034  2962 net.cpp:139] Memory required for data: 3518464
I0525 07:12:48.979110  2962 layer_factory.hpp:77] Creating layer group1_block2_conv1
I0525 07:12:48.979243  2962 net.cpp:86] Creating Layer group1_block2_conv1
I0525 07:12:48.979327  2962 net.cpp:408] group1_block2_conv1 <- group1_block2_conv0
I0525 07:12:48.979432  2962 net.cpp:382] group1_block2_conv1 -> group1_block2_conv1
I0525 07:12:48.980855  2962 net.cpp:124] Setting up group1_block2_conv1
I0525 07:12:48.981025  2962 net.cpp:131] Top shape: 1 32 16 16 (8192)
I0525 07:12:48.981137  2962 net.cpp:139] Memory required for data: 3551232
I0525 07:12:48.981256  2962 layer_factory.hpp:77] Creating layer group1_block2_conv1_bn
I0525 07:12:48.981473  2962 net.cpp:86] Creating Layer group1_block2_conv1_bn
I0525 07:12:48.981565  2962 net.cpp:408] group1_block2_conv1_bn <- group1_block2_conv1
I0525 07:12:48.981668  2962 net.cpp:369] group1_block2_conv1_bn -> group1_block2_conv1 (in-place)
I0525 07:12:48.981851  2962 net.cpp:124] Setting up group1_block2_conv1_bn
I0525 07:12:48.981941  2962 net.cpp:131] Top shape: 1 32 16 16 (8192)
I0525 07:12:48.982040  2962 net.cpp:139] Memory required for data: 3584000
I0525 07:12:48.982167  2962 layer_factory.hpp:77] Creating layer group1_block2_conv1_scale
I0525 07:12:48.982272  2962 net.cpp:86] Creating Layer group1_block2_conv1_scale
I0525 07:12:48.982368  2962 net.cpp:408] group1_block2_conv1_scale <- group1_block2_conv1
I0525 07:12:48.982466  2962 net.cpp:369] group1_block2_conv1_scale -> group1_block2_conv1 (in-place)
I0525 07:12:48.982610  2962 layer_factory.hpp:77] Creating layer group1_block2_conv1_scale
I0525 07:12:48.982802  2962 net.cpp:124] Setting up group1_block2_conv1_scale
I0525 07:12:48.982887  2962 net.cpp:131] Top shape: 1 32 16 16 (8192)
I0525 07:12:48.982983  2962 net.cpp:139] Memory required for data: 3616768
I0525 07:12:48.983093  2962 layer_factory.hpp:77] Creating layer group1_block2_sum
I0525 07:12:48.983193  2962 net.cpp:86] Creating Layer group1_block2_sum
I0525 07:12:48.983273  2962 net.cpp:408] group1_block2_sum <- group1_block2_conv1
I0525 07:12:48.983356  2962 net.cpp:408] group1_block2_sum <- group1_block1_sum_group1_block1_relu_0_split_1
I0525 07:12:48.983456  2962 net.cpp:382] group1_block2_sum -> group1_block2_sum
I0525 07:12:48.983639  2962 net.cpp:124] Setting up group1_block2_sum
I0525 07:12:48.983727  2962 net.cpp:131] Top shape: 1 32 16 16 (8192)
I0525 07:12:48.983819  2962 net.cpp:139] Memory required for data: 3649536
I0525 07:12:48.983891  2962 layer_factory.hpp:77] Creating layer group1_block2_relu
I0525 07:12:48.983980  2962 net.cpp:86] Creating Layer group1_block2_relu
I0525 07:12:48.984055  2962 net.cpp:408] group1_block2_relu <- group1_block2_sum
I0525 07:12:48.984144  2962 net.cpp:369] group1_block2_relu -> group1_block2_sum (in-place)
I0525 07:12:48.984241  2962 net.cpp:124] Setting up group1_block2_relu
I0525 07:12:48.984316  2962 net.cpp:131] Top shape: 1 32 16 16 (8192)
I0525 07:12:48.984411  2962 net.cpp:139] Memory required for data: 3682304
I0525 07:12:48.984483  2962 layer_factory.hpp:77] Creating layer group1_block2_sum_group1_block2_relu_0_split
I0525 07:12:48.984730  2962 net.cpp:86] Creating Layer group1_block2_sum_group1_block2_relu_0_split
I0525 07:12:48.984814  2962 net.cpp:408] group1_block2_sum_group1_block2_relu_0_split <- group1_block2_sum
I0525 07:12:48.984910  2962 net.cpp:382] group1_block2_sum_group1_block2_relu_0_split -> group1_block2_sum_group1_block2_relu_0_split_0
I0525 07:12:48.985020  2962 net.cpp:382] group1_block2_sum_group1_block2_relu_0_split -> group1_block2_sum_group1_block2_relu_0_split_1
I0525 07:12:48.985136  2962 net.cpp:124] Setting up group1_block2_sum_group1_block2_relu_0_split
I0525 07:12:48.985210  2962 net.cpp:131] Top shape: 1 32 16 16 (8192)
I0525 07:12:48.985319  2962 net.cpp:131] Top shape: 1 32 16 16 (8192)
I0525 07:12:48.985409  2962 net.cpp:139] Memory required for data: 3747840
I0525 07:12:48.985482  2962 layer_factory.hpp:77] Creating layer group2_block0_conv0
I0525 07:12:48.985599  2962 net.cpp:86] Creating Layer group2_block0_conv0
I0525 07:12:48.985677  2962 net.cpp:408] group2_block0_conv0 <- group1_block2_sum_group1_block2_relu_0_split_0
I0525 07:12:48.985792  2962 net.cpp:382] group2_block0_conv0 -> group2_block0_conv0
I0525 07:12:48.998353  2962 net.cpp:124] Setting up group2_block0_conv0
I0525 07:12:48.998529  2962 net.cpp:131] Top shape: 1 64 8 8 (4096)
I0525 07:12:48.998633  2962 net.cpp:139] Memory required for data: 3764224
I0525 07:12:48.998754  2962 layer_factory.hpp:77] Creating layer group2_block0_conv0_bn
I0525 07:12:48.998862  2962 net.cpp:86] Creating Layer group2_block0_conv0_bn
I0525 07:12:48.998944  2962 net.cpp:408] group2_block0_conv0_bn <- group2_block0_conv0
I0525 07:12:48.999054  2962 net.cpp:369] group2_block0_conv0_bn -> group2_block0_conv0 (in-place)
I0525 07:12:48.999243  2962 net.cpp:124] Setting up group2_block0_conv0_bn
I0525 07:12:48.999325  2962 net.cpp:131] Top shape: 1 64 8 8 (4096)
I0525 07:12:48.999413  2962 net.cpp:139] Memory required for data: 3780608
I0525 07:12:48.999531  2962 layer_factory.hpp:77] Creating layer group2_block0_conv0_scale
I0525 07:12:48.999632  2962 net.cpp:86] Creating Layer group2_block0_conv0_scale
I0525 07:12:48.999711  2962 net.cpp:408] group2_block0_conv0_scale <- group2_block0_conv0
I0525 07:12:48.999812  2962 net.cpp:369] group2_block0_conv0_scale -> group2_block0_conv0 (in-place)
I0525 07:12:48.999959  2962 layer_factory.hpp:77] Creating layer group2_block0_conv0_scale
I0525 07:12:49.000180  2962 net.cpp:124] Setting up group2_block0_conv0_scale
I0525 07:12:49.000301  2962 net.cpp:131] Top shape: 1 64 8 8 (4096)
I0525 07:12:49.000404  2962 net.cpp:139] Memory required for data: 3796992
I0525 07:12:49.000520  2962 layer_factory.hpp:77] Creating layer group2_block0_conv0_relu
I0525 07:12:49.000622  2962 net.cpp:86] Creating Layer group2_block0_conv0_relu
I0525 07:12:49.000703  2962 net.cpp:408] group2_block0_conv0_relu <- group2_block0_conv0
I0525 07:12:49.000808  2962 net.cpp:369] group2_block0_conv0_relu -> group2_block0_conv0 (in-place)
I0525 07:12:49.000913  2962 net.cpp:124] Setting up group2_block0_conv0_relu
I0525 07:12:49.000985  2962 net.cpp:131] Top shape: 1 64 8 8 (4096)
I0525 07:12:49.001072  2962 net.cpp:139] Memory required for data: 3813376
I0525 07:12:49.001143  2962 layer_factory.hpp:77] Creating layer group2_block0_conv1
I0525 07:12:49.001258  2962 net.cpp:86] Creating Layer group2_block0_conv1
I0525 07:12:49.001334  2962 net.cpp:408] group2_block0_conv1 <- group2_block0_conv0
I0525 07:12:49.001438  2962 net.cpp:382] group2_block0_conv1 -> group2_block0_conv1
I0525 07:12:49.006232  2962 net.cpp:124] Setting up group2_block0_conv1
I0525 07:12:49.006387  2962 net.cpp:131] Top shape: 1 64 8 8 (4096)
I0525 07:12:49.006492  2962 net.cpp:139] Memory required for data: 3829760
I0525 07:12:49.006613  2962 layer_factory.hpp:77] Creating layer group2_block0_conv1_bn
I0525 07:12:49.006721  2962 net.cpp:86] Creating Layer group2_block0_conv1_bn
I0525 07:12:49.006803  2962 net.cpp:408] group2_block0_conv1_bn <- group2_block0_conv1
I0525 07:12:49.006901  2962 net.cpp:369] group2_block0_conv1_bn -> group2_block0_conv1 (in-place)
I0525 07:12:49.007244  2962 net.cpp:124] Setting up group2_block0_conv1_bn
I0525 07:12:49.007340  2962 net.cpp:131] Top shape: 1 64 8 8 (4096)
I0525 07:12:49.007433  2962 net.cpp:139] Memory required for data: 3846144
I0525 07:12:49.007555  2962 layer_factory.hpp:77] Creating layer group2_block0_conv1_scale
I0525 07:12:49.007655  2962 net.cpp:86] Creating Layer group2_block0_conv1_scale
I0525 07:12:49.007732  2962 net.cpp:408] group2_block0_conv1_scale <- group2_block0_conv1
I0525 07:12:49.007845  2962 net.cpp:369] group2_block0_conv1_scale -> group2_block0_conv1 (in-place)
I0525 07:12:49.008000  2962 layer_factory.hpp:77] Creating layer group2_block0_conv1_scale
I0525 07:12:49.008183  2962 net.cpp:124] Setting up group2_block0_conv1_scale
I0525 07:12:49.018344  2962 net.cpp:131] Top shape: 1 64 8 8 (4096)
I0525 07:12:49.018497  2962 net.cpp:139] Memory required for data: 3862528
I0525 07:12:49.018617  2962 layer_factory.hpp:77] Creating layer group2_block0_proj
I0525 07:12:49.018761  2962 net.cpp:86] Creating Layer group2_block0_proj
I0525 07:12:49.018847  2962 net.cpp:408] group2_block0_proj <- group1_block2_sum_group1_block2_relu_0_split_1
I0525 07:12:49.018959  2962 net.cpp:382] group2_block0_proj -> group2_block0_proj
I0525 07:12:49.019454  2962 net.cpp:124] Setting up group2_block0_proj
I0525 07:12:49.019549  2962 net.cpp:131] Top shape: 1 64 8 8 (4096)
I0525 07:12:49.019639  2962 net.cpp:139] Memory required for data: 3878912
I0525 07:12:49.019740  2962 layer_factory.hpp:77] Creating layer group2_block0_proj_bn
I0525 07:12:49.019843  2962 net.cpp:86] Creating Layer group2_block0_proj_bn
I0525 07:12:49.019920  2962 net.cpp:408] group2_block0_proj_bn <- group2_block0_proj
I0525 07:12:49.020012  2962 net.cpp:369] group2_block0_proj_bn -> group2_block0_proj (in-place)
I0525 07:12:49.020174  2962 net.cpp:124] Setting up group2_block0_proj_bn
I0525 07:12:49.020251  2962 net.cpp:131] Top shape: 1 64 8 8 (4096)
I0525 07:12:49.020346  2962 net.cpp:139] Memory required for data: 3895296
I0525 07:12:49.020463  2962 layer_factory.hpp:77] Creating layer group2_block0_proj_scale
I0525 07:12:49.020558  2962 net.cpp:86] Creating Layer group2_block0_proj_scale
I0525 07:12:49.020634  2962 net.cpp:408] group2_block0_proj_scale <- group2_block0_proj
I0525 07:12:49.020722  2962 net.cpp:369] group2_block0_proj_scale -> group2_block0_proj (in-place)
I0525 07:12:49.020853  2962 layer_factory.hpp:77] Creating layer group2_block0_proj_scale
I0525 07:12:49.021023  2962 net.cpp:124] Setting up group2_block0_proj_scale
I0525 07:12:49.021104  2962 net.cpp:131] Top shape: 1 64 8 8 (4096)
I0525 07:12:49.021190  2962 net.cpp:139] Memory required for data: 3911680
I0525 07:12:49.021291  2962 layer_factory.hpp:77] Creating layer group2_block0_sum
I0525 07:12:49.021385  2962 net.cpp:86] Creating Layer group2_block0_sum
I0525 07:12:49.021462  2962 net.cpp:408] group2_block0_sum <- group2_block0_proj
I0525 07:12:49.021543  2962 net.cpp:408] group2_block0_sum <- group2_block0_conv1
I0525 07:12:49.021636  2962 net.cpp:382] group2_block0_sum -> group2_block0_sum
I0525 07:12:49.021744  2962 net.cpp:124] Setting up group2_block0_sum
I0525 07:12:49.021816  2962 net.cpp:131] Top shape: 1 64 8 8 (4096)
I0525 07:12:49.021899  2962 net.cpp:139] Memory required for data: 3928064
I0525 07:12:49.021967  2962 layer_factory.hpp:77] Creating layer group2_block0_relu
I0525 07:12:49.022053  2962 net.cpp:86] Creating Layer group2_block0_relu
I0525 07:12:49.022125  2962 net.cpp:408] group2_block0_relu <- group2_block0_sum
I0525 07:12:49.022212  2962 net.cpp:369] group2_block0_relu -> group2_block0_sum (in-place)
I0525 07:12:49.022305  2962 net.cpp:124] Setting up group2_block0_relu
I0525 07:12:49.022372  2962 net.cpp:131] Top shape: 1 64 8 8 (4096)
I0525 07:12:49.022454  2962 net.cpp:139] Memory required for data: 3944448
I0525 07:12:49.022521  2962 layer_factory.hpp:77] Creating layer group2_block0_sum_group2_block0_relu_0_split
I0525 07:12:49.022608  2962 net.cpp:86] Creating Layer group2_block0_sum_group2_block0_relu_0_split
I0525 07:12:49.022729  2962 net.cpp:408] group2_block0_sum_group2_block0_relu_0_split <- group2_block0_sum
I0525 07:12:49.022917  2962 net.cpp:382] group2_block0_sum_group2_block0_relu_0_split -> group2_block0_sum_group2_block0_relu_0_split_0
I0525 07:12:49.023037  2962 net.cpp:382] group2_block0_sum_group2_block0_relu_0_split -> group2_block0_sum_group2_block0_relu_0_split_1
I0525 07:12:49.023149  2962 net.cpp:124] Setting up group2_block0_sum_group2_block0_relu_0_split
I0525 07:12:49.023221  2962 net.cpp:131] Top shape: 1 64 8 8 (4096)
I0525 07:12:49.023304  2962 net.cpp:131] Top shape: 1 64 8 8 (4096)
I0525 07:12:49.023384  2962 net.cpp:139] Memory required for data: 3977216
I0525 07:12:49.023453  2962 layer_factory.hpp:77] Creating layer group2_block1_conv0
I0525 07:12:49.023564  2962 net.cpp:86] Creating Layer group2_block1_conv0
I0525 07:12:49.023640  2962 net.cpp:408] group2_block1_conv0 <- group2_block0_sum_group2_block0_relu_0_split_0
I0525 07:12:49.023741  2962 net.cpp:382] group2_block1_conv0 -> group2_block1_conv0
I0525 07:12:49.037276  2962 net.cpp:124] Setting up group2_block1_conv0
I0525 07:12:49.037451  2962 net.cpp:131] Top shape: 1 64 8 8 (4096)
I0525 07:12:49.037554  2962 net.cpp:139] Memory required for data: 3993600
I0525 07:12:49.037670  2962 layer_factory.hpp:77] Creating layer group2_block1_conv0_bn
I0525 07:12:49.037773  2962 net.cpp:86] Creating Layer group2_block1_conv0_bn
I0525 07:12:49.037854  2962 net.cpp:408] group2_block1_conv0_bn <- group2_block1_conv0
I0525 07:12:49.037955  2962 net.cpp:369] group2_block1_conv0_bn -> group2_block1_conv0 (in-place)
I0525 07:12:49.038134  2962 net.cpp:124] Setting up group2_block1_conv0_bn
I0525 07:12:49.038218  2962 net.cpp:131] Top shape: 1 64 8 8 (4096)
I0525 07:12:49.038393  2962 net.cpp:139] Memory required for data: 4009984
I0525 07:12:49.038519  2962 layer_factory.hpp:77] Creating layer group2_block1_conv0_scale
I0525 07:12:49.038628  2962 net.cpp:86] Creating Layer group2_block1_conv0_scale
I0525 07:12:49.038707  2962 net.cpp:408] group2_block1_conv0_scale <- group2_block1_conv0
I0525 07:12:49.038798  2962 net.cpp:369] group2_block1_conv0_scale -> group2_block1_conv0 (in-place)
I0525 07:12:49.038935  2962 layer_factory.hpp:77] Creating layer group2_block1_conv0_scale
I0525 07:12:49.039113  2962 net.cpp:124] Setting up group2_block1_conv0_scale
I0525 07:12:49.039191  2962 net.cpp:131] Top shape: 1 64 8 8 (4096)
I0525 07:12:49.039278  2962 net.cpp:139] Memory required for data: 4026368
I0525 07:12:49.039379  2962 layer_factory.hpp:77] Creating layer group2_block1_conv0_relu
I0525 07:12:49.039469  2962 net.cpp:86] Creating Layer group2_block1_conv0_relu
I0525 07:12:49.039544  2962 net.cpp:408] group2_block1_conv0_relu <- group2_block1_conv0
I0525 07:12:49.039633  2962 net.cpp:369] group2_block1_conv0_relu -> group2_block1_conv0 (in-place)
I0525 07:12:49.039726  2962 net.cpp:124] Setting up group2_block1_conv0_relu
I0525 07:12:49.039795  2962 net.cpp:131] Top shape: 1 64 8 8 (4096)
I0525 07:12:49.039881  2962 net.cpp:139] Memory required for data: 4042752
I0525 07:12:49.039949  2962 layer_factory.hpp:77] Creating layer group2_block1_conv1
I0525 07:12:49.040058  2962 net.cpp:86] Creating Layer group2_block1_conv1
I0525 07:12:49.040134  2962 net.cpp:408] group2_block1_conv1 <- group2_block1_conv0
I0525 07:12:49.040243  2962 net.cpp:382] group2_block1_conv1 -> group2_block1_conv1
I0525 07:12:49.044988  2962 net.cpp:124] Setting up group2_block1_conv1
I0525 07:12:49.045140  2962 net.cpp:131] Top shape: 1 64 8 8 (4096)
I0525 07:12:49.045243  2962 net.cpp:139] Memory required for data: 4059136
I0525 07:12:49.045363  2962 layer_factory.hpp:77] Creating layer group2_block1_conv1_bn
I0525 07:12:49.045473  2962 net.cpp:86] Creating Layer group2_block1_conv1_bn
I0525 07:12:49.045558  2962 net.cpp:408] group2_block1_conv1_bn <- group2_block1_conv1
I0525 07:12:49.045670  2962 net.cpp:369] group2_block1_conv1_bn -> group2_block1_conv1 (in-place)
I0525 07:12:49.045846  2962 net.cpp:124] Setting up group2_block1_conv1_bn
I0525 07:12:49.045992  2962 net.cpp:131] Top shape: 1 64 8 8 (4096)
I0525 07:12:49.046185  2962 net.cpp:139] Memory required for data: 4075520
I0525 07:12:49.046443  2962 layer_factory.hpp:77] Creating layer group2_block1_conv1_scale
I0525 07:12:49.046568  2962 net.cpp:86] Creating Layer group2_block1_conv1_scale
I0525 07:12:49.046651  2962 net.cpp:408] group2_block1_conv1_scale <- group2_block1_conv1
I0525 07:12:49.046748  2962 net.cpp:369] group2_block1_conv1_scale -> group2_block1_conv1 (in-place)
I0525 07:12:49.046893  2962 layer_factory.hpp:77] Creating layer group2_block1_conv1_scale
I0525 07:12:49.047062  2962 net.cpp:124] Setting up group2_block1_conv1_scale
I0525 07:12:49.047140  2962 net.cpp:131] Top shape: 1 64 8 8 (4096)
I0525 07:12:49.047226  2962 net.cpp:139] Memory required for data: 4091904
I0525 07:12:49.047333  2962 layer_factory.hpp:77] Creating layer group2_block1_sum
I0525 07:12:49.047430  2962 net.cpp:86] Creating Layer group2_block1_sum
I0525 07:12:49.047508  2962 net.cpp:408] group2_block1_sum <- group2_block1_conv1
I0525 07:12:49.047591  2962 net.cpp:408] group2_block1_sum <- group2_block0_sum_group2_block0_relu_0_split_1
I0525 07:12:49.047706  2962 net.cpp:382] group2_block1_sum -> group2_block1_sum
I0525 07:12:49.047832  2962 net.cpp:124] Setting up group2_block1_sum
I0525 07:12:49.047910  2962 net.cpp:131] Top shape: 1 64 8 8 (4096)
I0525 07:12:49.048002  2962 net.cpp:139] Memory required for data: 4108288
I0525 07:12:49.048074  2962 layer_factory.hpp:77] Creating layer group2_block1_relu
I0525 07:12:49.048162  2962 net.cpp:86] Creating Layer group2_block1_relu
I0525 07:12:49.048313  2962 net.cpp:408] group2_block1_relu <- group2_block1_sum
I0525 07:12:49.048445  2962 net.cpp:369] group2_block1_relu -> group2_block1_sum (in-place)
I0525 07:12:49.048552  2962 net.cpp:124] Setting up group2_block1_relu
I0525 07:12:49.048629  2962 net.cpp:131] Top shape: 1 64 8 8 (4096)
I0525 07:12:49.048722  2962 net.cpp:139] Memory required for data: 4124672
I0525 07:12:49.048796  2962 layer_factory.hpp:77] Creating layer global_avg_pool
I0525 07:12:49.048889  2962 net.cpp:86] Creating Layer global_avg_pool
I0525 07:12:49.048967  2962 net.cpp:408] global_avg_pool <- group2_block1_sum
I0525 07:12:49.049060  2962 net.cpp:382] global_avg_pool -> global_avg_pool
I0525 07:12:49.049233  2962 net.cpp:124] Setting up global_avg_pool
I0525 07:12:49.049321  2962 net.cpp:131] Top shape: 1 64 1 1 (64)
I0525 07:12:49.049412  2962 net.cpp:139] Memory required for data: 4124928
I0525 07:12:49.049486  2962 layer_factory.hpp:77] Creating layer fc
I0525 07:12:49.049587  2962 net.cpp:86] Creating Layer fc
I0525 07:12:49.049661  2962 net.cpp:408] fc <- global_avg_pool
I0525 07:12:49.049767  2962 net.cpp:382] fc -> fc
I0525 07:12:49.050019  2962 net.cpp:124] Setting up fc
I0525 07:12:49.050101  2962 net.cpp:131] Top shape: 1 10 (10)
I0525 07:12:49.050185  2962 net.cpp:139] Memory required for data: 4124968
I0525 07:12:49.050290  2962 layer_factory.hpp:77] Creating layer softmax
I0525 07:12:49.050379  2962 net.cpp:86] Creating Layer softmax
I0525 07:12:49.050451  2962 net.cpp:408] softmax <- fc
I0525 07:12:49.050549  2962 net.cpp:382] softmax -> softmax
I0525 07:12:49.050659  2962 net.cpp:124] Setting up softmax
I0525 07:12:49.050735  2962 net.cpp:131] Top shape: 1 10 (10)
I0525 07:12:49.050823  2962 net.cpp:139] Memory required for data: 4125008
I0525 07:12:49.050895  2962 net.cpp:202] softmax does not need backward computation.
I0525 07:12:49.051003  2962 net.cpp:202] fc does not need backward computation.
I0525 07:12:49.051079  2962 net.cpp:202] global_avg_pool does not need backward computation.
I0525 07:12:49.051156  2962 net.cpp:202] group2_block1_relu does not need backward computation.
…
