I0525 07:13:46.032256  2968 caffe.cpp:343] Use CPU.
I0525 07:13:46.054332  2968 net.cpp:53] Initializing net from parameters: 
name: "ResNet-18"
state {
  phase: TRAIN
  level: 0
  stage: ""
}
layer {
  name: "data"
  type: "Input"
  top: "data"
  input_param {
    shape {
      dim: 1
      dim: 3
      dim: 224
      dim: 224
    }
  }
}
layer {
  name: "conv1"
  type: "Convolution"
  bottom: "data"
  top: "conv1"
  convolution_param {
    num_output: 64
    bias_term: false
    pad: 3
    kernel_size: 7
    stride: 2
    weight_filler {
      type: "msra"
    }
  }
}
layer {
  name: "bn_conv1"
  type: "BatchNorm"
  bottom: "conv1"
  top: "conv1"
  batch_norm_param {
    moving_average_fraction: 0.9
  }
}
layer {
  name: "scale_conv1"
  type: "Scale"
  bottom: "conv1"
  top: "conv1"
  scale_param {
    bias_term: true
  }
}
layer {
  name: "conv1_relu"
  type: "ReLU"
  bottom: "conv1"
  top: "conv1"
}
layer {
  name: "pool1"
  type: "Pooling"
  bottom: "conv1"
  top: "pool1"
  pooling_param {
    pool: MAX
    kernel_size: 3
    stride: 2
  }
}
layer {
  name: "res2a_branch1"
  type: "Convolution"
  bottom: "pool1"
  top: "res2a_branch1"
  convolution_param {
    num_output: 64
    bias_term: false
    pad: 0
    kernel_size: 1
    stride: 1
    weight_filler {
      type: "msra"
    }
  }
}
layer {
  name: "bn2a_branch1"
  type: "BatchNorm"
  bottom: "res2a_branch1"
  top: "res2a_branch1"
  batch_norm_param {
    moving_average_fraction: 0.9
  }
}
layer {
  name: "scale2a_branch1"
  type: "Scale"
  bottom: "res2a_branch1"
  top: "res2a_branch1"
  scale_param {
    bias_term: true
  }
}
layer {
  name: "res2a_branch2a"
  type: "Convolution"
  bottom: "pool1"
  top: "res2a_branch2a"
  convolution_param {
    num_output: 64
    bias_term: false
    pad: 1
    kernel_size: 3
    stride: 1
    weight_filler {
      type: "msra"
    }
  }
}
layer {
  name: "bn2a_branch2a"
  type: "BatchNorm"
  bottom: "res2a_branch2a"
  top: "res2a_branch2a"
  batch_norm_param {
    moving_average_fraction: 0.9
  }
}
layer {
  name: "scale2a_branch2a"
  type: "Scale"
  bottom: "res2a_branch2a"
  top: "res2a_branch2a"
  scale_param {
    bias_term: true
  }
}
layer {
  name: "res2a_branch2a_relu"
  type: "ReLU"
  bottom: "res2a_branch2a"
  top: "res2a_branch2a"
}
layer {
  name: "res2a_branch2b"
  type: "Convolution"
  bottom: "res2a_branch2a"
  top: "res2a_branch2b"
  convolution_param {
    num_output: 64
    bias_term: false
    pad: 1
    kernel_size: 3
    stride: 1
    weight_filler {
      type: "msra"
    }
  }
}
layer {
  name: "bn2a_branch2b"
  type: "BatchNorm"
  bottom: "res2a_branch2b"
  top: "res2a_branch2b"
  batch_norm_param {
    moving_average_fraction: 0.9
  }
}
layer {
  name: "scale2a_branch2b"
  type: "Scale"
  bottom: "res2a_branch2b"
  top: "res2a_branch2b"
  scale_param {
    bias_term: true
  }
}
layer {
  name: "res2a"
  type: "Eltwise"
  bottom: "res2a_branch1"
  bottom: "res2a_branch2b"
  top: "res2a"
  eltwise_param {
    operation: SUM
  }
}
layer {
  name: "res2a_relu"
  type: "ReLU"
  bottom: "res2a"
  top: "res2a"
}
layer {
  name: "res2b_branch2a"
  type: "Convolution"
  bottom: "res2a"
  top: "res2b_branch2a"
  convolution_param {
    num_output: 64
    bias_term: false
    pad: 1
    kernel_size: 3
    stride: 1
    weight_filler {
      type: "msra"
    }
  }
}
layer {
  name: "bn2b_branch2a"
  type: "BatchNorm"
  bottom: "res2b_branch2a"
  top: "res2b_branch2a"
  batch_norm_param {
    moving_average_fraction: 0.9
  }
}
layer {
  name: "scale2b_branch2a"
  type: "Scale"
  bottom: "res2b_branch2a"
  top: "res2b_branch2a"
  scale_param {
    bias_term: true
  }
}
layer {
  name: "res2b_branch2a_relu"
  type: "ReLU"
  bottom: "res2b_branch2a"
  top: "res2b_branch2a"
}
layer {
  name: "res2b_branch2b"
  type: "Convolution"
  bottom: "res2b_branch2a"
  top: "res2b_branch2b"
  convolution_param {
    num_output: 64
    bias_term: false
    pad: 1
    kernel_size: 3
    stride: 1
    weight_filler {
      type: "msra"
    }
  }
}
layer {
  name: "bn2b_branch2b"
  type: "BatchNorm"
  bottom: "res2b_branch2b"
  top: "res2b_branch2b"
  batch_norm_param {
    moving_average_fraction: 0.9
  }
}
layer {
  name: "scale2b_branch2b"
  type: "Scale"
  bottom: "res2b_branch2b"
  top: "res2b_branch2b"
  scale_param {
    bias_term: true
  }
}
layer {
  name: "res2b"
  type: "Eltwise"
  bottom: "res2a"
  bottom: "res2b_branch2b"
  top: "res2b"
  eltwise_param {
    operation: SUM
  }
}
layer {
  name: "res2b_relu"
  type: "ReLU"
  bottom: "res2b"
  top: "res2b"
}
layer {
  name: "res3a_branch1"
  type: "Convolution"
  bottom: "res2b"
  top: "res3a_branch1"
  convolution_param {
    num_output: 128
    bias_term: false
    pad: 0
    kernel_size: 1
    stride: 2
    weight_filler {
      type: "msra"
    }
  }
}
layer {
  name: "bn3a_branch1"
  type: "BatchNorm"
  bottom: "res3a_branch1"
  top: "res3a_branch1"
  batch_norm_param {
    moving_average_fraction: 0.9
  }
}
layer {
  name: "scale3a_branch1"
  type: "Scale"
  bottom: "res3a_branch1"
  top: "res3a_branch1"
  scale_param {
    bias_term: true
  }
}
layer {
  name: "res3a_branch2a"
  type: "Convolution"
  bottom: "res2b"
  top: "res3a_branch2a"
  convolution_param {
    num_output: 128
    bias_term: false
    pad: 1
    kernel_size: 3
    stride: 2
    weight_filler {
      type: "msra"
    }
  }
}
layer {
  name: "bn3a_branch2a"
  type: "BatchNorm"
  bottom: "res3a_branch2a"
  top: "res3a_branch2a"
  batch_norm_param {
    moving_average_fraction: 0.9
  }
}
layer {
  name: "scale3a_branch2a"
  type: "Scale"
  bottom: "res3a_branch2a"
  top: "res3a_branch2a"
  scale_param {
    bias_term: true
  }
}
layer {
  name: "res3a_branch2a_relu"
  type: "ReLU"
  bottom: "res3a_branch2a"
  top: "res3a_branch2a"
}
layer {
  name: "res3a_branch2b"
  type: "Convolution"
  bottom: "res3a_branch2a"
  top: "res3a_branch2b"
  convolution_param {
    num_output: 128
    bias_term: false
    pad: 1
    kernel_size: 3
    stride: 1
    weight_filler {
      type: "msra"
    }
  }
}
layer {
  name: "bn3a_branch2b"
  type: "BatchNorm"
  bottom: "res3a_branch2b"
  top: "res3a_branch2b"
  batch_norm_param {
    moving_average_fraction: 0.9
  }
}
layer {
  name: "scale3a_branch2b"
  type: "Scale"
  bottom: "res3a_branch2b"
  top: "res3a_branch2b"
  scale_param {
    bias_term: true
  }
}
layer {
  name: "res3a"
  type: "Eltwise"
  bottom: "res3a_branch1"
  bottom: "res3a_branch2b"
  top: "res3a"
  eltwise_param {
    operation: SUM
  }
}
layer {
  name: "res3a_relu"
  type: "ReLU"
  bottom: "res3a"
  top: "res3a"
}
layer {
  name: "res3b_branch2a"
  type: "Convolution"
  bottom: "res3a"
  top: "res3b_branch2a"
  convolution_param {
    num_output: 128
    bias_term: false
    pad: 1
    kernel_size: 3
    stride: 1
    weight_filler {
      type: "msra"
    }
  }
}
layer {
  name: "bn3b_branch2a"
  type: "BatchNorm"
  bottom: "res3b_branch2a"
  top: "res3b_branch2a"
  batch_norm_param {
    moving_average_fraction: 0.9
  }
}
layer {
  name: "scale3b_branch2a"
  type: "Scale"
  bottom: "res3b_branch2a"
  top: "res3b_branch2a"
  scale_param {
    bias_term: true
  }
}
layer {
  name: "res3b_branch2a_relu"
  type: "ReLU"
  bottom: "res3b_branch2a"
  top: "res3b_branch2a"
}
layer {
  name: "res3b_branch2b"
  type: "Convolution"
  bottom: "res3b_branch2a"
  top: "res3b_branch2b"
  convolution_param {
    num_output: 128
    bias_term: false
    pad: 1
    kernel_size: 3
    stride: 1
    weight_filler {
      type: "msra"
    }
  }
}
layer {
  name: "bn3b_branch2b"
  type: "BatchNorm"
  bottom: "res3b_branch2b"
  top: "res3b_branch2b"
  batch_norm_param {
    moving_average_fraction: 0.9
  }
}
layer {
  name: "scale3b_branch2b"
  type: "Scale"
  bottom: "res3b_branch2b"
  top: "res3b_branch2b"
  scale_param {
    bias_term: true
  }
}
layer {
  name: "res3b"
  type: "Eltwise"
  bottom: "res3a"
  bottom: "res3b_branch2b"
  top: "res3b"
  eltwise_param {
    operation: SUM
  }
}
layer {
  name: "res3b_relu"
  type: "ReLU"
  bottom: "res3b"
  top: "res3b"
}
layer {
  name: "res4a_branch1"
  type: "Convolution"
  bottom: "res3b"
  top: "res4a_branch1"
  convolution_param {
    num_output: 256
    bias_term: false
    pad: 0
    kernel_size: 1
    stride: 2
    weight_filler {
      type: "msra"
    }
  }
}
layer {
  name: "bn4a_branch1"
  type: "BatchNorm"
  bottom: "res4a_branch1"
  top: "res4a_branch1"
  batch_norm_param {
    moving_average_fraction: 0.9
  }
}
layer {
  name: "scale4a_branch1"
  type: "Scale"
  bottom: "res4a_branch1"
  top: "res4a_branch1"
  scale_param {
    bias_term: true
  }
}
layer {
  name: "res4a_branch2a"
  type: "Convolution"
  bottom: "res3b"
  top: "res4a_branch2a"
  convolution_param {
    num_output: 256
    bias_term: false
    pad: 1
    kernel_size: 3
    stride: 2
    weight_filler {
      type: "msra"
    }
  }
}
layer {
  name: "bn4a_branch2a"
  type: "BatchNorm"
  bottom: "res4a_branch2a"
  top: "res4a_branch2a"
  batch_norm_param {
    moving_average_fraction: 0.9
  }
}
layer {
  name: "scale4a_branch2a"
  type: "Scale"
  bottom: "res4a_branch2a"
  top: "res4a_branch2a"
  scale_param {
    bias_term: true
  }
}
layer {
  name: "res4a_branch2a_relu"
  type: "ReLU"
  bottom: "res4a_branch2a"
  top: "res4a_branch2a"
}
layer {
  name: "res4a_branch2b"
  type: "Convolution"
  bottom: "res4a_branch2a"
  top: "res4a_branch2b"
  convolution_param {
    num_output: 256
    bias_term: false
    pad: 1
    kernel_size: 3
    stride: 1
    weight_filler {
      type: "msra"
    }
  }
}
layer {
  name: "bn4a_branch2b"
  type: "BatchNorm"
  bottom: "res4a_branch2b"
  top: "res4a_branch2b"
  batch_norm_param {
    moving_average_fraction: 0.9
  }
}
layer {
  name: "scale4a_branch2b"
  type: "Scale"
  bottom: "res4a_branch2b"
  top: "res4a_branch2b"
  scale_param {
    bias_term: true
  }
}
layer {
  name: "res4a"
  type: "Eltwise"
  bottom: "res4a_branch1"
  bottom: "res4a_branch2b"
  top: "res4a"
  eltwise_param {
    operation: SUM
  }
}
layer {
  name: "res4a_relu"
  type: "ReLU"
  bottom: "res4a"
  top: "res4a"
}
layer {
  name: "res4b_branch2a"
  type: "Convolution"
  bottom: "res4a"
  top: "res4b_branch2a"
  convolution_param {
    num_output: 256
    bias_term: false
    pad: 1
    kernel_size: 3
    stride: 1
    weight_filler {
      type: "msra"
    }
  }
}
layer {
  name: "bn4b_branch2a"
  type: "BatchNorm"
  bottom: "res4b_branch2a"
  top: "res4b_branch2a"
  batch_norm_param {
    moving_average_fraction: 0.9
  }
}
layer {
  name: "scale4b_branch2a"
  type: "Scale"
  bottom: "res4b_branch2a"
  top: "res4b_branch2a"
  scale_param {
    bias_term: true
  }
}
layer {
  name: "res4b_branch2a_relu"
  type: "ReLU"
  bottom: "res4b_branch2a"
  top: "res4b_branch2a"
}
layer {
  name: "res4b_branch2b"
  type: "Convolution"
  bottom: "res4b_branch2a"
  top: "res4b_branch2b"
  convolution_param {
    num_output: 256
    bias_term: false
    pad: 1
    kernel_size: 3
    stride: 1
    weight_filler {
      type: "msra"
    }
  }
}
layer {
  name: "bn4b_branch2b"
  type: "BatchNorm"
  bottom: "res4b_branch2b"
  top: "res4b_branch2b"
  batch_norm_param {
    moving_average_fraction: 0.9
  }
}
layer {
  name: "scale4b_branch2b"
  type: "Scale"
  bottom: "res4b_branch2b"
  top: "res4b_branch2b"
  scale_param {
    bias_term: true
  }
}
layer {
  name: "res4b"
  type: "Eltwise"
  bottom: "res4a"
  bottom: "res4b_branch2b"
  top: "res4b"
  eltwise_param {
    operation: SUM
  }
}
layer {
  name: "res4b_relu"
  type: "ReLU"
  bottom: "res4b"
  top: "res4b"
}
layer {
  name: "res5a_branch1"
  type: "Convolution"
  bottom: "res4b"
  top: "res5a_branch1"
  convolution_param {
    num_output: 512
    bias_term: false
    pad: 0
    kernel_size: 1
    stride: 2
    weight_filler {
      type: "msra"
    }
  }
}
layer {
  name: "bn5a_branch1"
  type: "BatchNorm"
  bottom: "res5a_branch1"
  top: "res5a_branch1"
  batch_norm_param {
    moving_average_fraction: 0.9
  }
}
layer {
  name: "scale5a_branch1"
  type: "Scale"
  bottom: "res5a_branch1"
  top: "res5a_branch1"
  scale_param {
    bias_term: true
  }
}
layer {
  name: "res5a_branch2a"
  type: "Convolution"
  bottom: "res4b"
  top: "res5a_branch2a"
  convolution_param {
    num_output: 512
    bias_term: false
    pad: 1
    kernel_size: 3
    stride: 2
    weight_filler {
      type: "msra"
    }
  }
}
layer {
  name: "bn5a_branch2a"
  type: "BatchNorm"
  bottom: "res5a_branch2a"
  top: "res5a_branch2a"
  batch_norm_param {
    moving_average_fraction: 0.9
  }
}
layer {
  name: "scale5a_branch2a"
  type: "Scale"
  bottom: "res5a_branch2a"
  top: "res5a_branch2a"
  scale_param {
    bias_term: true
  }
}
layer {
  name: "res5a_branch2a_relu"
  type: "ReLU"
  bottom: "res5a_branch2a"
  top: "res5a_branch2a"
}
layer {
  name: "res5a_branch2b"
  type: "Convolution"
  bottom: "res5a_branch2a"
  top: "res5a_branch2b"
  convolution_param {
    num_output: 512
    bias_term: false
    pad: 1
    kernel_size: 3
    stride: 1
    weight_filler {
      type: "msra"
    }
  }
}
layer {
  name: "bn5a_branch2b"
  type: "BatchNorm"
  bottom: "res5a_branch2b"
  top: "res5a_branch2b"
  batch_norm_param {
    moving_average_fraction: 0.9
  }
}
layer {
  name: "scale5a_branch2b"
  type: "Scale"
  bottom: "res5a_branch2b"
  top: "res5a_branch2b"
  scale_param {
    bias_term: true
  }
}
layer {
  name: "res5a"
  type: "Eltwise"
  bottom: "res5a_branch1"
  bottom: "res5a_branch2b"
  top: "res5a"
  eltwise_param {
    operation: SUM
  }
}
layer {
  name: "res5a_relu"
  type: "ReLU"
  bottom: "res5a"
  top: "res5a"
}
layer {
  name: "res5b_branch2a"
  type: "Convolution"
  bottom: "res5a"
  top: "res5b_branch2a"
  convolution_param {
    num_output: 512
    bias_term: false
    pad: 1
    kernel_size: 3
    stride: 1
    weight_filler {
      type: "msra"
    }
  }
}
layer {
  name: "bn5b_branch2a"
  type: "BatchNorm"
  bottom: "res5b_branch2a"
  top: "res5b_branch2a"
  batch_norm_param {
    moving_average_fraction: 0.9
  }
}
layer {
  name: "scale5b_branch2a"
  type: "Scale"
  bottom: "res5b_branch2a"
  top: "res5b_branch2a"
  scale_param {
    bias_term: true
  }
}
layer {
  name: "res5b_branch2a_relu"
  type: "ReLU"
  bottom: "res5b_branch2a"
  top: "res5b_branch2a"
}
layer {
  name: "res5b_branch2b"
  type: "Convolution"
  bottom: "res5b_branch2a"
  top: "res5b_branch2b"
  convolution_param {
    num_output: 512
    bias_term: false
    pad: 1
    kernel_size: 3
    stride: 1
    weight_filler {
      type: "msra"
    }
  }
}
layer {
  name: "bn5b_branch2b"
  type: "BatchNorm"
  bottom: "res5b_branch2b"
  top: "res5b_branch2b"
  batch_norm_param {
    moving_average_fraction: 0.9
  }
}
layer {
  name: "scale5b_branch2b"
  type: "Scale"
  bottom: "res5b_branch2b"
  top: "res5b_branch2b"
  scale_param {
    bias_term: true
  }
}
layer {
  name: "res5b"
  type: "Eltwise"
  bottom: "res5a"
  bottom: "res5b_branch2b"
  top: "res5b"
  eltwise_param {
    operation: SUM
  }
}
layer {
  name: "res5b_relu"
  type: "ReLU"
  bottom: "res5b"
  top: "res5b"
}
layer {
  name: "pool5"
  type: "Pooling"
  bottom: "res5b"
  top: "pool5"
  pooling_param {
    pool: AVE
    kernel_size: 7
    stride: 1
  }
}
layer {
  name: "fc1000"
  type: "InnerProduct"
  bottom: "pool5"
  top: "fc1000"
  param {
    lr_mult: 1
    decay_mult: 1
  }
  param {
    lr_mult: 2
    decay_mult: 1
  }
  inner_product_param {
    num_output: 1000
    weight_filler {
      type: "xavier"
    }
    bias_filler {
      type: "constant"
      value: 0
    }
  }
}
layer {
  name: "prob"
  type: "Softmax"
  bottom: "fc1000"
  top: "prob"
}
I0525 07:13:46.062307  2968 layer_factory.hpp:77] Creating layer data
I0525 07:13:46.062507  2968 net.cpp:86] Creating Layer data
I0525 07:13:46.062613  2968 net.cpp:382] data -> data
I0525 07:13:46.062880  2968 net.cpp:124] Setting up data
I0525 07:13:46.062974  2968 net.cpp:131] Top shape: 1 3 224 224 (150528)
I0525 07:13:46.063069  2968 net.cpp:139] Memory required for data: 602112
I0525 07:13:46.063161  2968 layer_factory.hpp:77] Creating layer conv1
I0525 07:13:46.063290  2968 net.cpp:86] Creating Layer conv1
I0525 07:13:46.063372  2968 net.cpp:408] conv1 <- data
I0525 07:13:46.063472  2968 net.cpp:382] conv1 -> conv1
I0525 07:13:46.065336  2968 net.cpp:124] Setting up conv1
I0525 07:13:46.065462  2968 net.cpp:131] Top shape: 1 64 112 112 (802816)
I0525 07:13:46.065557  2968 net.cpp:139] Memory required for data: 3813376
I0525 07:13:46.065762  2968 layer_factory.hpp:77] Creating layer bn_conv1
I0525 07:13:46.065960  2968 net.cpp:86] Creating Layer bn_conv1
I0525 07:13:46.066035  2968 net.cpp:408] bn_conv1 <- conv1
I0525 07:13:46.066121  2968 net.cpp:369] bn_conv1 -> conv1 (in-place)
I0525 07:13:46.066417  2968 net.cpp:124] Setting up bn_conv1
I0525 07:13:46.066510  2968 net.cpp:131] Top shape: 1 64 112 112 (802816)
I0525 07:13:46.066601  2968 net.cpp:139] Memory required for data: 7024640
I0525 07:13:46.066752  2968 layer_factory.hpp:77] Creating layer scale_conv1
I0525 07:13:46.066848  2968 net.cpp:86] Creating Layer scale_conv1
I0525 07:13:46.066921  2968 net.cpp:408] scale_conv1 <- conv1
I0525 07:13:46.067009  2968 net.cpp:369] scale_conv1 -> conv1 (in-place)
I0525 07:13:46.067162  2968 layer_factory.hpp:77] Creating layer scale_conv1
I0525 07:13:46.067620  2968 net.cpp:124] Setting up scale_conv1
I0525 07:13:46.067734  2968 net.cpp:131] Top shape: 1 64 112 112 (802816)
I0525 07:13:46.067836  2968 net.cpp:139] Memory required for data: 10235904
I0525 07:13:46.067965  2968 layer_factory.hpp:77] Creating layer conv1_relu
I0525 07:13:46.068084  2968 net.cpp:86] Creating Layer conv1_relu
I0525 07:13:46.068163  2968 net.cpp:408] conv1_relu <- conv1
I0525 07:13:46.068307  2968 net.cpp:369] conv1_relu -> conv1 (in-place)
I0525 07:13:46.068470  2968 net.cpp:124] Setting up conv1_relu
I0525 07:13:46.068538  2968 net.cpp:131] Top shape: 1 64 112 112 (802816)
I0525 07:13:46.068624  2968 net.cpp:139] Memory required for data: 13447168
I0525 07:13:46.068688  2968 layer_factory.hpp:77] Creating layer pool1
I0525 07:13:46.068769  2968 net.cpp:86] Creating Layer pool1
I0525 07:13:46.068831  2968 net.cpp:408] pool1 <- conv1
I0525 07:13:46.068910  2968 net.cpp:382] pool1 -> pool1
I0525 07:13:46.069088  2968 net.cpp:124] Setting up pool1
I0525 07:13:46.069167  2968 net.cpp:131] Top shape: 1 64 56 56 (200704)
I0525 07:13:46.069252  2968 net.cpp:139] Memory required for data: 14249984
I0525 07:13:46.069314  2968 layer_factory.hpp:77] Creating layer pool1_pool1_0_split
I0525 07:13:46.069394  2968 net.cpp:86] Creating Layer pool1_pool1_0_split
I0525 07:13:46.069458  2968 net.cpp:408] pool1_pool1_0_split <- pool1
I0525 07:13:46.069536  2968 net.cpp:382] pool1_pool1_0_split -> pool1_pool1_0_split_0
I0525 07:13:46.069628  2968 net.cpp:382] pool1_pool1_0_split -> pool1_pool1_0_split_1
I0525 07:13:46.069730  2968 net.cpp:124] Setting up pool1_pool1_0_split
I0525 07:13:46.069793  2968 net.cpp:131] Top shape: 1 64 56 56 (200704)
I0525 07:13:46.069885  2968 net.cpp:131] Top shape: 1 64 56 56 (200704)
I0525 07:13:46.069963  2968 net.cpp:139] Memory required for data: 15855616
I0525 07:13:46.070025  2968 layer_factory.hpp:77] Creating layer res2a_branch1
I0525 07:13:46.070122  2968 net.cpp:86] Creating Layer res2a_branch1
I0525 07:13:46.070186  2968 net.cpp:408] res2a_branch1 <- pool1_pool1_0_split_0
I0525 07:13:46.070292  2968 net.cpp:382] res2a_branch1 -> res2a_branch1
I0525 07:13:46.070999  2968 net.cpp:124] Setting up res2a_branch1
I0525 07:13:46.071076  2968 net.cpp:131] Top shape: 1 64 56 56 (200704)
I0525 07:13:46.071161  2968 net.cpp:139] Memory required for data: 16658432
I0525 07:13:46.071241  2968 layer_factory.hpp:77] Creating layer bn2a_branch1
I0525 07:13:46.071341  2968 net.cpp:86] Creating Layer bn2a_branch1
I0525 07:13:46.071408  2968 net.cpp:408] bn2a_branch1 <- res2a_branch1
I0525 07:13:46.071743  2968 net.cpp:369] bn2a_branch1 -> res2a_branch1 (in-place)
I0525 07:13:46.071962  2968 net.cpp:124] Setting up bn2a_branch1
I0525 07:13:46.072039  2968 net.cpp:131] Top shape: 1 64 56 56 (200704)
I0525 07:13:46.072124  2968 net.cpp:139] Memory required for data: 17461248
I0525 07:13:46.072263  2968 layer_factory.hpp:77] Creating layer scale2a_branch1
I0525 07:13:46.072351  2968 net.cpp:86] Creating Layer scale2a_branch1
I0525 07:13:46.072417  2968 net.cpp:408] scale2a_branch1 <- res2a_branch1
I0525 07:13:46.072499  2968 net.cpp:369] scale2a_branch1 -> res2a_branch1 (in-place)
I0525 07:13:46.072615  2968 layer_factory.hpp:77] Creating layer scale2a_branch1
I0525 07:13:46.072863  2968 net.cpp:124] Setting up scale2a_branch1
I0525 07:13:46.073027  2968 net.cpp:131] Top shape: 1 64 56 56 (200704)
I0525 07:13:46.073124  2968 net.cpp:139] Memory required for data: 18264064
I0525 07:13:46.073220  2968 layer_factory.hpp:77] Creating layer res2a_branch2a
I0525 07:13:46.073318  2968 net.cpp:86] Creating Layer res2a_branch2a
I0525 07:13:46.073385  2968 net.cpp:408] res2a_branch2a <- pool1_pool1_0_split_1
I0525 07:13:46.073470  2968 net.cpp:382] res2a_branch2a -> res2a_branch2a
I0525 07:13:46.078145  2968 net.cpp:124] Setting up res2a_branch2a
I0525 07:13:46.078307  2968 net.cpp:131] Top shape: 1 64 56 56 (200704)
I0525 07:13:46.078416  2968 net.cpp:139] Memory required for data: 19066880
I0525 07:13:46.078505  2968 layer_factory.hpp:77] Creating layer bn2a_branch2a
I0525 07:13:46.078603  2968 net.cpp:86] Creating Layer bn2a_branch2a
I0525 07:13:46.078675  2968 net.cpp:408] bn2a_branch2a <- res2a_branch2a
I0525 07:13:46.078758  2968 net.cpp:369] bn2a_branch2a -> res2a_branch2a (in-place)
I0525 07:13:46.078943  2968 net.cpp:124] Setting up bn2a_branch2a
I0525 07:13:46.079015  2968 net.cpp:131] Top shape: 1 64 56 56 (200704)
I0525 07:13:46.079097  2968 net.cpp:139] Memory required for data: 19869696
I0525 07:13:46.079202  2968 layer_factory.hpp:77] Creating layer scale2a_branch2a
I0525 07:13:46.079294  2968 net.cpp:86] Creating Layer scale2a_branch2a
I0525 07:13:46.079362  2968 net.cpp:408] scale2a_branch2a <- res2a_branch2a
I0525 07:13:46.079442  2968 net.cpp:369] scale2a_branch2a -> res2a_branch2a (in-place)
I0525 07:13:46.079561  2968 layer_factory.hpp:77] Creating layer scale2a_branch2a
I0525 07:13:46.079777  2968 net.cpp:124] Setting up scale2a_branch2a
I0525 07:13:46.079890  2968 net.cpp:131] Top shape: 1 64 56 56 (200704)
I0525 07:13:46.079988  2968 net.cpp:139] Memory required for data: 20672512
I0525 07:13:46.080106  2968 layer_factory.hpp:77] Creating layer res2a_branch2a_relu
I0525 07:13:46.080189  2968 net.cpp:86] Creating Layer res2a_branch2a_relu
I0525 07:13:46.080257  2968 net.cpp:408] res2a_branch2a_relu <- res2a_branch2a
I0525 07:13:46.080336  2968 net.cpp:369] res2a_branch2a_relu -> res2a_branch2a (in-place)
I0525 07:13:46.080420  2968 net.cpp:124] Setting up res2a_branch2a_relu
I0525 07:13:46.080482  2968 net.cpp:131] Top shape: 1 64 56 56 (200704)
I0525 07:13:46.080559  2968 net.cpp:139] Memory required for data: 21475328
I0525 07:13:46.080621  2968 layer_factory.hpp:77] Creating layer res2a_branch2b
I0525 07:13:46.080713  2968 net.cpp:86] Creating Layer res2a_branch2b
I0525 07:13:46.080778  2968 net.cpp:408] res2a_branch2b <- res2a_branch2a
I0525 07:13:46.080862  2968 net.cpp:382] res2a_branch2b -> res2a_branch2b
I0525 07:13:46.085496  2968 net.cpp:124] Setting up res2a_branch2b
I0525 07:13:46.085605  2968 net.cpp:131] Top shape: 1 64 56 56 (200704)
I0525 07:13:46.085692  2968 net.cpp:139] Memory required for data: 22278144
I0525 07:13:46.085777  2968 layer_factory.hpp:77] Creating layer bn2a_branch2b
I0525 07:13:46.085863  2968 net.cpp:86] Creating Layer bn2a_branch2b
I0525 07:13:46.085929  2968 net.cpp:408] bn2a_branch2b <- res2a_branch2b
I0525 07:13:46.086020  2968 net.cpp:369] bn2a_branch2b -> res2a_branch2b (in-place)
I0525 07:13:46.086205  2968 net.cpp:124] Setting up bn2a_branch2b
I0525 07:13:46.086274  2968 net.cpp:131] Top shape: 1 64 56 56 (200704)
I0525 07:13:46.086355  2968 net.cpp:139] Memory required for data: 23080960
I0525 07:13:46.086462  2968 layer_factory.hpp:77] Creating layer scale2a_branch2b
I0525 07:13:46.086581  2968 net.cpp:86] Creating Layer scale2a_branch2b
I0525 07:13:46.086652  2968 net.cpp:408] scale2a_branch2b <- res2a_branch2b
I0525 07:13:46.086733  2968 net.cpp:369] scale2a_branch2b -> res2a_branch2b (in-place)
I0525 07:13:46.086851  2968 layer_factory.hpp:77] Creating layer scale2a_branch2b
I0525 07:13:46.087060  2968 net.cpp:124] Setting up scale2a_branch2b
I0525 07:13:46.087132  2968 net.cpp:131] Top shape: 1 64 56 56 (200704)
I0525 07:13:46.087213  2968 net.cpp:139] Memory required for data: 23883776
I0525 07:13:46.087306  2968 layer_factory.hpp:77] Creating layer res2a
I0525 07:13:46.087525  2968 net.cpp:86] Creating Layer res2a
I0525 07:13:46.087594  2968 net.cpp:408] res2a <- res2a_branch1
I0525 07:13:46.087666  2968 net.cpp:408] res2a <- res2a_branch2b
I0525 07:13:46.087746  2968 net.cpp:382] res2a -> res2a
I0525 07:13:46.087870  2968 net.cpp:124] Setting up res2a
I0525 07:13:46.087940  2968 net.cpp:131] Top shape: 1 64 56 56 (200704)
I0525 07:13:46.088021  2968 net.cpp:139] Memory required for data: 24686592
I0525 07:13:46.088084  2968 layer_factory.hpp:77] Creating layer res2a_relu
I0525 07:13:46.088160  2968 net.cpp:86] Creating Layer res2a_relu
I0525 07:13:46.088223  2968 net.cpp:408] res2a_relu <- res2a
I0525 07:13:46.088452  2968 net.cpp:369] res2a_relu -> res2a (in-place)
I0525 07:13:46.088557  2968 net.cpp:124] Setting up res2a_relu
I0525 07:13:46.088629  2968 net.cpp:131] Top shape: 1 64 56 56 (200704)
I0525 07:13:46.088713  2968 net.cpp:139] Memory required for data: 25489408
I0525 07:13:46.088778  2968 layer_factory.hpp:77] Creating layer res2a_res2a_relu_0_split
I0525 07:13:46.088865  2968 net.cpp:86] Creating Layer res2a_res2a_relu_0_split
I0525 07:13:46.088929  2968 net.cpp:408] res2a_res2a_relu_0_split <- res2a
I0525 07:13:46.089012  2968 net.cpp:382] res2a_res2a_relu_0_split -> res2a_res2a_relu_0_split_0
I0525 07:13:46.089114  2968 net.cpp:382] res2a_res2a_relu_0_split -> res2a_res2a_relu_0_split_1
I0525 07:13:46.089241  2968 net.cpp:124] Setting up res2a_res2a_relu_0_split
I0525 07:13:46.089315  2968 net.cpp:131] Top shape: 1 64 56 56 (200704)
I0525 07:13:46.089401  2968 net.cpp:131] Top shape: 1 64 56 56 (200704)
I0525 07:13:46.089481  2968 net.cpp:139] Memory required for data: 27095040
I0525 07:13:46.089546  2968 layer_factory.hpp:77] Creating layer res2b_branch2a
I0525 07:13:46.089651  2968 net.cpp:86] Creating Layer res2b_branch2a
I0525 07:13:46.089727  2968 net.cpp:408] res2b_branch2a <- res2a_res2a_relu_0_split_0
I0525 07:13:46.089825  2968 net.cpp:382] res2b_branch2a -> res2b_branch2a
I0525 07:13:46.094528  2968 net.cpp:124] Setting up res2b_branch2a
I0525 07:13:46.094686  2968 net.cpp:131] Top shape: 1 64 56 56 (200704)
I0525 07:13:46.094786  2968 net.cpp:139] Memory required for data: 27897856
I0525 07:13:46.094879  2968 layer_factory.hpp:77] Creating layer bn2b_branch2a
I0525 07:13:46.094974  2968 net.cpp:86] Creating Layer bn2b_branch2a
I0525 07:13:46.095058  2968 net.cpp:408] bn2b_branch2a <- res2b_branch2a
I0525 07:13:46.095144  2968 net.cpp:369] bn2b_branch2a -> res2b_branch2a (in-place)
I0525 07:13:46.095329  2968 net.cpp:124] Setting up bn2b_branch2a
I0525 07:13:46.095400  2968 net.cpp:131] Top shape: 1 64 56 56 (200704)
I0525 07:13:46.095481  2968 net.cpp:139] Memory required for data: 28700672
I0525 07:13:46.095589  2968 layer_factory.hpp:77] Creating layer scale2b_branch2a
I0525 07:13:46.095685  2968 net.cpp:86] Creating Layer scale2b_branch2a
I0525 07:13:46.095752  2968 net.cpp:408] scale2b_branch2a <- res2b_branch2a
I0525 07:13:46.095834  2968 net.cpp:369] scale2b_branch2a -> res2b_branch2a (in-place)
I0525 07:13:46.095955  2968 layer_factory.hpp:77] Creating layer scale2b_branch2a
I0525 07:13:46.096172  2968 net.cpp:124] Setting up scale2b_branch2a
I0525 07:13:46.096284  2968 net.cpp:131] Top shape: 1 64 56 56 (200704)
I0525 07:13:46.096376  2968 net.cpp:139] Memory required for data: 29503488
I0525 07:13:46.096473  2968 layer_factory.hpp:77] Creating layer res2b_branch2a_relu
I0525 07:13:46.096557  2968 net.cpp:86] Creating Layer res2b_branch2a_relu
I0525 07:13:46.096623  2968 net.cpp:408] res2b_branch2a_relu <- res2b_branch2a
I0525 07:13:46.096702  2968 net.cpp:369] res2b_branch2a_relu -> res2b_branch2a (in-place)
I0525 07:13:46.096787  2968 net.cpp:124] Setting up res2b_branch2a_relu
I0525 07:13:46.096850  2968 net.cpp:131] Top shape: 1 64 56 56 (200704)
I0525 07:13:46.096930  2968 net.cpp:139] Memory required for data: 30306304
I0525 07:13:46.096995  2968 layer_factory.hpp:77] Creating layer res2b_branch2b
I0525 07:13:46.097092  2968 net.cpp:86] Creating Layer res2b_branch2b
I0525 07:13:46.097215  2968 net.cpp:408] res2b_branch2b <- res2b_branch2a
I0525 07:13:46.097414  2968 net.cpp:382] res2b_branch2b -> res2b_branch2b
I0525 07:13:46.102188  2968 net.cpp:124] Setting up res2b_branch2b
I0525 07:13:46.102324  2968 net.cpp:131] Top shape: 1 64 56 56 (200704)
I0525 07:13:46.102416  2968 net.cpp:139] Memory required for data: 31109120
I0525 07:13:46.102514  2968 layer_factory.hpp:77] Creating layer bn2b_branch2b
I0525 07:13:46.102602  2968 net.cpp:86] Creating Layer bn2b_branch2b
I0525 07:13:46.102669  2968 net.cpp:408] bn2b_branch2b <- res2b_branch2b
I0525 07:13:46.102748  2968 net.cpp:369] bn2b_branch2b -> res2b_branch2b (in-place)
I0525 07:13:46.102942  2968 net.cpp:124] Setting up bn2b_branch2b
I0525 07:13:46.103011  2968 net.cpp:131] Top shape: 1 64 56 56 (200704)
I0525 07:13:46.103092  2968 net.cpp:139] Memory required for data: 31911936
I0525 07:13:46.103252  2968 layer_factory.hpp:77] Creating layer scale2b_branch2b
I0525 07:13:46.103343  2968 net.cpp:86] Creating Layer scale2b_branch2b
I0525 07:13:46.103410  2968 net.cpp:408] scale2b_branch2b <- res2b_branch2b
I0525 07:13:46.103490  2968 net.cpp:369] scale2b_branch2b -> res2b_branch2b (in-place)
I0525 07:13:46.103612  2968 layer_factory.hpp:77] Creating layer scale2b_branch2b
I0525 07:13:46.103817  2968 net.cpp:124] Setting up scale2b_branch2b
I0525 07:13:46.103889  2968 net.cpp:131] Top shape: 1 64 56 56 (200704)
I0525 07:13:46.103981  2968 net.cpp:139] Memory required for data: 32714752
I0525 07:13:46.104074  2968 layer_factory.hpp:77] Creating layer res2b
I0525 07:13:46.104156  2968 net.cpp:86] Creating Layer res2b
I0525 07:13:46.104221  2968 net.cpp:408] res2b <- res2a_res2a_relu_0_split_1
I0525 07:13:46.104295  2968 net.cpp:408] res2b <- res2b_branch2b
I0525 07:13:46.104374  2968 net.cpp:382] res2b -> res2b
I0525 07:13:46.104470  2968 net.cpp:124] Setting up res2b
I0525 07:13:46.104533  2968 net.cpp:131] Top shape: 1 64 56 56 (200704)
I0525 07:13:46.104614  2968 net.cpp:139] Memory required for data: 33517568
I0525 07:13:46.104676  2968 layer_factory.hpp:77] Creating layer res2b_relu
I0525 07:13:46.104749  2968 net.cpp:86] Creating Layer res2b_relu
I0525 07:13:46.104813  2968 net.cpp:408] res2b_relu <- res2b
I0525 07:13:46.104888  2968 net.cpp:369] res2b_relu -> res2b (in-place)
I0525 07:13:46.104967  2968 net.cpp:124] Setting up res2b_relu
I0525 07:13:46.105029  2968 net.cpp:131] Top shape: 1 64 56 56 (200704)
I0525 07:13:46.105108  2968 net.cpp:139] Memory required for data: 34320384
I0525 07:13:46.105170  2968 layer_factory.hpp:77] Creating layer res2b_res2b_relu_0_split
I0525 07:13:46.105247  2968 net.cpp:86] Creating Layer res2b_res2b_relu_0_split
I0525 07:13:46.105309  2968 net.cpp:408] res2b_res2b_relu_0_split <- res2b
I0525 07:13:46.105387  2968 net.cpp:382] res2b_res2b_relu_0_split -> res2b_res2b_relu_0_split_0
I0525 07:13:46.105479  2968 net.cpp:382] res2b_res2b_relu_0_split -> res2b_res2b_relu_0_split_1
I0525 07:13:46.105576  2968 net.cpp:124] Setting up res2b_res2b_relu_0_split
I0525 07:13:46.105638  2968 net.cpp:131] Top shape: 1 64 56 56 (200704)
I0525 07:13:46.105715  2968 net.cpp:131] Top shape: 1 64 56 56 (200704)
I0525 07:13:46.105792  2968 net.cpp:139] Memory required for data: 35926016
I0525 07:13:46.105854  2968 layer_factory.hpp:77] Creating layer res3a_branch1
I0525 07:13:46.105955  2968 net.cpp:86] Creating Layer res3a_branch1
I0525 07:13:46.106024  2968 net.cpp:408] res3a_branch1 <- res2b_res2b_relu_0_split_0
I0525 07:13:46.106108  2968 net.cpp:382] res3a_branch1 -> res3a_branch1
I0525 07:13:46.107314  2968 net.cpp:124] Setting up res3a_branch1
I0525 07:13:46.107398  2968 net.cpp:131] Top shape: 1 128 28 28 (100352)
I0525 07:13:46.107483  2968 net.cpp:139] Memory required for data: 36327424
I0525 07:13:46.107563  2968 layer_factory.hpp:77] Creating layer bn3a_branch1
I0525 07:13:46.107642  2968 net.cpp:86] Creating Layer bn3a_branch1
I0525 07:13:46.107707  2968 net.cpp:408] bn3a_branch1 <- res3a_branch1
I0525 07:13:46.107792  2968 net.cpp:369] bn3a_branch1 -> res3a_branch1 (in-place)
I0525 07:13:46.107960  2968 net.cpp:124] Setting up bn3a_branch1
I0525 07:13:46.108075  2968 net.cpp:131] Top shape: 1 128 28 28 (100352)
I0525 07:13:46.108335  2968 net.cpp:139] Memory required for data: 36728832
I0525 07:13:46.108492  2968 layer_factory.hpp:77] Creating layer scale3a_branch1
I0525 07:13:46.108652  2968 net.cpp:86] Creating Layer scale3a_branch1
I0525 07:13:46.108772  2968 net.cpp:408] scale3a_branch1 <- res3a_branch1
I0525 07:13:46.108870  2968 net.cpp:369] scale3a_branch1 -> res3a_branch1 (in-place)
I0525 07:13:46.109025  2968 layer_factory.hpp:77] Creating layer scale3a_branch1
I0525 07:13:46.109230  2968 net.cpp:124] Setting up scale3a_branch1
I0525 07:13:46.109308  2968 net.cpp:131] Top shape: 1 128 28 28 (100352)
I0525 07:13:46.109396  2968 net.cpp:139] Memory required for data: 37130240
I0525 07:13:46.109500  2968 layer_factory.hpp:77] Creating layer res3a_branch2a
I0525 07:13:46.109603  2968 net.cpp:86] Creating Layer res3a_branch2a
I0525 07:13:46.109675  2968 net.cpp:408] res3a_branch2a <- res2b_res2b_relu_0_split_1
I0525 07:13:46.109766  2968 net.cpp:382] res3a_branch2a -> res3a_branch2a
I0525 07:13:46.118993  2968 net.cpp:124] Setting up res3a_branch2a
I0525 07:13:46.119155  2968 net.cpp:131] Top shape: 1 128 28 28 (100352)
I0525 07:13:46.119253  2968 net.cpp:139] Memory required for data: 37531648
I0525 07:13:46.119346  2968 layer_factory.hpp:77] Creating layer bn3a_branch2a
I0525 07:13:46.119449  2968 net.cpp:86] Creating Layer bn3a_branch2a
I0525 07:13:46.119524  2968 net.cpp:408] bn3a_branch2a <- res3a_branch2a
I0525 07:13:46.119609  2968 net.cpp:369] bn3a_branch2a -> res3a_branch2a (in-place)
I0525 07:13:46.119776  2968 net.cpp:124] Setting up bn3a_branch2a
I0525 07:13:46.119844  2968 net.cpp:131] Top shape: 1 128 28 28 (100352)
I0525 07:13:46.119925  2968 net.cpp:139] Memory required for data: 37933056
I0525 07:13:46.120033  2968 layer_factory.hpp:77] Creating layer scale3a_branch2a
I0525 07:13:46.120117  2968 net.cpp:86] Creating Layer scale3a_branch2a
I0525 07:13:46.120183  2968 net.cpp:408] scale3a_branch2a <- res3a_branch2a
I0525 07:13:46.120262  2968 net.cpp:369] scale3a_branch2a -> res3a_branch2a (in-place)
I0525 07:13:46.120389  2968 layer_factory.hpp:77] Creating layer scale3a_branch2a
I0525 07:13:46.120553  2968 net.cpp:124] Setting up scale3a_branch2a
I0525 07:13:46.120625  2968 net.cpp:131] Top shape: 1 128 28 28 (100352)
I0525 07:13:46.120707  2968 net.cpp:139] Memory required for data: 38334464
I0525 07:13:46.120800  2968 layer_factory.hpp:77] Creating layer res3a_branch2a_relu
I0525 07:13:46.120879  2968 net.cpp:86] Creating Layer res3a_branch2a_relu
I0525 07:13:46.120946  2968 net.cpp:408] res3a_branch2a_relu <- res3a_branch2a
I0525 07:13:46.121032  2968 net.cpp:369] res3a_branch2a_relu -> res3a_branch2a (in-place)
I0525 07:13:46.121119  2968 net.cpp:124] Setting up res3a_branch2a_relu
I0525 07:13:46.121181  2968 net.cpp:131] Top shape: 1 128 28 28 (100352)
I0525 07:13:46.121260  2968 net.cpp:139] Memory required for data: 38735872
I0525 07:13:46.121323  2968 layer_factory.hpp:77] Creating layer res3a_branch2b
I0525 07:13:46.121417  2968 net.cpp:86] Creating Layer res3a_branch2b
I0525 07:13:46.121484  2968 net.cpp:408] res3a_branch2b <- res3a_branch2a
I0525 07:13:46.121577  2968 net.cpp:382] res3a_branch2b -> res3a_branch2b
I0525 07:13:46.139824  2968 net.cpp:124] Setting up res3a_branch2b
I0525 07:13:46.139997  2968 net.cpp:131] Top shape: 1 128 28 28 (100352)
I0525 07:13:46.140094  2968 net.cpp:139] Memory required for data: 39137280
I0525 07:13:46.140187  2968 layer_factory.hpp:77] Creating layer bn3a_branch2b
I0525 07:13:46.140281  2968 net.cpp:86] Creating Layer bn3a_branch2b
I0525 07:13:46.140353  2968 net.cpp:408] bn3a_branch2b <- res3a_branch2b
I0525 07:13:46.140450  2968 net.cpp:369] bn3a_branch2b -> res3a_branch2b (in-place)
I0525 07:13:46.140619  2968 net.cpp:124] Setting up bn3a_branch2b
I0525 07:13:46.140686  2968 net.cpp:131] Top shape: 1 128 28 28 (100352)
I0525 07:13:46.140767  2968 net.cpp:139] Memory required for data: 39538688
I0525 07:13:46.140874  2968 layer_factory.hpp:77] Creating layer scale3a_branch2b
I0525 07:13:46.141005  2968 net.cpp:86] Creating Layer scale3a_branch2b
I0525 07:13:46.141161  2968 net.cpp:408] scale3a_branch2b <- res3a_branch2b
I0525 07:13:46.141247  2968 net.cpp:369] scale3a_branch2b -> res3a_branch2b (in-place)
I0525 07:13:46.141383  2968 layer_factory.hpp:77] Creating layer scale3a_branch2b
I0525 07:13:46.141558  2968 net.cpp:124] Setting up scale3a_branch2b
I0525 07:13:46.141629  2968 net.cpp:131] Top shape: 1 128 28 28 (100352)
I0525 07:13:46.141711  2968 net.cpp:139] Memory required for data: 39940096
I0525 07:13:46.141804  2968 layer_factory.hpp:77] Creating layer res3a
I0525 07:13:46.141885  2968 net.cpp:86] Creating Layer res3a
I0525 07:13:46.141949  2968 net.cpp:408] res3a <- res3a_branch1
I0525 07:13:46.142019  2968 net.cpp:408] res3a <- res3a_branch2b
I0525 07:13:46.142107  2968 net.cpp:382] res3a -> res3a
I0525 07:13:46.142202  2968 net.cpp:124] Setting up res3a
I0525 07:13:46.142266  2968 net.cpp:131] Top shape: 1 128 28 28 (100352)
I0525 07:13:46.142345  2968 net.cpp:139] Memory required for data: 40341504
I0525 07:13:46.142407  2968 layer_factory.hpp:77] Creating layer res3a_relu
I0525 07:13:46.142482  2968 net.cpp:86] Creating Layer res3a_relu
I0525 07:13:46.142545  2968 net.cpp:408] res3a_relu <- res3a
I0525 07:13:46.142621  2968 net.cpp:369] res3a_relu -> res3a (in-place)
I0525 07:13:46.142700  2968 net.cpp:124] Setting up res3a_relu
I0525 07:13:46.142761  2968 net.cpp:131] Top shape: 1 128 28 28 (100352)
I0525 07:13:46.142839  2968 net.cpp:139] Memory required for data: 40742912
I0525 07:13:46.142901  2968 layer_factory.hpp:77] Creating layer res3a_res3a_relu_0_split
I0525 07:13:46.142978  2968 net.cpp:86] Creating Layer res3a_res3a_relu_0_split
I0525 07:13:46.143041  2968 net.cpp:408] res3a_res3a_relu_0_split <- res3a
I0525 07:13:46.143127  2968 net.cpp:382] res3a_res3a_relu_0_split -> res3a_res3a_relu_0_split_0
I0525 07:13:46.143222  2968 net.cpp:382] res3a_res3a_relu_0_split -> res3a_res3a_relu_0_split_1
I0525 07:13:46.143321  2968 net.cpp:124] Setting up res3a_res3a_relu_0_split
I0525 07:13:46.143383  2968 net.cpp:131] Top shape: 1 128 28 28 (100352)
I0525 07:13:46.143461  2968 net.cpp:131] Top shape: 1 128 28 28 (100352)
I0525 07:13:46.143537  2968 net.cpp:139] Memory required for data: 41545728
I0525 07:13:46.143599  2968 layer_factory.hpp:77] Creating layer res3b_branch2a
I0525 07:13:46.143692  2968 net.cpp:86] Creating Layer res3b_branch2a
I0525 07:13:46.143759  2968 net.cpp:408] res3b_branch2a <- res3a_res3a_relu_0_split_0
I0525 07:13:46.143843  2968 net.cpp:382] res3b_branch2a -> res3b_branch2a
I0525 07:13:46.161963  2968 net.cpp:124] Setting up res3b_branch2a
I0525 07:13:46.162137  2968 net.cpp:131] Top shape: 1 128 28 28 (100352)
I0525 07:13:46.162250  2968 net.cpp:139] Memory required for data: 41947136
I0525 07:13:46.162343  2968 layer_factory.hpp:77] Creating layer bn3b_branch2a
I0525 07:13:46.162436  2968 net.cpp:86] Creating Layer bn3b_branch2a
I0525 07:13:46.162508  2968 net.cpp:408] bn3b_branch2a <- res3b_branch2a
I0525 07:13:46.162592  2968 net.cpp:369] bn3b_branch2a -> res3b_branch2a (in-place)
I0525 07:13:46.162760  2968 net.cpp:124] Setting up bn3b_branch2a
I0525 07:13:46.162829  2968 net.cpp:131] Top shape: 1 128 28 28 (100352)
I0525 07:13:46.162910  2968 net.cpp:139] Memory required for data: 42348544
I0525 07:13:46.163017  2968 layer_factory.hpp:77] Creating layer scale3b_branch2a
I0525 07:13:46.163100  2968 net.cpp:86] Creating Layer scale3b_branch2a
I0525 07:13:46.163167  2968 net.cpp:408] scale3b_branch2a <- res3b_branch2a
I0525 07:13:46.163254  2968 net.cpp:369] scale3b_branch2a -> res3b_branch2a (in-place)
I0525 07:13:46.163381  2968 layer_factory.hpp:77] Creating layer scale3b_branch2a
I0525 07:13:46.163553  2968 net.cpp:124] Setting up scale3b_branch2a
I0525 07:13:46.163625  2968 net.cpp:131] Top shape: 1 128 28 28 (100352)
I0525 07:13:46.163707  2968 net.cpp:139] Memory required for data: 42749952
I0525 07:13:46.163801  2968 layer_factory.hpp:77] Creating layer res3b_branch2a_relu
I0525 07:13:46.163880  2968 net.cpp:86] Creating Layer res3b_branch2a_relu
I0525 07:13:46.163993  2968 net.cpp:408] res3b_branch2a_relu <- res3b_branch2a
I0525 07:13:46.164162  2968 net.cpp:369] res3b_branch2a_relu -> res3b_branch2a (in-place)
I0525 07:13:46.164252  2968 net.cpp:124] Setting up res3b_branch2a_relu
I0525 07:13:46.164314  2968 net.cpp:131] Top shape: 1 128 28 28 (100352)
I0525 07:13:46.164393  2968 net.cpp:139] Memory required for data: 43151360
I0525 07:13:46.164455  2968 layer_factory.hpp:77] Creating layer res3b_branch2b
I0525 07:13:46.164547  2968 net.cpp:86] Creating Layer res3b_branch2b
I0525 07:13:46.164613  2968 net.cpp:408] res3b_branch2b <- res3b_branch2a
I0525 07:13:46.164716  2968 net.cpp:382] res3b_branch2b -> res3b_branch2b
I0525 07:13:46.183094  2968 net.cpp:124] Setting up res3b_branch2b
I0525 07:13:46.183271  2968 net.cpp:131] Top shape: 1 128 28 28 (100352)
I0525 07:13:46.183368  2968 net.cpp:139] Memory required for data: 43552768
I0525 07:13:46.183463  2968 layer_factory.hpp:77] Creating layer bn3b_branch2b
I0525 07:13:46.183557  2968 net.cpp:86] Creating Layer bn3b_branch2b
I0525 07:13:46.183630  2968 net.cpp:408] bn3b_branch2b <- res3b_branch2b
I0525 07:13:46.183714  2968 net.cpp:369] bn3b_branch2b -> res3b_branch2b (in-place)
I0525 07:13:46.183885  2968 net.cpp:124] Setting up bn3b_branch2b
I0525 07:13:46.183956  2968 net.cpp:131] Top shape: 1 128 28 28 (100352)
I0525 07:13:46.184038  2968 net.cpp:139] Memory required for data: 43954176
I0525 07:13:46.184146  2968 layer_factory.hpp:77] Creating layer scale3b_branch2b
I0525 07:13:46.184231  2968 net.cpp:86] Creating Layer scale3b_branch2b
I0525 07:13:46.184296  2968 net.cpp:408] scale3b_branch2b <- res3b_branch2b
I0525 07:13:46.184376  2968 net.cpp:369] scale3b_branch2b -> res3b_branch2b (in-place)
I0525 07:13:46.184500  2968 layer_factory.hpp:77] Creating layer scale3b_branch2b
I0525 07:13:46.184667  2968 net.cpp:124] Setting up scale3b_branch2b
I0525 07:13:46.184739  2968 net.cpp:131] Top shape: 1 128 28 28 (100352)
I0525 07:13:46.184914  2968 net.cpp:139] Memory required for data: 44355584
I0525 07:13:46.185086  2968 layer_factory.hpp:77] Creating layer res3b
I0525 07:13:46.185179  2968 net.cpp:86] Creating Layer res3b
I0525 07:13:46.185250  2968 net.cpp:408] res3b <- res3a_res3a_relu_0_split_1
I0525 07:13:46.185322  2968 net.cpp:408] res3b <- res3b_branch2b
I0525 07:13:46.185405  2968 net.cpp:382] res3b -> res3b
I0525 07:13:46.185503  2968 net.cpp:124] Setting up res3b
I0525 07:13:46.185567  2968 net.cpp:131] Top shape: 1 128 28 28 (100352)
I0525 07:13:46.185649  2968 net.cpp:139] Memory required for data: 44756992
I0525 07:13:46.185712  2968 layer_factory.hpp:77] Creating layer res3b_relu
I0525 07:13:46.185786  2968 net.cpp:86] Creating Layer res3b_relu
I0525 07:13:46.185850  2968 net.cpp:408] res3b_relu <- res3b
I0525 07:13:46.185925  2968 net.cpp:369] res3b_relu -> res3b (in-place)
I0525 07:13:46.186007  2968 net.cpp:124] Setting up res3b_relu
I0525 07:13:46.186067  2968 net.cpp:131] Top shape: 1 128 28 28 (100352)
I0525 07:13:46.186146  2968 net.cpp:139] Memory required for data: 45158400
I0525 07:13:46.186206  2968 layer_factory.hpp:77] Creating layer res3b_res3b_relu_0_split
I0525 07:13:46.186282  2968 net.cpp:86] Creating Layer res3b_res3b_relu_0_split
I0525 07:13:46.186345  2968 net.cpp:408] res3b_res3b_relu_0_split <- res3b
I0525 07:13:46.186424  2968 net.cpp:382] res3b_res3b_relu_0_split -> res3b_res3b_relu_0_split_0
I0525 07:13:46.186517  2968 net.cpp:382] res3b_res3b_relu_0_split -> res3b_res3b_relu_0_split_1
I0525 07:13:46.186616  2968 net.cpp:124] Setting up res3b_res3b_relu_0_split
I0525 07:13:46.186677  2968 net.cpp:131] Top shape: 1 128 28 28 (100352)
I0525 07:13:46.186758  2968 net.cpp:131] Top shape: 1 128 28 28 (100352)
I0525 07:13:46.186834  2968 net.cpp:139] Memory required for data: 45961216
I0525 07:13:46.186895  2968 layer_factory.hpp:77] Creating layer res4a_branch1
I0525 07:13:46.187000  2968 net.cpp:86] Creating Layer res4a_branch1
I0525 07:13:46.187069  2968 net.cpp:408] res4a_branch1 <- res3b_res3b_relu_0_split_0
I0525 07:13:46.187158  2968 net.cpp:382] res4a_branch1 -> res4a_branch1
I0525 07:13:46.191555  2968 net.cpp:124] Setting up res4a_branch1
I0525 07:13:46.191735  2968 net.cpp:131] Top shape: 1 256 14 14 (50176)
I0525 07:13:46.191843  2968 net.cpp:139] Memory required for data: 46161920
I0525 07:13:46.191937  2968 layer_factory.hpp:77] Creating layer bn4a_branch1
I0525 07:13:46.192031  2968 net.cpp:86] Creating Layer bn4a_branch1
I0525 07:13:46.192103  2968 net.cpp:408] bn4a_branch1 <- res4a_branch1
I0525 07:13:46.192190  2968 net.cpp:369] bn4a_branch1 -> res4a_branch1 (in-place)
I0525 07:13:46.192370  2968 net.cpp:124] Setting up bn4a_branch1
I0525 07:13:46.192451  2968 net.cpp:131] Top shape: 1 256 14 14 (50176)
I0525 07:13:46.192535  2968 net.cpp:139] Memory required for data: 46362624
I0525 07:13:46.192647  2968 layer_factory.hpp:77] Creating layer scale4a_branch1
I0525 07:13:46.192735  2968 net.cpp:86] Creating Layer scale4a_branch1
I0525 07:13:46.192802  2968 net.cpp:408] scale4a_branch1 <- res4a_branch1
I0525 07:13:46.192885  2968 net.cpp:369] scale4a_branch1 -> res4a_branch1 (in-place)
I0525 07:13:46.193012  2968 layer_factory.hpp:77] Creating layer scale4a_branch1
I0525 07:13:46.193194  2968 net.cpp:124] Setting up scale4a_branch1
I0525 07:13:46.193274  2968 net.cpp:131] Top shape: 1 256 14 14 (50176)
I0525 07:13:46.193364  2968 net.cpp:139] Memory required for data: 46563328
I0525 07:13:46.193466  2968 layer_factory.hpp:77] Creating layer res4a_branch2a
I0525 07:13:46.193580  2968 net.cpp:86] Creating Layer res4a_branch2a
I0525 07:13:46.193658  2968 net.cpp:408] res4a_branch2a <- res3b_res3b_relu_0_split_1
I0525 07:13:46.193754  2968 net.cpp:382] res4a_branch2a -> res4a_branch2a
I0525 07:13:46.229642  2968 net.cpp:124] Setting up res4a_branch2a
I0525 07:13:46.229835  2968 net.cpp:131] Top shape: 1 256 14 14 (50176)
I0525 07:13:46.229943  2968 net.cpp:139] Memory required for data: 46764032
I0525 07:13:46.230048  2968 layer_factory.hpp:77] Creating layer bn4a_branch2a
I0525 07:13:46.230151  2968 net.cpp:86] Creating Layer bn4a_branch2a
I0525 07:13:46.230228  2968 net.cpp:408] bn4a_branch2a <- res4a_branch2a
I0525 07:13:46.230317  2968 net.cpp:369] bn4a_branch2a -> res4a_branch2a (in-place)
I0525 07:13:46.230511  2968 net.cpp:124] Setting up bn4a_branch2a
I0525 07:13:46.230602  2968 net.cpp:131] Top shape: 1 256 14 14 (50176)
I0525 07:13:46.230702  2968 net.cpp:139] Memory required for data: 46964736
I0525 07:13:46.230821  2968 layer_factory.hpp:77] Creating layer scale4a_branch2a
I0525 07:13:46.230919  2968 net.cpp:86] Creating Layer scale4a_branch2a
I0525 07:13:46.231004  2968 net.cpp:408] scale4a_branch2a <- res4a_branch2a
I0525 07:13:46.231098  2968 net.cpp:369] scale4a_branch2a -> res4a_branch2a (in-place)
I0525 07:13:46.231243  2968 layer_factory.hpp:77] Creating layer scale4a_branch2a
I0525 07:13:46.231444  2968 net.cpp:124] Setting up scale4a_branch2a
I0525 07:13:46.231525  2968 net.cpp:131] Top shape: 1 256 14 14 (50176)
I0525 07:13:46.231616  2968 net.cpp:139] Memory required for data: 47165440
I0525 07:13:46.231716  2968 layer_factory.hpp:77] Creating layer res4a_branch2a_relu
I0525 07:13:46.231802  2968 net.cpp:86] Creating Layer res4a_branch2a_relu
I0525 07:13:46.231870  2968 net.cpp:408] res4a_branch2a_relu <- res4a_branch2a
I0525 07:13:46.231966  2968 net.cpp:369] res4a_branch2a_relu -> res4a_branch2a (in-place)
I0525 07:13:46.232060  2968 net.cpp:124] Setting up res4a_branch2a_relu
I0525 07:13:46.232126  2968 net.cpp:131] Top shape: 1 256 14 14 (50176)
I0525 07:13:46.232213  2968 net.cpp:139] Memory required for data: 47366144
I0525 07:13:46.232276  2968 layer_factory.hpp:77] Creating layer res4a_branch2b
I0525 07:13:46.232375  2968 net.cpp:86] Creating Layer res4a_branch2b
I0525 07:13:46.232447  2968 net.cpp:408] res4a_branch2b <- res4a_branch2a
I0525 07:13:46.232537  2968 net.cpp:382] res4a_branch2b -> res4a_branch2b
I0525 07:13:46.304591  2968 net.cpp:124] Setting up res4a_branch2b
I0525 07:13:46.304800  2968 net.cpp:131] Top shape: 1 256 14 14 (50176)
I0525 07:13:46.304913  2968 net.cpp:139] Memory required for data: 47566848
I0525 07:13:46.305073  2968 layer_factory.hpp:77] Creating layer bn4a_branch2b
I0525 07:13:46.305318  2968 net.cpp:86] Creating Layer bn4a_branch2b
I0525 07:13:46.305404  2968 net.cpp:408] bn4a_branch2b <- res4a_branch2b
I0525 07:13:46.305500  2968 net.cpp:369] bn4a_branch2b -> res4a_branch2b (in-place)
I0525 07:13:46.305681  2968 net.cpp:124] Setting up bn4a_branch2b
I0525 07:13:46.305757  2968 net.cpp:131] Top shape: 1 256 14 14 (50176)
I0525 07:13:46.305845  2968 net.cpp:139] Memory required for data: 47767552
I0525 07:13:46.305960  2968 layer_factory.hpp:77] Creating layer scale4a_branch2b
I0525 07:13:46.306052  2968 net.cpp:86] Creating Layer scale4a_branch2b
I0525 07:13:46.306125  2968 net.cpp:408] scale4a_branch2b <- res4a_branch2b
I0525 07:13:46.306212  2968 net.cpp:369] scale4a_branch2b -> res4a_branch2b (in-place)
I0525 07:13:46.306356  2968 layer_factory.hpp:77] Creating layer scale4a_branch2b
I0525 07:13:46.306531  2968 net.cpp:124] Setting up scale4a_branch2b
I0525 07:13:46.306607  2968 net.cpp:131] Top shape: 1 256 14 14 (50176)
I0525 07:13:46.306692  2968 net.cpp:139] Memory required for data: 47968256
I0525 07:13:46.306788  2968 layer_factory.hpp:77] Creating layer res4a
I0525 07:13:46.306875  2968 net.cpp:86] Creating Layer res4a
I0525 07:13:46.306943  2968 net.cpp:408] res4a <- res4a_branch1
I0525 07:13:46.307018  2968 net.cpp:408] res4a <- res4a_branch2b
I0525 07:13:46.307101  2968 net.cpp:382] res4a -> res4a
I0525 07:13:46.307221  2968 net.cpp:124] Setting up res4a
I0525 07:13:46.307293  2968 net.cpp:131] Top shape: 1 256 14 14 (50176)
I0525 07:13:46.307377  2968 net.cpp:139] Memory required for data: 48168960
I0525 07:13:46.307440  2968 layer_factory.hpp:77] Creating layer res4a_relu
I0525 07:13:46.307590  2968 net.cpp:86] Creating Layer res4a_relu
I0525 07:13:46.307668  2968 net.cpp:408] res4a_relu <- res4a
I0525 07:13:46.307751  2968 net.cpp:369] res4a_relu -> res4a (in-place)
I0525 07:13:46.307843  2968 net.cpp:124] Setting up res4a_relu
I0525 07:13:46.307909  2968 net.cpp:131] Top shape: 1 256 14 14 (50176)
I0525 07:13:46.307991  2968 net.cpp:139] Memory required for data: 48369664
I0525 07:13:46.308058  2968 layer_factory.hpp:77] Creating layer res4a_res4a_relu_0_split
I0525 07:13:46.308140  2968 net.cpp:86] Creating Layer res4a_res4a_relu_0_split
I0525 07:13:46.308212  2968 net.cpp:408] res4a_res4a_relu_0_split <- res4a
I0525 07:13:46.308372  2968 net.cpp:382] res4a_res4a_relu_0_split -> res4a_res4a_relu_0_split_0
I0525 07:13:46.308478  2968 net.cpp:382] res4a_res4a_relu_0_split -> res4a_res4a_relu_0_split_1
I0525 07:13:46.308631  2968 net.cpp:124] Setting up res4a_res4a_relu_0_split
I0525 07:13:46.308706  2968 net.cpp:131] Top shape: 1 256 14 14 (50176)
I0525 07:13:46.308796  2968 net.cpp:131] Top shape: 1 256 14 14 (50176)
I0525 07:13:46.308879  2968 net.cpp:139] Memory required for data: 48771072
I0525 07:13:46.308945  2968 layer_factory.hpp:77] Creating layer res4b_branch2a
I0525 07:13:46.309051  2968 net.cpp:86] Creating Layer res4b_branch2a
I0525 07:13:46.309121  2968 net.cpp:408] res4b_branch2a <- res4a_res4a_relu_0_split_0
I0525 07:13:46.309212  2968 net.cpp:382] res4b_branch2a -> res4b_branch2a
I0525 07:13:46.381170  2968 net.cpp:124] Setting up res4b_branch2a
I0525 07:13:46.381351  2968 net.cpp:131] Top shape: 1 256 14 14 (50176)
I0525 07:13:46.381451  2968 net.cpp:139] Memory required for data: 48971776
I0525 07:13:46.381548  2968 layer_factory.hpp:77] Creating layer bn4b_branch2a
I0525 07:13:46.381649  2968 net.cpp:86] Creating Layer bn4b_branch2a
I0525 07:13:46.381724  2968 net.cpp:408] bn4b_branch2a <- res4b_branch2a
I0525 07:13:46.381812  2968 net.cpp:369] bn4b_branch2a -> res4b_branch2a (in-place)
I0525 07:13:46.381999  2968 net.cpp:124] Setting up bn4b_branch2a
I0525 07:13:46.382072  2968 net.cpp:131] Top shape: 1 256 14 14 (50176)
I0525 07:13:46.382155  2968 net.cpp:139] Memory required for data: 49172480
I0525 07:13:46.382270  2968 layer_factory.hpp:77] Creating layer scale4b_branch2a
I0525 07:13:46.382359  2968 net.cpp:86] Creating Layer scale4b_branch2a
I0525 07:13:46.382426  2968 net.cpp:408] scale4b_branch2a <- res4b_branch2a
I0525 07:13:46.382647  2968 net.cpp:369] scale4b_branch2a -> res4b_branch2a (in-place)
I0525 07:13:46.382787  2968 layer_factory.hpp:77] Creating layer scale4b_branch2a
I0525 07:13:46.382966  2968 net.cpp:124] Setting up scale4b_branch2a
I0525 07:13:46.383038  2968 net.cpp:131] Top shape: 1 256 14 14 (50176)
I0525 07:13:46.383124  2968 net.cpp:139] Memory required for data: 49373184
I0525 07:13:46.383220  2968 layer_factory.hpp:77] Creating layer res4b_branch2a_relu
I0525 07:13:46.383303  2968 net.cpp:86] Creating Layer res4b_branch2a_relu
I0525 07:13:46.383373  2968 net.cpp:408] res4b_branch2a_relu <- res4b_branch2a
I0525 07:13:46.383461  2968 net.cpp:369] res4b_branch2a_relu -> res4b_branch2a (in-place)
I0525 07:13:46.383553  2968 net.cpp:124] Setting up res4b_branch2a_relu
I0525 07:13:46.383617  2968 net.cpp:131] Top shape: 1 256 14 14 (50176)
I0525 07:13:46.383698  2968 net.cpp:139] Memory required for data: 49573888
I0525 07:13:46.383761  2968 layer_factory.hpp:77] Creating layer res4b_branch2b
I0525 07:13:46.383857  2968 net.cpp:86] Creating Layer res4b_branch2b
I0525 07:13:46.383925  2968 net.cpp:408] res4b_branch2b <- res4b_branch2a
I0525 07:13:46.384013  2968 net.cpp:382] res4b_branch2b -> res4b_branch2b
I0525 07:13:46.455621  2968 net.cpp:124] Setting up res4b_branch2b
I0525 07:13:46.455812  2968 net.cpp:131] Top shape: 1 256 14 14 (50176)
I0525 07:13:46.455916  2968 net.cpp:139] Memory required for data: 49774592
I0525 07:13:46.456017  2968 layer_factory.hpp:77] Creating layer bn4b_branch2b
I0525 07:13:46.456132  2968 net.cpp:86] Creating Layer bn4b_branch2b
I0525 07:13:46.456209  2968 net.cpp:408] bn4b_branch2b <- res4b_branch2b
I0525 07:13:46.456301  2968 net.cpp:369] bn4b_branch2b -> res4b_branch2b (in-place)
I0525 07:13:46.456478  2968 net.cpp:124] Setting up bn4b_branch2b
I0525 07:13:46.456552  2968 net.cpp:131] Top shape: 1 256 14 14 (50176)
I0525 07:13:46.456635  2968 net.cpp:139] Memory required for data: 49975296
I0525 07:13:46.456758  2968 layer_factory.hpp:77] Creating layer scale4b_branch2b
I0525 07:13:46.456853  2968 net.cpp:86] Creating Layer scale4b_branch2b
I0525 07:13:46.456926  2968 net.cpp:408] scale4b_branch2b <- res4b_branch2b
I0525 07:13:46.457010  2968 net.cpp:369] scale4b_branch2b -> res4b_branch2b (in-place)
I0525 07:13:46.457154  2968 layer_factory.hpp:77] Creating layer scale4b_branch2b
I0525 07:13:46.457341  2968 net.cpp:124] Setting up scale4b_branch2b
I0525 07:13:46.457419  2968 net.cpp:131] Top shape: 1 256 14 14 (50176)
I0525 07:13:46.457506  2968 net.cpp:139] Memory required for data: 50176000
I0525 07:13:46.457605  2968 layer_factory.hpp:77] Creating layer res4b
I0525 07:13:46.457691  2968 net.cpp:86] Creating Layer res4b
I0525 07:13:46.457762  2968 net.cpp:408] res4b <- res4a_res4a_relu_0_split_1
I0525 07:13:46.457836  2968 net.cpp:408] res4b <- res4b_branch2b
I0525 07:13:46.457931  2968 net.cpp:382] res4b -> res4b
I0525 07:13:46.458032  2968 net.cpp:124] Setting up res4b
I0525 07:13:46.458099  2968 net.cpp:131] Top shape: 1 256 14 14 (50176)
I0525 07:13:46.458182  2968 net.cpp:139] Memory required for data: 50376704
I0525 07:13:46.458302  2968 layer_factory.hpp:77] Creating layer res4b_relu
I0525 07:13:46.458405  2968 net.cpp:86] Creating Layer res4b_relu
I0525 07:13:46.458474  2968 net.cpp:408] res4b_relu <- res4b
I0525 07:13:46.458555  2968 net.cpp:369] res4b_relu -> res4b (in-place)
I0525 07:13:46.458642  2968 net.cpp:124] Setting up res4b_relu
I0525 07:13:46.458707  2968 net.cpp:131] Top shape: 1 256 14 14 (50176)
I0525 07:13:46.458791  2968 net.cpp:139] Memory required for data: 50577408
I0525 07:13:46.458856  2968 layer_factory.hpp:77] Creating layer res4b_res4b_relu_0_split
I0525 07:13:46.458936  2968 net.cpp:86] Creating Layer res4b_res4b_relu_0_split
I0525 07:13:46.459003  2968 net.cpp:408] res4b_res4b_relu_0_split <- res4b
I0525 07:13:46.459087  2968 net.cpp:382] res4b_res4b_relu_0_split -> res4b_res4b_relu_0_split_0
I0525 07:13:46.459183  2968 net.cpp:382] res4b_res4b_relu_0_split -> res4b_res4b_relu_0_split_1
I0525 07:13:46.459367  2968 net.cpp:124] Setting up res4b_res4b_relu_0_split
I0525 07:13:46.459564  2968 net.cpp:131] Top shape: 1 256 14 14 (50176)
I0525 07:13:46.459662  2968 net.cpp:131] Top shape: 1 256 14 14 (50176)
I0525 07:13:46.459745  2968 net.cpp:139] Memory required for data: 50978816
I0525 07:13:46.459811  2968 layer_factory.hpp:77] Creating layer res5a_branch1
I0525 07:13:46.459918  2968 net.cpp:86] Creating Layer res5a_branch1
I0525 07:13:46.459990  2968 net.cpp:408] res5a_branch1 <- res4b_res4b_relu_0_split_0
I0525 07:13:46.460083  2968 net.cpp:382] res5a_branch1 -> res5a_branch1
I0525 07:13:46.476485  2968 net.cpp:124] Setting up res5a_branch1
I0525 07:13:46.476667  2968 net.cpp:131] Top shape: 1 512 7 7 (25088)
I0525 07:13:46.476773  2968 net.cpp:139] Memory required for data: 51079168
I0525 07:13:46.476873  2968 layer_factory.hpp:77] Creating layer bn5a_branch1
I0525 07:13:46.476970  2968 net.cpp:86] Creating Layer bn5a_branch1
I0525 07:13:46.477044  2968 net.cpp:408] bn5a_branch1 <- res5a_branch1
I0525 07:13:46.477147  2968 net.cpp:369] bn5a_branch1 -> res5a_branch1 (in-place)
I0525 07:13:46.477325  2968 net.cpp:124] Setting up bn5a_branch1
I0525 07:13:46.477398  2968 net.cpp:131] Top shape: 1 512 7 7 (25088)
I0525 07:13:46.477483  2968 net.cpp:139] Memory required for data: 51179520
I0525 07:13:46.477594  2968 layer_factory.hpp:77] Creating layer scale5a_branch1
I0525 07:13:46.477680  2968 net.cpp:86] Creating Layer scale5a_branch1
I0525 07:13:46.477748  2968 net.cpp:408] scale5a_branch1 <- res5a_branch1
I0525 07:13:46.477840  2968 net.cpp:369] scale5a_branch1 -> res5a_branch1 (in-place)
I0525 07:13:46.477973  2968 layer_factory.hpp:77] Creating layer scale5a_branch1
I0525 07:13:46.478142  2968 net.cpp:124] Setting up scale5a_branch1
I0525 07:13:46.478214  2968 net.cpp:131] Top shape: 1 512 7 7 (25088)
I0525 07:13:46.478375  2968 net.cpp:139] Memory required for data: 51279872
I0525 07:13:46.478475  2968 layer_factory.hpp:77] Creating layer res5a_branch2a
I0525 07:13:46.478581  2968 net.cpp:86] Creating Layer res5a_branch2a
I0525 07:13:46.478654  2968 net.cpp:408] res5a_branch2a <- res4b_res4b_relu_0_split_1
I0525 07:13:46.478758  2968 net.cpp:382] res5a_branch2a -> res5a_branch2a
I0525 07:13:46.621932  2968 net.cpp:124] Setting up res5a_branch2a
I0525 07:13:46.622125  2968 net.cpp:131] Top shape: 1 512 7 7 (25088)
I0525 07:13:46.622232  2968 net.cpp:139] Memory required for data: 51380224
I0525 07:13:46.622328  2968 layer_factory.hpp:77] Creating layer bn5a_branch2a
I0525 07:13:46.622427  2968 net.cpp:86] Creating Layer bn5a_branch2a
I0525 07:13:46.622503  2968 net.cpp:408] bn5a_branch2a <- res5a_branch2a
I0525 07:13:46.622591  2968 net.cpp:369] bn5a_branch2a -> res5a_branch2a (in-place)
I0525 07:13:46.622767  2968 net.cpp:124] Setting up bn5a_branch2a
I0525 07:13:46.622840  2968 net.cpp:131] Top shape: 1 512 7 7 (25088)
I0525 07:13:46.622926  2968 net.cpp:139] Memory required for data: 51480576
I0525 07:13:46.623040  2968 layer_factory.hpp:77] Creating layer scale5a_branch2a
I0525 07:13:46.623129  2968 net.cpp:86] Creating Layer scale5a_branch2a
I0525 07:13:46.623200  2968 net.cpp:408] scale5a_branch2a <- res5a_branch2a
I0525 07:13:46.623283  2968 net.cpp:369] scale5a_branch2a -> res5a_branch2a (in-place)
I0525 07:13:46.623427  2968 layer_factory.hpp:77] Creating layer scale5a_branch2a
I0525 07:13:46.623615  2968 net.cpp:124] Setting up scale5a_branch2a
I0525 07:13:46.623692  2968 net.cpp:131] Top shape: 1 512 7 7 (25088)
I0525 07:13:46.623778  2968 net.cpp:139] Memory required for data: 51580928
I0525 07:13:46.623876  2968 layer_factory.hpp:77] Creating layer res5a_branch2a_relu
I0525 07:13:46.623960  2968 net.cpp:86] Creating Layer res5a_branch2a_relu
I0525 07:13:46.624029  2968 net.cpp:408] res5a_branch2a_relu <- res5a_branch2a
I0525 07:13:46.624110  2968 net.cpp:369] res5a_branch2a_relu -> res5a_branch2a (in-place)
I0525 07:13:46.624198  2968 net.cpp:124] Setting up res5a_branch2a_relu
I0525 07:13:46.624261  2968 net.cpp:131] Top shape: 1 512 7 7 (25088)
I0525 07:13:46.624344  2968 net.cpp:139] Memory required for data: 51681280
I0525 07:13:46.624464  2968 layer_factory.hpp:77] Creating layer res5a_branch2b
I0525 07:13:46.624663  2968 net.cpp:86] Creating Layer res5a_branch2b
I0525 07:13:46.624738  2968 net.cpp:408] res5a_branch2b <- res5a_branch2a
I0525 07:13:46.624830  2968 net.cpp:382] res5a_branch2b -> res5a_branch2b
I0525 07:13:46.911356  2968 net.cpp:124] Setting up res5a_branch2b
I0525 07:13:46.918397  2968 net.cpp:131] Top shape: 1 512 7 7 (25088)
I0525 07:13:46.918550  2968 net.cpp:139] Memory required for data: 51781632
I0525 07:13:46.918651  2968 layer_factory.hpp:77] Creating layer bn5a_branch2b
I0525 07:13:46.918749  2968 net.cpp:86] Creating Layer bn5a_branch2b
I0525 07:13:46.918826  2968 net.cpp:408] bn5a_branch2b <- res5a_branch2b
I0525 07:13:46.918916  2968 net.cpp:369] bn5a_branch2b -> res5a_branch2b (in-place)
I0525 07:13:46.919100  2968 net.cpp:124] Setting up bn5a_branch2b
I0525 07:13:46.919183  2968 net.cpp:131] Top shape: 1 512 7 7 (25088)
I0525 07:13:46.919276  2968 net.cpp:139] Memory required for data: 51881984
I0525 07:13:46.919392  2968 layer_factory.hpp:77] Creating layer scale5a_branch2b
I0525 07:13:46.919692  2968 net.cpp:86] Creating Layer scale5a_branch2b
I0525 07:13:46.919795  2968 net.cpp:408] scale5a_branch2b <- res5a_branch2b
I0525 07:13:46.919888  2968 net.cpp:369] scale5a_branch2b -> res5a_branch2b (in-place)
I0525 07:13:46.920035  2968 layer_factory.hpp:77] Creating layer scale5a_branch2b
I0525 07:13:46.920214  2968 net.cpp:124] Setting up scale5a_branch2b
I0525 07:13:46.920290  2968 net.cpp:131] Top shape: 1 512 7 7 (25088)
I0525 07:13:46.920378  2968 net.cpp:139] Memory required for data: 51982336
I0525 07:13:46.920480  2968 layer_factory.hpp:77] Creating layer res5a
I0525 07:13:46.920564  2968 net.cpp:86] Creating Layer res5a
I0525 07:13:46.920634  2968 net.cpp:408] res5a <- res5a_branch1
I0525 07:13:46.920712  2968 net.cpp:408] res5a <- res5a_branch2b
I0525 07:13:46.920797  2968 net.cpp:382] res5a -> res5a
I0525 07:13:46.920900  2968 net.cpp:124] Setting up res5a
I0525 07:13:46.920970  2968 net.cpp:131] Top shape: 1 512 7 7 (25088)
I0525 07:13:46.921053  2968 net.cpp:139] Memory required for data: 52082688
I0525 07:13:46.921118  2968 layer_factory.hpp:77] Creating layer res5a_relu
I0525 07:13:46.921196  2968 net.cpp:86] Creating Layer res5a_relu
I0525 07:13:46.921262  2968 net.cpp:408] res5a_relu <- res5a
I0525 07:13:46.921339  2968 net.cpp:369] res5a_relu -> res5a (in-place)
I0525 07:13:46.921422  2968 net.cpp:124] Setting up res5a_relu
I0525 07:13:46.921487  2968 net.cpp:131] Top shape: 1 512 7 7 (25088)
I0525 07:13:46.921568  2968 net.cpp:139] Memory required for data: 52183040
I0525 07:13:46.921633  2968 layer_factory.hpp:77] Creating layer res5a_res5a_relu_0_split
I0525 07:13:46.921713  2968 net.cpp:86] Creating Layer res5a_res5a_relu_0_split
I0525 07:13:46.921778  2968 net.cpp:408] res5a_res5a_relu_0_split <- res5a
I0525 07:13:46.921859  2968 net.cpp:382] res5a_res5a_relu_0_split -> res5a_res5a_relu_0_split_0
I0525 07:13:46.921954  2968 net.cpp:382] res5a_res5a_relu_0_split -> res5a_res5a_relu_0_split_1
I0525 07:13:46.922055  2968 net.cpp:124] Setting up res5a_res5a_relu_0_split
I0525 07:13:46.922119  2968 net.cpp:131] Top shape: 1 512 7 7 (25088)
I0525 07:13:46.922216  2968 net.cpp:131] Top shape: 1 512 7 7 (25088)
I0525 07:13:46.922298  2968 net.cpp:139] Memory required for data: 52383744
I0525 07:13:46.922361  2968 layer_factory.hpp:77] Creating layer res5b_branch2a
I0525 07:13:46.922461  2968 net.cpp:86] Creating Layer res5b_branch2a
I0525 07:13:46.922533  2968 net.cpp:408] res5b_branch2a <- res5a_res5a_relu_0_split_0
I0525 07:13:46.922622  2968 net.cpp:382] res5b_branch2a -> res5b_branch2a
I0525 07:13:47.209367  2968 net.cpp:124] Setting up res5b_branch2a
I0525 07:13:47.209579  2968 net.cpp:131] Top shape: 1 512 7 7 (25088)
I0525 07:13:47.209686  2968 net.cpp:139] Memory required for data: 52484096
I0525 07:13:47.209790  2968 layer_factory.hpp:77] Creating layer bn5b_branch2a
I0525 07:13:47.209892  2968 net.cpp:86] Creating Layer bn5b_branch2a
I0525 07:13:47.210026  2968 net.cpp:408] bn5b_branch2a <- res5b_branch2a
I0525 07:13:47.210242  2968 net.cpp:369] bn5b_branch2a -> res5b_branch2a (in-place)
I0525 07:13:47.210435  2968 net.cpp:124] Setting up bn5b_branch2a
I0525 07:13:47.210513  2968 net.cpp:131] Top shape: 1 512 7 7 (25088)
I0525 07:13:47.210603  2968 net.cpp:139] Memory required for data: 52584448
I0525 07:13:47.210719  2968 layer_factory.hpp:77] Creating layer scale5b_branch2a
I0525 07:13:47.210810  2968 net.cpp:86] Creating Layer scale5b_branch2a
I0525 07:13:47.210882  2968 net.cpp:408] scale5b_branch2a <- res5b_branch2a
I0525 07:13:47.210975  2968 net.cpp:369] scale5b_branch2a -> res5b_branch2a (in-place)
I0525 07:13:47.211122  2968 layer_factory.hpp:77] Creating layer scale5b_branch2a
I0525 07:13:47.211295  2968 net.cpp:124] Setting up scale5b_branch2a
I0525 07:13:47.211370  2968 net.cpp:131] Top shape: 1 512 7 7 (25088)
I0525 07:13:47.211458  2968 net.cpp:139] Memory required for data: 52684800
I0525 07:13:47.211557  2968 layer_factory.hpp:77] Creating layer res5b_branch2a_relu
I0525 07:13:47.211642  2968 net.cpp:86] Creating Layer res5b_branch2a_relu
I0525 07:13:47.211711  2968 net.cpp:408] res5b_branch2a_relu <- res5b_branch2a
I0525 07:13:47.211793  2968 net.cpp:369] res5b_branch2a_relu -> res5b_branch2a (in-place)
I0525 07:13:47.211882  2968 net.cpp:124] Setting up res5b_branch2a_relu
I0525 07:13:47.211946  2968 net.cpp:131] Top shape: 1 512 7 7 (25088)
I0525 07:13:47.212028  2968 net.cpp:139] Memory required for data: 52785152
I0525 07:13:47.212095  2968 layer_factory.hpp:77] Creating layer res5b_branch2b
I0525 07:13:47.212201  2968 net.cpp:86] Creating Layer res5b_branch2b
I0525 07:13:47.212275  2968 net.cpp:408] res5b_branch2b <- res5b_branch2a
I0525 07:13:47.212368  2968 net.cpp:382] res5b_branch2b -> res5b_branch2b
I0525 07:13:47.501325  2968 net.cpp:124] Setting up res5b_branch2b
I0525 07:13:47.501509  2968 net.cpp:131] Top shape: 1 512 7 7 (25088)
I0525 07:13:47.501616  2968 net.cpp:139] Memory required for data: 52885504
I0525 07:13:47.501720  2968 layer_factory.hpp:77] Creating layer bn5b_branch2b
I0525 07:13:47.501821  2968 net.cpp:86] Creating Layer bn5b_branch2b
I0525 07:13:47.501896  2968 net.cpp:408] bn5b_branch2b <- res5b_branch2b
I0525 07:13:47.501984  2968 net.cpp:369] bn5b_branch2b -> res5b_branch2b (in-place)
I0525 07:13:47.502161  2968 net.cpp:124] Setting up bn5b_branch2b
I0525 07:13:47.502236  2968 net.cpp:131] Top shape: 1 512 7 7 (25088)
I0525 07:13:47.502321  2968 net.cpp:139] Memory required for data: 52985856
I0525 07:13:47.502434  2968 layer_factory.hpp:77] Creating layer scale5b_branch2b
I0525 07:13:47.502518  2968 net.cpp:86] Creating Layer scale5b_branch2b
I0525 07:13:47.502588  2968 net.cpp:408] scale5b_branch2b <- res5b_branch2b
I0525 07:13:47.502671  2968 net.cpp:369] scale5b_branch2b -> res5b_branch2b (in-place)
I0525 07:13:47.502816  2968 layer_factory.hpp:77] Creating layer scale5b_branch2b
I0525 07:13:47.502991  2968 net.cpp:124] Setting up scale5b_branch2b
I0525 07:13:47.503070  2968 net.cpp:131] Top shape: 1 512 7 7 (25088)
I0525 07:13:47.503158  2968 net.cpp:139] Memory required for data: 53086208
I0525 07:13:47.503257  2968 layer_factory.hpp:77] Creating layer res5b
I0525 07:13:47.503341  2968 net.cpp:86] Creating Layer res5b
I0525 07:13:47.503410  2968 net.cpp:408] res5b <- res5a_res5a_relu_0_split_1
I0525 07:13:47.503485  2968 net.cpp:408] res5b <- res5b_branch2b
I0525 07:13:47.503569  2968 net.cpp:382] res5b -> res5b
I0525 07:13:47.503666  2968 net.cpp:124] Setting up res5b
I0525 07:13:47.503736  2968 net.cpp:131] Top shape: 1 512 7 7 (25088)
I0525 07:13:47.503819  2968 net.cpp:139] Memory required for data: 53186560
I0525 07:13:47.503885  2968 layer_factory.hpp:77] Creating layer res5b_relu
I0525 07:13:47.503962  2968 net.cpp:86] Creating Layer res5b_relu
I0525 07:13:47.504029  2968 net.cpp:408] res5b_relu <- res5b
I0525 07:13:47.504108  2968 net.cpp:369] res5b_relu -> res5b (in-place)
I0525 07:13:47.504194  2968 net.cpp:124] Setting up res5b_relu
I0525 07:13:47.504259  2968 net.cpp:131] Top shape: 1 512 7 7 (25088)
I0525 07:13:47.504395  2968 net.cpp:139] Memory required for data: 53286912
I0525 07:13:47.504556  2968 layer_factory.hpp:77] Creating layer pool5
I0525 07:13:47.504644  2968 net.cpp:86] Creating Layer pool5
I0525 07:13:47.504712  2968 net.cpp:408] pool5 <- res5b
I0525 07:13:47.504830  2968 net.cpp:382] pool5 -> pool5
I0525 07:13:47.504979  2968 net.cpp:124] Setting up pool5
I0525 07:13:47.505062  2968 net.cpp:131] Top shape: 1 512 1 1 (512)
I0525 07:13:47.505152  2968 net.cpp:139] Memory required for data: 53288960
I0525 07:13:47.505218  2968 layer_factory.hpp:77] Creating layer fc1000
I0525 07:13:47.505311  2968 net.cpp:86] Creating Layer fc1000
I0525 07:13:47.505379  2968 net.cpp:408] fc1000 <- pool5
I0525 07:13:47.505467  2968 net.cpp:382] fc1000 -> fc1000
I0525 07:13:47.550559  2968 net.cpp:124] Setting up fc1000
I0525 07:13:47.550747  2968 net.cpp:131] Top shape: 1 1000 (1000)
I0525 07:13:47.550844  2968 net.cpp:139] Memory required for data: 53292960
I0525 07:13:47.550958  2968 layer_factory.hpp:77] Creating layer prob
I0525 07:13:47.551056  2968 net.cpp:86] Creating Layer prob
I0525 07:13:47.551131  2968 net.cpp:408] prob <- fc1000
I0525 07:13:47.551216  2968 net.cpp:382] prob -> prob
I0525 07:13:47.551352  2968 net.cpp:124] Setting up prob
I0525 07:13:47.551429  2968 net.cpp:131] Top shape: 1 1000 (1000)
I0525 07:13:47.551522  2968 net.cpp:139] Memory required for data: 53296960
I0525 07:13:47.551587  2968 net.cpp:202] prob does not need backward computation.
I0525 07:13:47.551693  2968 net.cpp:202] fc1000 does not need backward computation.
I0525 07:13:47.551761  2968 net.cpp:202] pool5 does not need backward computation.
I0525 07:13:47.551827  2968 net.cpp:202] res5b_relu does not need backward computation.
…
