I0525 06:38:53.823900  2035 caffe.cpp:343] Use CPU.
I0525 06:38:53.839547  2035 net.cpp:53] Initializing net from parameters: 
name: "LeNet"
state {
  phase: TRAIN
  level: 0
  stage: ""
}
layer {
  name: "data"
  type: "Input"
  top: "data"
  input_param {
    shape {
      dim: 1
      dim: 1
      dim: 28
      dim: 28
    }
  }
}
layer {
  name: "conv1"
  type: "Convolution"
  bottom: "data"
  top: "conv1"
  param {
    lr_mult: 1
  }
  param {
    lr_mult: 2
  }
  convolution_param {
    num_output: 20
    kernel_size: 5
    stride: 1
    weight_filler {
      type: "xavier"
    }
    bias_filler {
      type: "constant"
    }
  }
}
layer {
  name: "pool1"
  type: "Pooling"
  bottom: "conv1"
  top: "pool1"
  pooling_param {
    pool: MAX
    kernel_size: 2
    stride: 2
  }
}
layer {
  name: "conv2"
  type: "Convolution"
  bottom: "pool1"
  top: "conv2"
  param {
    lr_mult: 1
  }
  param {
    lr_mult: 2
  }
  convolution_param {
    num_output: 50
    kernel_size: 5
    stride: 1
    weight_filler {
      type: "xavier"
    }
    bias_filler {
      type: "constant"
    }
  }
}
layer {
  name: "pool2"
  type: "Pooling"
  bottom: "conv2"
  top: "pool2"
  pooling_param {
    pool: MAX
    kernel_size: 2
    stride: 2
  }
}
layer {
  name: "ip1"
  type: "InnerProduct"
  bottom: "pool2"
  top: "ip1"
  param {
    lr_mult: 1
  }
  param {
    lr_mult: 2
  }
  inner_product_param {
    num_output: 500
    weight_filler {
      type: "xavier"
    }
    bias_filler {
      type: "constant"
    }
  }
}
layer {
  name: "relu1"
  type: "ReLU"
  bottom: "ip1"
  top: "ip1"
}
layer {
  name: "ip2"
  type: "InnerProduct"
  bottom: "ip1"
  top: "ip2"
  param {
    lr_mult: 1
  }
  param {
    lr_mult: 2
  }
  inner_product_param {
    num_output: 10
    weight_filler {
      type: "xavier"
    }
    bias_filler {
      type: "constant"
    }
  }
}
layer {
  name: "prob"
  type: "Softmax"
  bottom: "ip2"
  top: "prob"
}
I0525 06:38:53.840687  2035 layer_factory.hpp:77] Creating layer data
I0525 06:38:53.840829  2035 net.cpp:86] Creating Layer data
I0525 06:38:53.840924  2035 net.cpp:382] data -> data
I0525 06:38:53.841176  2035 net.cpp:124] Setting up data
I0525 06:38:53.841261  2035 net.cpp:131] Top shape: 1 1 28 28 (784)
I0525 06:38:53.841388  2035 net.cpp:139] Memory required for data: 3136
I0525 06:38:53.841475  2035 layer_factory.hpp:77] Creating layer conv1
I0525 06:38:53.841606  2035 net.cpp:86] Creating Layer conv1
I0525 06:38:53.841686  2035 net.cpp:408] conv1 <- data
I0525 06:38:53.841789  2035 net.cpp:382] conv1 -> conv1
I0525 06:38:53.842422  2035 net.cpp:124] Setting up conv1
I0525 06:38:53.842514  2035 net.cpp:131] Top shape: 1 20 24 24 (11520)
I0525 06:38:53.842604  2035 net.cpp:139] Memory required for data: 49216
I0525 06:38:53.842767  2035 layer_factory.hpp:77] Creating layer pool1
I0525 06:38:53.842869  2035 net.cpp:86] Creating Layer pool1
I0525 06:38:53.842938  2035 net.cpp:408] pool1 <- conv1
I0525 06:38:53.843020  2035 net.cpp:382] pool1 -> pool1
I0525 06:38:53.843179  2035 net.cpp:124] Setting up pool1
I0525 06:38:53.843255  2035 net.cpp:131] Top shape: 1 20 12 12 (2880)
I0525 06:38:53.843341  2035 net.cpp:139] Memory required for data: 60736
I0525 06:38:53.843407  2035 layer_factory.hpp:77] Creating layer conv2
I0525 06:38:53.843513  2035 net.cpp:86] Creating Layer conv2
I0525 06:38:53.843582  2035 net.cpp:408] conv2 <- pool1
I0525 06:38:53.843672  2035 net.cpp:382] conv2 -> conv2
I0525 06:38:53.846099  2035 net.cpp:124] Setting up conv2
I0525 06:38:53.846199  2035 net.cpp:131] Top shape: 1 50 8 8 (3200)
I0525 06:38:53.846289  2035 net.cpp:139] Memory required for data: 73536
I0525 06:38:53.846406  2035 layer_factory.hpp:77] Creating layer pool2
I0525 06:38:53.846503  2035 net.cpp:86] Creating Layer pool2
I0525 06:38:53.846573  2035 net.cpp:408] pool2 <- conv2
I0525 06:38:53.846657  2035 net.cpp:382] pool2 -> pool2
I0525 06:38:53.846772  2035 net.cpp:124] Setting up pool2
I0525 06:38:53.846843  2035 net.cpp:131] Top shape: 1 50 4 4 (800)
I0525 06:38:53.846922  2035 net.cpp:139] Memory required for data: 76736
I0525 06:38:53.847043  2035 layer_factory.hpp:77] Creating layer ip1
I0525 06:38:53.847239  2035 net.cpp:86] Creating Layer ip1
I0525 06:38:53.847311  2035 net.cpp:408] ip1 <- pool2
I0525 06:38:53.847402  2035 net.cpp:382] ip1 -> ip1
I0525 06:38:53.882624  2035 net.cpp:124] Setting up ip1
I0525 06:38:53.882799  2035 net.cpp:131] Top shape: 1 500 (500)
I0525 06:38:53.882896  2035 net.cpp:139] Memory required for data: 78736
I0525 06:38:53.883033  2035 layer_factory.hpp:77] Creating layer relu1
I0525 06:38:53.883127  2035 net.cpp:86] Creating Layer relu1
I0525 06:38:53.883199  2035 net.cpp:408] relu1 <- ip1
I0525 06:38:53.883283  2035 net.cpp:369] relu1 -> ip1 (in-place)
I0525 06:38:53.883385  2035 net.cpp:124] Setting up relu1
I0525 06:38:53.883453  2035 net.cpp:131] Top shape: 1 500 (500)
I0525 06:38:53.883533  2035 net.cpp:139] Memory required for data: 80736
I0525 06:38:53.883599  2035 layer_factory.hpp:77] Creating layer ip2
I0525 06:38:53.883690  2035 net.cpp:86] Creating Layer ip2
I0525 06:38:53.883757  2035 net.cpp:408] ip2 <- ip1
I0525 06:38:53.883846  2035 net.cpp:382] ip2 -> ip2
I0525 06:38:53.884443  2035 net.cpp:124] Setting up ip2
I0525 06:38:53.884526  2035 net.cpp:131] Top shape: 1 10 (10)
I0525 06:38:53.884606  2035 net.cpp:139] Memory required for data: 80776
I0525 06:38:53.884707  2035 layer_factory.hpp:77] Creating layer prob
I0525 06:38:53.884802  2035 net.cpp:86] Creating Layer prob
I0525 06:38:53.884871  2035 net.cpp:408] prob <- ip2
I0525 06:38:53.884951  2035 net.cpp:382] prob -> prob
I0525 06:38:53.885056  2035 net.cpp:124] Setting up prob
I0525 06:38:53.885121  2035 net.cpp:131] Top shape: 1 10 (10)
I0525 06:38:53.885200  2035 net.cpp:139] Memory required for data: 80816
I0525 06:38:53.885264  2035 net.cpp:202] prob does not need backward computation.
I0525 06:38:53.885360  2035 net.cpp:202] ip2 does not need backward computation.
I0525 06:38:53.885428  2035 net.cpp:202] relu1 does not need backward computation.
I0525 06:38:53.885493  2035 net.cpp:202] ip1 does not need backward computation.
…
