I0525 06:50:01.350174  2087 caffe.cpp:343] Use CPU.
I0525 06:50:01.371448  2087 net.cpp:53] Initializing net from parameters: 
name: "resnet18-cifar10"
state {
  phase: TRAIN
  level: 0
  stage: ""
}
layer {
  name: "data"
  type: "Input"
  top: "data"
  input_param {
    shape {
      dim: 1
      dim: 3
      dim: 32
      dim: 32
    }
  }
}
layer {
  name: "first_conv"
  type: "Convolution"
  bottom: "data"
  top: "first_conv"
  param {
    lr_mult: 1
    decay_mult: 1
  }
  convolution_param {
    num_output: 16
    pad: 1
    kernel_size: 3
    stride: 1
    weight_filler {
      type: "msra"
    }
  }
}
layer {
  name: "first_conv_bn"
  type: "BatchNorm"
  bottom: "first_conv"
  top: "first_conv"
}
layer {
  name: "first_conv_scale"
  type: "Scale"
  bottom: "first_conv"
  top: "first_conv"
  scale_param {
    bias_term: true
  }
}
layer {
  name: "first_conv_relu"
  type: "ReLU"
  bottom: "first_conv"
  top: "first_conv"
}
layer {
  name: "group0_block0_conv0"
  type: "Convolution"
  bottom: "first_conv"
  top: "group0_block0_conv0"
  param {
    lr_mult: 1
    decay_mult: 1
  }
  convolution_param {
    num_output: 16
    pad: 1
    kernel_size: 3
    stride: 1
    weight_filler {
      type: "msra"
    }
  }
}
layer {
  name: "group0_block0_conv0_bn"
  type: "BatchNorm"
  bottom: "group0_block0_conv0"
  top: "group0_block0_conv0"
}
layer {
  name: "group0_block0_conv0_scale"
  type: "Scale"
  bottom: "group0_block0_conv0"
  top: "group0_block0_conv0"
  scale_param {
    bias_term: true
  }
}
layer {
  name: "group0_block0_conv0_relu"
  type: "ReLU"
  bottom: "group0_block0_conv0"
  top: "group0_block0_conv0"
}
layer {
  name: "group0_block0_conv1"
  type: "Convolution"
  bottom: "group0_block0_conv0"
  top: "group0_block0_conv1"
  param {
    lr_mult: 1
    decay_mult: 1
  }
  convolution_param {
    num_output: 16
    pad: 1
    kernel_size: 3
    stride: 1
    weight_filler {
      type: "msra"
    }
  }
}
layer {
  name: "group0_block0_conv1_bn"
  type: "BatchNorm"
  bottom: "group0_block0_conv1"
  top: "group0_block0_conv1"
}
layer {
  name: "group0_block0_conv1_scale"
  type: "Scale"
  bottom: "group0_block0_conv1"
  top: "group0_block0_conv1"
  scale_param {
    bias_term: true
  }
}
layer {
  name: "group0_block0_sum"
  type: "Eltwise"
  bottom: "group0_block0_conv1"
  bottom: "first_conv"
  top: "group0_block0_sum"
  eltwise_param {
    operation: SUM
  }
}
layer {
  name: "group0_block0_relu"
  type: "ReLU"
  bottom: "group0_block0_sum"
  top: "group0_block0_sum"
}
layer {
  name: "group0_block1_conv0"
  type: "Convolution"
  bottom: "group0_block0_sum"
  top: "group0_block1_conv0"
  param {
    lr_mult: 1
    decay_mult: 1
  }
  convolution_param {
    num_output: 16
    pad: 1
    kernel_size: 3
    stride: 1
    weight_filler {
      type: "msra"
    }
  }
}
layer {
  name: "group0_block1_conv0_bn"
  type: "BatchNorm"
  bottom: "group0_block1_conv0"
  top: "group0_block1_conv0"
}
layer {
  name: "group0_block1_conv0_scale"
  type: "Scale"
  bottom: "group0_block1_conv0"
  top: "group0_block1_conv0"
  scale_param {
    bias_term: true
  }
}
layer {
  name: "group0_block1_conv0_relu"
  type: "ReLU"
  bottom: "group0_block1_conv0"
  top: "group0_block1_conv0"
}
layer {
  name: "group0_block1_conv1"
  type: "Convolution"
  bottom: "group0_block1_conv0"
  top: "group0_block1_conv1"
  param {
    lr_mult: 1
    decay_mult: 1
  }
  convolution_param {
    num_output: 16
    pad: 1
    kernel_size: 3
    stride: 1
    weight_filler {
      type: "msra"
    }
  }
}
layer {
  name: "group0_block1_conv1_bn"
  type: "BatchNorm"
  bottom: "group0_block1_conv1"
  top: "group0_block1_conv1"
}
layer {
  name: "group0_block1_conv1_scale"
  type: "Scale"
  bottom: "group0_block1_conv1"
  top: "group0_block1_conv1"
  scale_param {
    bias_term: true
  }
}
layer {
  name: "group0_block1_sum"
  type: "Eltwise"
  bottom: "group0_block1_conv1"
  bottom: "group0_block0_sum"
  top: "group0_block1_sum"
  eltwise_param {
    operation: SUM
  }
}
layer {
  name: "group0_block1_relu"
  type: "ReLU"
  bottom: "group0_block1_sum"
  top: "group0_block1_sum"
}
layer {
  name: "group0_block2_conv0"
  type: "Convolution"
  bottom: "group0_block1_sum"
  top: "group0_block2_conv0"
  param {
    lr_mult: 1
    decay_mult: 1
  }
  convolution_param {
    num_output: 16
    pad: 1
    kernel_size: 3
    stride: 1
    weight_filler {
      type: "msra"
    }
  }
}
layer {
  name: "group0_block2_conv0_bn"
  type: "BatchNorm"
  bottom: "group0_block2_conv0"
  top: "group0_block2_conv0"
}
layer {
  name: "group0_block2_conv0_scale"
  type: "Scale"
  bottom: "group0_block2_conv0"
  top: "group0_block2_conv0"
  scale_param {
    bias_term: true
  }
}
layer {
  name: "group0_block2_conv0_relu"
  type: "ReLU"
  bottom: "group0_block2_conv0"
  top: "group0_block2_conv0"
}
layer {
  name: "group0_block2_conv1"
  type: "Convolution"
  bottom: "group0_block2_conv0"
  top: "group0_block2_conv1"
  param {
    lr_mult: 1
    decay_mult: 1
  }
  convolution_param {
    num_output: 16
    pad: 1
    kernel_size: 3
    stride: 1
    weight_filler {
      type: "msra"
    }
  }
}
layer {
  name: "group0_block2_conv1_bn"
  type: "BatchNorm"
  bottom: "group0_block2_conv1"
  top: "group0_block2_conv1"
}
layer {
  name: "group0_block2_conv1_scale"
  type: "Scale"
  bottom: "group0_block2_conv1"
  top: "group0_block2_conv1"
  scale_param {
    bias_term: true
  }
}
layer {
  name: "group0_block2_sum"
  type: "Eltwise"
  bottom: "group0_block2_conv1"
  bottom: "group0_block1_sum"
  top: "group0_block2_sum"
  eltwise_param {
    operation: SUM
  }
}
layer {
  name: "group0_block2_relu"
  type: "ReLU"
  bottom: "group0_block2_sum"
  top: "group0_block2_sum"
}
layer {
  name: "group1_block0_conv0"
  type: "Convolution"
  bottom: "group0_block2_sum"
  top: "group1_block0_conv0"
  param {
    lr_mult: 1
    decay_mult: 1
  }
  convolution_param {
    num_output: 32
    pad: 1
    kernel_size: 3
    stride: 2
    weight_filler {
      type: "msra"
    }
  }
}
layer {
  name: "group1_block0_conv0_bn"
  type: "BatchNorm"
  bottom: "group1_block0_conv0"
  top: "group1_block0_conv0"
}
layer {
  name: "group1_block0_conv0_scale"
  type: "Scale"
  bottom: "group1_block0_conv0"
  top: "group1_block0_conv0"
  scale_param {
    bias_term: true
  }
}
layer {
  name: "group1_block0_conv0_relu"
  type: "ReLU"
  bottom: "group1_block0_conv0"
  top: "group1_block0_conv0"
}
layer {
  name: "group1_block0_conv1"
  type: "Convolution"
  bottom: "group1_block0_conv0"
  top: "group1_block0_conv1"
  param {
    lr_mult: 1
    decay_mult: 1
  }
  convolution_param {
    num_output: 32
    pad: 1
    kernel_size: 3
    stride: 1
    weight_filler {
      type: "msra"
    }
  }
}
layer {
  name: "group1_block0_conv1_bn"
  type: "BatchNorm"
  bottom: "group1_block0_conv1"
  top: "group1_block0_conv1"
}
layer {
  name: "group1_block0_conv1_scale"
  type: "Scale"
  bottom: "group1_block0_conv1"
  top: "group1_block0_conv1"
  scale_param {
    bias_term: true
  }
}
layer {
  name: "group1_block0_proj"
  type: "Convolution"
  bottom: "group0_block2_sum"
  top: "group1_block0_proj"
  param {
    lr_mult: 1
    decay_mult: 1
  }
  convolution_param {
    num_output: 32
    pad: 0
    kernel_size: 1
    stride: 2
    weight_filler {
      type: "msra"
    }
  }
}
layer {
  name: "group1_block0_proj_bn"
  type: "BatchNorm"
  bottom: "group1_block0_proj"
  top: "group1_block0_proj"
}
layer {
  name: "group1_block0_proj_scale"
  type: "Scale"
  bottom: "group1_block0_proj"
  top: "group1_block0_proj"
  scale_param {
    bias_term: true
  }
}
layer {
  name: "group1_block0_sum"
  type: "Eltwise"
  bottom: "group1_block0_proj"
  bottom: "group1_block0_conv1"
  top: "group1_block0_sum"
  eltwise_param {
    operation: SUM
  }
}
layer {
  name: "group1_block0_relu"
  type: "ReLU"
  bottom: "group1_block0_sum"
  top: "group1_block0_sum"
}
layer {
  name: "group1_block1_conv0"
  type: "Convolution"
  bottom: "group1_block0_sum"
  top: "group1_block1_conv0"
  param {
    lr_mult: 1
    decay_mult: 1
  }
  convolution_param {
    num_output: 32
    pad: 1
    kernel_size: 3
    stride: 1
    weight_filler {
      type: "msra"
    }
  }
}
layer {
  name: "group1_block1_conv0_bn"
  type: "BatchNorm"
  bottom: "group1_block1_conv0"
  top: "group1_block1_conv0"
}
layer {
  name: "group1_block1_conv0_scale"
  type: "Scale"
  bottom: "group1_block1_conv0"
  top: "group1_block1_conv0"
  scale_param {
    bias_term: true
  }
}
layer {
  name: "group1_block1_conv0_relu"
  type: "ReLU"
  bottom: "group1_block1_conv0"
  top: "group1_block1_conv0"
}
layer {
  name: "group1_block1_conv1"
  type: "Convolution"
  bottom: "group1_block1_conv0"
  top: "group1_block1_conv1"
  param {
    lr_mult: 1
    decay_mult: 1
  }
  convolution_param {
    num_output: 32
    pad: 1
    kernel_size: 3
    stride: 1
    weight_filler {
      type: "msra"
    }
  }
}
layer {
  name: "group1_block1_conv1_bn"
  type: "BatchNorm"
  bottom: "group1_block1_conv1"
  top: "group1_block1_conv1"
}
layer {
  name: "group1_block1_conv1_scale"
  type: "Scale"
  bottom: "group1_block1_conv1"
  top: "group1_block1_conv1"
  scale_param {
    bias_term: true
  }
}
layer {
  name: "group1_block1_sum"
  type: "Eltwise"
  bottom: "group1_block1_conv1"
  bottom: "group1_block0_sum"
  top: "group1_block1_sum"
  eltwise_param {
    operation: SUM
  }
}
layer {
  name: "group1_block1_relu"
  type: "ReLU"
  bottom: "group1_block1_sum"
  top: "group1_block1_sum"
}
layer {
  name: "group1_block2_conv0"
  type: "Convolution"
  bottom: "group1_block1_sum"
  top: "group1_block2_conv0"
  param {
    lr_mult: 1
    decay_mult: 1
  }
  convolution_param {
    num_output: 32
    pad: 1
    kernel_size: 3
    stride: 1
    weight_filler {
      type: "msra"
    }
  }
}
layer {
  name: "group1_block2_conv0_bn"
  type: "BatchNorm"
  bottom: "group1_block2_conv0"
  top: "group1_block2_conv0"
}
layer {
  name: "group1_block2_conv0_scale"
  type: "Scale"
  bottom: "group1_block2_conv0"
  top: "group1_block2_conv0"
  scale_param {
    bias_term: true
  }
}
layer {
  name: "group1_block2_conv0_relu"
  type: "ReLU"
  bottom: "group1_block2_conv0"
  top: "group1_block2_conv0"
}
layer {
  name: "group1_block2_conv1"
  type: "Convolution"
  bottom: "group1_block2_conv0"
  top: "group1_block2_conv1"
  param {
    lr_mult: 1
    decay_mult: 1
  }
  convolution_param {
    num_output: 32
    pad: 1
    kernel_size: 3
    stride: 1
    weight_filler {
      type: "msra"
    }
  }
}
layer {
  name: "group1_block2_conv1_bn"
  type: "BatchNorm"
  bottom: "group1_block2_conv1"
  top: "group1_block2_conv1"
}
layer {
  name: "group1_block2_conv1_scale"
  type: "Scale"
  bottom: "group1_block2_conv1"
  top: "group1_block2_conv1"
  scale_param {
    bias_term: true
  }
}
layer {
  name: "group1_block2_sum"
  type: "Eltwise"
  bottom: "group1_block2_conv1"
  bottom: "group1_block1_sum"
  top: "group1_block2_sum"
  eltwise_param {
    operation: SUM
  }
}
layer {
  name: "group1_block2_relu"
  type: "ReLU"
  bottom: "group1_block2_sum"
  top: "group1_block2_sum"
}
layer {
  name: "group2_block0_conv0"
  type: "Convolution"
  bottom: "group1_block2_sum"
  top: "group2_block0_conv0"
  param {
    lr_mult: 1
    decay_mult: 1
  }
  convolution_param {
    num_output: 64
    pad: 1
    kernel_size: 3
    stride: 2
    weight_filler {
      type: "msra"
    }
  }
}
layer {
  name: "group2_block0_conv0_bn"
  type: "BatchNorm"
  bottom: "group2_block0_conv0"
  top: "group2_block0_conv0"
}
layer {
  name: "group2_block0_conv0_scale"
  type: "Scale"
  bottom: "group2_block0_conv0"
  top: "group2_block0_conv0"
  scale_param {
    bias_term: true
  }
}
layer {
  name: "group2_block0_conv0_relu"
  type: "ReLU"
  bottom: "group2_block0_conv0"
  top: "group2_block0_conv0"
}
layer {
  name: "group2_block0_conv1"
  type: "Convolution"
  bottom: "group2_block0_conv0"
  top: "group2_block0_conv1"
  param {
    lr_mult: 1
    decay_mult: 1
  }
  convolution_param {
    num_output: 64
    pad: 1
    kernel_size: 3
    stride: 1
    weight_filler {
      type: "msra"
    }
  }
}
layer {
  name: "group2_block0_conv1_bn"
  type: "BatchNorm"
  bottom: "group2_block0_conv1"
  top: "group2_block0_conv1"
}
layer {
  name: "group2_block0_conv1_scale"
  type: "Scale"
  bottom: "group2_block0_conv1"
  top: "group2_block0_conv1"
  scale_param {
    bias_term: true
  }
}
layer {
  name: "group2_block0_proj"
  type: "Convolution"
  bottom: "group1_block2_sum"
  top: "group2_block0_proj"
  param {
    lr_mult: 1
    decay_mult: 1
  }
  convolution_param {
    num_output: 64
    pad: 0
    kernel_size: 1
    stride: 2
    weight_filler {
      type: "msra"
    }
  }
}
layer {
  name: "group2_block0_proj_bn"
  type: "BatchNorm"
  bottom: "group2_block0_proj"
  top: "group2_block0_proj"
}
layer {
  name: "group2_block0_proj_scale"
  type: "Scale"
  bottom: "group2_block0_proj"
  top: "group2_block0_proj"
  scale_param {
    bias_term: true
  }
}
layer {
  name: "group2_block0_sum"
  type: "Eltwise"
  bottom: "group2_block0_proj"
  bottom: "group2_block0_conv1"
  top: "group2_block0_sum"
  eltwise_param {
    operation: SUM
  }
}
layer {
  name: "group2_block0_relu"
  type: "ReLU"
  bottom: "group2_block0_sum"
  top: "group2_block0_sum"
}
layer {
  name: "group2_block1_conv0"
  type: "Convolution"
  bottom: "group2_block0_sum"
  top: "group2_block1_conv0"
  param {
    lr_mult: 1
    decay_mult: 1
  }
  convolution_param {
    num_output: 64
    pad: 1
    kernel_size: 3
    stride: 1
    weight_filler {
      type: "msra"
    }
  }
}
layer {
  name: "group2_block1_conv0_bn"
  type: "BatchNorm"
  bottom: "group2_block1_conv0"
  top: "group2_block1_conv0"
}
layer {
  name: "group2_block1_conv0_scale"
  type: "Scale"
  bottom: "group2_block1_conv0"
  top: "group2_block1_conv0"
  scale_param {
    bias_term: true
  }
}
layer {
  name: "group2_block1_conv0_relu"
  type: "ReLU"
  bottom: "group2_block1_conv0"
  top: "group2_block1_conv0"
}
layer {
  name: "group2_block1_conv1"
  type: "Convolution"
  bottom: "group2_block1_conv0"
  top: "group2_block1_conv1"
  param {
    lr_mult: 1
    decay_mult: 1
  }
  convolution_param {
    num_output: 64
    pad: 1
    kernel_size: 3
    stride: 1
    weight_filler {
      type: "msra"
    }
  }
}
layer {
  name: "group2_block1_conv1_bn"
  type: "BatchNorm"
  bottom: "group2_block1_conv1"
  top: "group2_block1_conv1"
}
layer {
  name: "group2_block1_conv1_scale"
  type: "Scale"
  bottom: "group2_block1_conv1"
  top: "group2_block1_conv1"
  scale_param {
    bias_term: true
  }
}
layer {
  name: "group2_block1_sum"
  type: "Eltwise"
  bottom: "group2_block1_conv1"
  bottom: "group2_block0_sum"
  top: "group2_block1_sum"
  eltwise_param {
    operation: SUM
  }
}
layer {
  name: "group2_block1_relu"
  type: "ReLU"
  bottom: "group2_block1_sum"
  top: "group2_block1_sum"
}
layer {
  name: "global_avg_pool"
  type: "Pooling"
  bottom: "group2_block1_sum"
  top: "global_avg_pool"
  pooling_param {
    pool: AVE
    global_pooling: true
  }
}
layer {
  name: "fc"
  type: "InnerProduct"
  bottom: "global_avg_pool"
  top: "fc"
  param {
    lr_mult: 1
    decay_mult: 1
  }
  param {
    lr_mult: 2
    decay_mult: 0
  }
  inner_product_param {
    num_output: 10
    weight_filler {
      type: "msra"
    }
    bias_filler {
      type: "constant"
      value: 0
    }
  }
}
layer {
  name: "softmax"
  type: "Softmax"
  bottom: "fc"
  top: "softmax"
}
I0525 06:50:01.380167  2087 layer_factory.hpp:77] Creating layer data
I0525 06:50:01.380393  2087 net.cpp:86] Creating Layer data
I0525 06:50:01.380498  2087 net.cpp:382] data -> data
I0525 06:50:01.380757  2087 net.cpp:124] Setting up data
I0525 06:50:01.380847  2087 net.cpp:131] Top shape: 1 3 32 32 (3072)
I0525 06:50:01.380939  2087 net.cpp:139] Memory required for data: 12288
I0525 06:50:01.381027  2087 layer_factory.hpp:77] Creating layer first_conv
I0525 06:50:01.381160  2087 net.cpp:86] Creating Layer first_conv
I0525 06:50:01.381243  2087 net.cpp:408] first_conv <- data
I0525 06:50:01.381346  2087 net.cpp:382] first_conv -> first_conv
I0525 06:50:01.382084  2087 net.cpp:124] Setting up first_conv
I0525 06:50:01.382184  2087 net.cpp:131] Top shape: 1 16 32 32 (16384)
I0525 06:50:01.382284  2087 net.cpp:139] Memory required for data: 77824
I0525 06:50:01.382452  2087 layer_factory.hpp:77] Creating layer first_conv_bn
I0525 06:50:01.382596  2087 net.cpp:86] Creating Layer first_conv_bn
I0525 06:50:01.382757  2087 net.cpp:408] first_conv_bn <- first_conv
I0525 06:50:01.382845  2087 net.cpp:369] first_conv_bn -> first_conv (in-place)
I0525 06:50:01.383049  2087 net.cpp:124] Setting up first_conv_bn
I0525 06:50:01.383121  2087 net.cpp:131] Top shape: 1 16 32 32 (16384)
I0525 06:50:01.383208  2087 net.cpp:139] Memory required for data: 143360
I0525 06:50:01.383344  2087 layer_factory.hpp:77] Creating layer first_conv_scale
I0525 06:50:01.383441  2087 net.cpp:86] Creating Layer first_conv_scale
I0525 06:50:01.383512  2087 net.cpp:408] first_conv_scale <- first_conv
I0525 06:50:01.383594  2087 net.cpp:369] first_conv_scale -> first_conv (in-place)
I0525 06:50:01.383731  2087 layer_factory.hpp:77] Creating layer first_conv_scale
I0525 06:50:01.383944  2087 net.cpp:124] Setting up first_conv_scale
I0525 06:50:01.384021  2087 net.cpp:131] Top shape: 1 16 32 32 (16384)
I0525 06:50:01.384109  2087 net.cpp:139] Memory required for data: 208896
I0525 06:50:01.384205  2087 layer_factory.hpp:77] Creating layer first_conv_relu
I0525 06:50:01.384295  2087 net.cpp:86] Creating Layer first_conv_relu
I0525 06:50:01.384362  2087 net.cpp:408] first_conv_relu <- first_conv
I0525 06:50:01.384441  2087 net.cpp:369] first_conv_relu -> first_conv (in-place)
I0525 06:50:01.384546  2087 net.cpp:124] Setting up first_conv_relu
I0525 06:50:01.384614  2087 net.cpp:131] Top shape: 1 16 32 32 (16384)
I0525 06:50:01.384699  2087 net.cpp:139] Memory required for data: 274432
I0525 06:50:01.384765  2087 layer_factory.hpp:77] Creating layer first_conv_first_conv_relu_0_split
I0525 06:50:01.384847  2087 net.cpp:86] Creating Layer first_conv_first_conv_relu_0_split
I0525 06:50:01.384915  2087 net.cpp:408] first_conv_first_conv_relu_0_split <- first_conv
I0525 06:50:01.384999  2087 net.cpp:382] first_conv_first_conv_relu_0_split -> first_conv_first_conv_relu_0_split_0
I0525 06:50:01.385098  2087 net.cpp:382] first_conv_first_conv_relu_0_split -> first_conv_first_conv_relu_0_split_1
I0525 06:50:01.385201  2087 net.cpp:124] Setting up first_conv_first_conv_relu_0_split
I0525 06:50:01.385272  2087 net.cpp:131] Top shape: 1 16 32 32 (16384)
I0525 06:50:01.385355  2087 net.cpp:131] Top shape: 1 16 32 32 (16384)
I0525 06:50:01.385437  2087 net.cpp:139] Memory required for data: 405504
I0525 06:50:01.385502  2087 layer_factory.hpp:77] Creating layer group0_block0_conv0
I0525 06:50:01.385605  2087 net.cpp:86] Creating Layer group0_block0_conv0
I0525 06:50:01.385675  2087 net.cpp:408] group0_block0_conv0 <- first_conv_first_conv_relu_0_split_0
I0525 06:50:01.385789  2087 net.cpp:382] group0_block0_conv0 -> group0_block0_conv0
I0525 06:50:01.386297  2087 net.cpp:124] Setting up group0_block0_conv0
I0525 06:50:01.386379  2087 net.cpp:131] Top shape: 1 16 32 32 (16384)
I0525 06:50:01.386466  2087 net.cpp:139] Memory required for data: 471040
I0525 06:50:01.386581  2087 layer_factory.hpp:77] Creating layer group0_block0_conv0_bn
I0525 06:50:01.386677  2087 net.cpp:86] Creating Layer group0_block0_conv0_bn
I0525 06:50:01.386749  2087 net.cpp:408] group0_block0_conv0_bn <- group0_block0_conv0
I0525 06:50:01.386834  2087 net.cpp:369] group0_block0_conv0_bn -> group0_block0_conv0 (in-place)
I0525 06:50:01.387001  2087 net.cpp:124] Setting up group0_block0_conv0_bn
I0525 06:50:01.387071  2087 net.cpp:131] Top shape: 1 16 32 32 (16384)
I0525 06:50:01.387154  2087 net.cpp:139] Memory required for data: 536576
I0525 06:50:01.387265  2087 layer_factory.hpp:77] Creating layer group0_block0_conv0_scale
I0525 06:50:01.387372  2087 net.cpp:86] Creating Layer group0_block0_conv0_scale
I0525 06:50:01.387444  2087 net.cpp:408] group0_block0_conv0_scale <- group0_block0_conv0
I0525 06:50:01.387531  2087 net.cpp:369] group0_block0_conv0_scale -> group0_block0_conv0 (in-place)
I0525 06:50:01.387652  2087 layer_factory.hpp:77] Creating layer group0_block0_conv0_scale
I0525 06:50:01.387833  2087 net.cpp:124] Setting up group0_block0_conv0_scale
I0525 06:50:01.387908  2087 net.cpp:131] Top shape: 1 16 32 32 (16384)
I0525 06:50:01.388033  2087 net.cpp:139] Memory required for data: 602112
I0525 06:50:01.388206  2087 layer_factory.hpp:77] Creating layer group0_block0_conv0_relu
I0525 06:50:01.388355  2087 net.cpp:86] Creating Layer group0_block0_conv0_relu
I0525 06:50:01.388444  2087 net.cpp:408] group0_block0_conv0_relu <- group0_block0_conv0
I0525 06:50:01.388540  2087 net.cpp:369] group0_block0_conv0_relu -> group0_block0_conv0 (in-place)
I0525 06:50:01.388634  2087 net.cpp:124] Setting up group0_block0_conv0_relu
I0525 06:50:01.388701  2087 net.cpp:131] Top shape: 1 16 32 32 (16384)
I0525 06:50:01.388787  2087 net.cpp:139] Memory required for data: 667648
I0525 06:50:01.388852  2087 layer_factory.hpp:77] Creating layer group0_block0_conv1
I0525 06:50:01.388953  2087 net.cpp:86] Creating Layer group0_block0_conv1
I0525 06:50:01.389022  2087 net.cpp:408] group0_block0_conv1 <- group0_block0_conv0
I0525 06:50:01.389127  2087 net.cpp:382] group0_block0_conv1 -> group0_block0_conv1
I0525 06:50:01.389621  2087 net.cpp:124] Setting up group0_block0_conv1
I0525 06:50:01.389699  2087 net.cpp:131] Top shape: 1 16 32 32 (16384)
I0525 06:50:01.389787  2087 net.cpp:139] Memory required for data: 733184
I0525 06:50:01.389883  2087 layer_factory.hpp:77] Creating layer group0_block0_conv1_bn
I0525 06:50:01.389968  2087 net.cpp:86] Creating Layer group0_block0_conv1_bn
I0525 06:50:01.390038  2087 net.cpp:408] group0_block0_conv1_bn <- group0_block0_conv1
I0525 06:50:01.390120  2087 net.cpp:369] group0_block0_conv1_bn -> group0_block0_conv1 (in-place)
I0525 06:50:01.390305  2087 net.cpp:124] Setting up group0_block0_conv1_bn
I0525 06:50:01.390377  2087 net.cpp:131] Top shape: 1 16 32 32 (16384)
I0525 06:50:01.390462  2087 net.cpp:139] Memory required for data: 798720
I0525 06:50:01.390595  2087 layer_factory.hpp:77] Creating layer group0_block0_conv1_scale
I0525 06:50:01.390686  2087 net.cpp:86] Creating Layer group0_block0_conv1_scale
I0525 06:50:01.390755  2087 net.cpp:408] group0_block0_conv1_scale <- group0_block0_conv1
I0525 06:50:01.390841  2087 net.cpp:369] group0_block0_conv1_scale -> group0_block0_conv1 (in-place)
I0525 06:50:01.390964  2087 layer_factory.hpp:77] Creating layer group0_block0_conv1_scale
I0525 06:50:01.391160  2087 net.cpp:124] Setting up group0_block0_conv1_scale
I0525 06:50:01.391266  2087 net.cpp:131] Top shape: 1 16 32 32 (16384)
I0525 06:50:01.391357  2087 net.cpp:139] Memory required for data: 864256
I0525 06:50:01.391458  2087 layer_factory.hpp:77] Creating layer group0_block0_sum
I0525 06:50:01.391556  2087 net.cpp:86] Creating Layer group0_block0_sum
I0525 06:50:01.391626  2087 net.cpp:408] group0_block0_sum <- group0_block0_conv1
I0525 06:50:01.391703  2087 net.cpp:408] group0_block0_sum <- first_conv_first_conv_relu_0_split_1
I0525 06:50:01.391791  2087 net.cpp:382] group0_block0_sum -> group0_block0_sum
I0525 06:50:01.391908  2087 net.cpp:124] Setting up group0_block0_sum
I0525 06:50:01.391978  2087 net.cpp:131] Top shape: 1 16 32 32 (16384)
I0525 06:50:01.392063  2087 net.cpp:139] Memory required for data: 929792
I0525 06:50:01.392128  2087 layer_factory.hpp:77] Creating layer group0_block0_relu
I0525 06:50:01.392210  2087 net.cpp:86] Creating Layer group0_block0_relu
I0525 06:50:01.392277  2087 net.cpp:408] group0_block0_relu <- group0_block0_sum
I0525 06:50:01.392359  2087 net.cpp:369] group0_block0_relu -> group0_block0_sum (in-place)
I0525 06:50:01.392446  2087 net.cpp:124] Setting up group0_block0_relu
I0525 06:50:01.392510  2087 net.cpp:131] Top shape: 1 16 32 32 (16384)
I0525 06:50:01.392606  2087 net.cpp:139] Memory required for data: 995328
I0525 06:50:01.392673  2087 layer_factory.hpp:77] Creating layer group0_block0_sum_group0_block0_relu_0_split
I0525 06:50:01.392755  2087 net.cpp:86] Creating Layer group0_block0_sum_group0_block0_relu_0_split
I0525 06:50:01.392820  2087 net.cpp:408] group0_block0_sum_group0_block0_relu_0_split <- group0_block0_sum
I0525 06:50:01.392904  2087 net.cpp:382] group0_block0_sum_group0_block0_relu_0_split -> group0_block0_sum_group0_block0_relu_0_split_0
I0525 06:50:01.393041  2087 net.cpp:382] group0_block0_sum_group0_block0_relu_0_split -> group0_block0_sum_group0_block0_relu_0_split_1
I0525 06:50:01.393254  2087 net.cpp:124] Setting up group0_block0_sum_group0_block0_relu_0_split
I0525 06:50:01.393324  2087 net.cpp:131] Top shape: 1 16 32 32 (16384)
I0525 06:50:01.393414  2087 net.cpp:131] Top shape: 1 16 32 32 (16384)
I0525 06:50:01.393496  2087 net.cpp:139] Memory required for data: 1126400
I0525 06:50:01.393561  2087 layer_factory.hpp:77] Creating layer group0_block1_conv0
I0525 06:50:01.393689  2087 net.cpp:86] Creating Layer group0_block1_conv0
I0525 06:50:01.393761  2087 net.cpp:408] group0_block1_conv0 <- group0_block0_sum_group0_block0_relu_0_split_0
I0525 06:50:01.393867  2087 net.cpp:382] group0_block1_conv0 -> group0_block1_conv0
I0525 06:50:01.394385  2087 net.cpp:124] Setting up group0_block1_conv0
I0525 06:50:01.394469  2087 net.cpp:131] Top shape: 1 16 32 32 (16384)
I0525 06:50:01.394556  2087 net.cpp:139] Memory required for data: 1191936
I0525 06:50:01.394654  2087 layer_factory.hpp:77] Creating layer group0_block1_conv0_bn
I0525 06:50:01.394739  2087 net.cpp:86] Creating Layer group0_block1_conv0_bn
I0525 06:50:01.394809  2087 net.cpp:408] group0_block1_conv0_bn <- group0_block1_conv0
I0525 06:50:01.394901  2087 net.cpp:369] group0_block1_conv0_bn -> group0_block1_conv0 (in-place)
I0525 06:50:01.395072  2087 net.cpp:124] Setting up group0_block1_conv0_bn
I0525 06:50:01.395143  2087 net.cpp:131] Top shape: 1 16 32 32 (16384)
I0525 06:50:01.395227  2087 net.cpp:139] Memory required for data: 1257472
I0525 06:50:01.395339  2087 layer_factory.hpp:77] Creating layer group0_block1_conv0_scale
I0525 06:50:01.395427  2087 net.cpp:86] Creating Layer group0_block1_conv0_scale
I0525 06:50:01.395496  2087 net.cpp:408] group0_block1_conv0_scale <- group0_block1_conv0
I0525 06:50:01.395591  2087 net.cpp:369] group0_block1_conv0_scale -> group0_block1_conv0 (in-place)
I0525 06:50:01.395714  2087 layer_factory.hpp:77] Creating layer group0_block1_conv0_scale
I0525 06:50:01.395893  2087 net.cpp:124] Setting up group0_block1_conv0_scale
I0525 06:50:01.395968  2087 net.cpp:131] Top shape: 1 16 32 32 (16384)
I0525 06:50:01.396054  2087 net.cpp:139] Memory required for data: 1323008
I0525 06:50:01.396150  2087 layer_factory.hpp:77] Creating layer group0_block1_conv0_relu
I0525 06:50:01.396235  2087 net.cpp:86] Creating Layer group0_block1_conv0_relu
I0525 06:50:01.396303  2087 net.cpp:408] group0_block1_conv0_relu <- group0_block1_conv0
I0525 06:50:01.396387  2087 net.cpp:369] group0_block1_conv0_relu -> group0_block1_conv0 (in-place)
I0525 06:50:01.396477  2087 net.cpp:124] Setting up group0_block1_conv0_relu
I0525 06:50:01.396543  2087 net.cpp:131] Top shape: 1 16 32 32 (16384)
I0525 06:50:01.396627  2087 net.cpp:139] Memory required for data: 1388544
I0525 06:50:01.396692  2087 layer_factory.hpp:77] Creating layer group0_block1_conv1
I0525 06:50:01.396812  2087 net.cpp:86] Creating Layer group0_block1_conv1
I0525 06:50:01.396886  2087 net.cpp:408] group0_block1_conv1 <- group0_block1_conv0
I0525 06:50:01.396981  2087 net.cpp:382] group0_block1_conv1 -> group0_block1_conv1
I0525 06:50:01.397478  2087 net.cpp:124] Setting up group0_block1_conv1
I0525 06:50:01.397559  2087 net.cpp:131] Top shape: 1 16 32 32 (16384)
I0525 06:50:01.397655  2087 net.cpp:139] Memory required for data: 1454080
I0525 06:50:01.397751  2087 layer_factory.hpp:77] Creating layer group0_block1_conv1_bn
I0525 06:50:01.397836  2087 net.cpp:86] Creating Layer group0_block1_conv1_bn
I0525 06:50:01.397905  2087 net.cpp:408] group0_block1_conv1_bn <- group0_block1_conv1
I0525 06:50:01.397990  2087 net.cpp:369] group0_block1_conv1_bn -> group0_block1_conv1 (in-place)
I0525 06:50:01.398156  2087 net.cpp:124] Setting up group0_block1_conv1_bn
I0525 06:50:01.398228  2087 net.cpp:131] Top shape: 1 16 32 32 (16384)
I0525 06:50:01.398398  2087 net.cpp:139] Memory required for data: 1519616
I0525 06:50:01.398547  2087 layer_factory.hpp:77] Creating layer group0_block1_conv1_scale
I0525 06:50:01.398641  2087 net.cpp:86] Creating Layer group0_block1_conv1_scale
I0525 06:50:01.398835  2087 net.cpp:408] group0_block1_conv1_scale <- group0_block1_conv1
I0525 06:50:01.398932  2087 net.cpp:369] group0_block1_conv1_scale -> group0_block1_conv1 (in-place)
I0525 06:50:01.399062  2087 layer_factory.hpp:77] Creating layer group0_block1_conv1_scale
I0525 06:50:01.399242  2087 net.cpp:124] Setting up group0_block1_conv1_scale
I0525 06:50:01.399317  2087 net.cpp:131] Top shape: 1 16 32 32 (16384)
I0525 06:50:01.399403  2087 net.cpp:139] Memory required for data: 1585152
I0525 06:50:01.399511  2087 layer_factory.hpp:77] Creating layer group0_block1_sum
I0525 06:50:01.399600  2087 net.cpp:86] Creating Layer group0_block1_sum
I0525 06:50:01.399668  2087 net.cpp:408] group0_block1_sum <- group0_block1_conv1
I0525 06:50:01.399744  2087 net.cpp:408] group0_block1_sum <- group0_block0_sum_group0_block0_relu_0_split_1
I0525 06:50:01.399830  2087 net.cpp:382] group0_block1_sum -> group0_block1_sum
I0525 06:50:01.399932  2087 net.cpp:124] Setting up group0_block1_sum
I0525 06:50:01.399999  2087 net.cpp:131] Top shape: 1 16 32 32 (16384)
I0525 06:50:01.400082  2087 net.cpp:139] Memory required for data: 1650688
I0525 06:50:01.400146  2087 layer_factory.hpp:77] Creating layer group0_block1_relu
I0525 06:50:01.400228  2087 net.cpp:86] Creating Layer group0_block1_relu
I0525 06:50:01.400295  2087 net.cpp:408] group0_block1_relu <- group0_block1_sum
I0525 06:50:01.400377  2087 net.cpp:369] group0_block1_relu -> group0_block1_sum (in-place)
I0525 06:50:01.400463  2087 net.cpp:124] Setting up group0_block1_relu
I0525 06:50:01.400527  2087 net.cpp:131] Top shape: 1 16 32 32 (16384)
I0525 06:50:01.400620  2087 net.cpp:139] Memory required for data: 1716224
I0525 06:50:01.400686  2087 layer_factory.hpp:77] Creating layer group0_block1_sum_group0_block1_relu_0_split
I0525 06:50:01.400768  2087 net.cpp:86] Creating Layer group0_block1_sum_group0_block1_relu_0_split
I0525 06:50:01.400833  2087 net.cpp:408] group0_block1_sum_group0_block1_relu_0_split <- group0_block1_sum
I0525 06:50:01.400918  2087 net.cpp:382] group0_block1_sum_group0_block1_relu_0_split -> group0_block1_sum_group0_block1_relu_0_split_0
I0525 06:50:01.401015  2087 net.cpp:382] group0_block1_sum_group0_block1_relu_0_split -> group0_block1_sum_group0_block1_relu_0_split_1
I0525 06:50:01.401118  2087 net.cpp:124] Setting up group0_block1_sum_group0_block1_relu_0_split
I0525 06:50:01.401183  2087 net.cpp:131] Top shape: 1 16 32 32 (16384)
I0525 06:50:01.401268  2087 net.cpp:131] Top shape: 1 16 32 32 (16384)
I0525 06:50:01.401347  2087 net.cpp:139] Memory required for data: 1847296
I0525 06:50:01.401412  2087 layer_factory.hpp:77] Creating layer group0_block2_conv0
I0525 06:50:01.401512  2087 net.cpp:86] Creating Layer group0_block2_conv0
I0525 06:50:01.401583  2087 net.cpp:408] group0_block2_conv0 <- group0_block1_sum_group0_block1_relu_0_split_0
I0525 06:50:01.401676  2087 net.cpp:382] group0_block2_conv0 -> group0_block2_conv0
I0525 06:50:01.402189  2087 net.cpp:124] Setting up group0_block2_conv0
I0525 06:50:01.402304  2087 net.cpp:131] Top shape: 1 16 32 32 (16384)
I0525 06:50:01.402398  2087 net.cpp:139] Memory required for data: 1912832
I0525 06:50:01.402498  2087 layer_factory.hpp:77] Creating layer group0_block2_conv0_bn
I0525 06:50:01.402585  2087 net.cpp:86] Creating Layer group0_block2_conv0_bn
I0525 06:50:01.402653  2087 net.cpp:408] group0_block2_conv0_bn <- group0_block2_conv0
I0525 06:50:01.402738  2087 net.cpp:369] group0_block2_conv0_bn -> group0_block2_conv0 (in-place)
I0525 06:50:01.402905  2087 net.cpp:124] Setting up group0_block2_conv0_bn
I0525 06:50:01.402977  2087 net.cpp:131] Top shape: 1 16 32 32 (16384)
I0525 06:50:01.403061  2087 net.cpp:139] Memory required for data: 1978368
I0525 06:50:01.403172  2087 layer_factory.hpp:77] Creating layer group0_block2_conv0_scale
I0525 06:50:01.403259  2087 net.cpp:86] Creating Layer group0_block2_conv0_scale
I0525 06:50:01.403328  2087 net.cpp:408] group0_block2_conv0_scale <- group0_block2_conv0
I0525 06:50:01.403412  2087 net.cpp:369] group0_block2_conv0_scale -> group0_block2_conv0 (in-place)
I0525 06:50:01.403651  2087 layer_factory.hpp:77] Creating layer group0_block2_conv0_scale
I0525 06:50:01.403831  2087 net.cpp:124] Setting up group0_block2_conv0_scale
I0525 06:50:01.403913  2087 net.cpp:131] Top shape: 1 16 32 32 (16384)
I0525 06:50:01.403998  2087 net.cpp:139] Memory required for data: 2043904
I0525 06:50:01.404096  2087 layer_factory.hpp:77] Creating layer group0_block2_conv0_relu
I0525 06:50:01.404181  2087 net.cpp:86] Creating Layer group0_block2_conv0_relu
I0525 06:50:01.404248  2087 net.cpp:408] group0_block2_conv0_relu <- group0_block2_conv0
I0525 06:50:01.404331  2087 net.cpp:369] group0_block2_conv0_relu -> group0_block2_conv0 (in-place)
I0525 06:50:01.404420  2087 net.cpp:124] Setting up group0_block2_conv0_relu
I0525 06:50:01.404484  2087 net.cpp:131] Top shape: 1 16 32 32 (16384)
I0525 06:50:01.404568  2087 net.cpp:139] Memory required for data: 2109440
I0525 06:50:01.404633  2087 layer_factory.hpp:77] Creating layer group0_block2_conv1
I0525 06:50:01.404734  2087 net.cpp:86] Creating Layer group0_block2_conv1
I0525 06:50:01.404803  2087 net.cpp:408] group0_block2_conv1 <- group0_block2_conv0
I0525 06:50:01.404906  2087 net.cpp:382] group0_block2_conv1 -> group0_block2_conv1
I0525 06:50:01.405414  2087 net.cpp:124] Setting up group0_block2_conv1
I0525 06:50:01.405496  2087 net.cpp:131] Top shape: 1 16 32 32 (16384)
I0525 06:50:01.405583  2087 net.cpp:139] Memory required for data: 2174976
I0525 06:50:01.405683  2087 layer_factory.hpp:77] Creating layer group0_block2_conv1_bn
I0525 06:50:01.405776  2087 net.cpp:86] Creating Layer group0_block2_conv1_bn
I0525 06:50:01.405846  2087 net.cpp:408] group0_block2_conv1_bn <- group0_block2_conv1
I0525 06:50:01.405930  2087 net.cpp:369] group0_block2_conv1_bn -> group0_block2_conv1 (in-place)
I0525 06:50:01.406112  2087 net.cpp:124] Setting up group0_block2_conv1_bn
I0525 06:50:01.406183  2087 net.cpp:131] Top shape: 1 16 32 32 (16384)
I0525 06:50:01.406270  2087 net.cpp:139] Memory required for data: 2240512
I0525 06:50:01.406379  2087 layer_factory.hpp:77] Creating layer group0_block2_conv1_scale
I0525 06:50:01.406518  2087 net.cpp:86] Creating Layer group0_block2_conv1_scale
I0525 06:50:01.406594  2087 net.cpp:408] group0_block2_conv1_scale <- group0_block2_conv1
I0525 06:50:01.406682  2087 net.cpp:369] group0_block2_conv1_scale -> group0_block2_conv1 (in-place)
I0525 06:50:01.406805  2087 layer_factory.hpp:77] Creating layer group0_block2_conv1_scale
I0525 06:50:01.406980  2087 net.cpp:124] Setting up group0_block2_conv1_scale
I0525 06:50:01.407050  2087 net.cpp:131] Top shape: 1 16 32 32 (16384)
I0525 06:50:01.407146  2087 net.cpp:139] Memory required for data: 2306048
I0525 06:50:01.407245  2087 layer_factory.hpp:77] Creating layer group0_block2_sum
I0525 06:50:01.407335  2087 net.cpp:86] Creating Layer group0_block2_sum
I0525 06:50:01.407405  2087 net.cpp:408] group0_block2_sum <- group0_block2_conv1
I0525 06:50:01.407480  2087 net.cpp:408] group0_block2_sum <- group0_block1_sum_group0_block1_relu_0_split_1
I0525 06:50:01.407569  2087 net.cpp:382] group0_block2_sum -> group0_block2_sum
I0525 06:50:01.407703  2087 net.cpp:124] Setting up group0_block2_sum
I0525 06:50:01.407778  2087 net.cpp:131] Top shape: 1 16 32 32 (16384)
I0525 06:50:01.407861  2087 net.cpp:139] Memory required for data: 2371584
I0525 06:50:01.407927  2087 layer_factory.hpp:77] Creating layer group0_block2_relu
I0525 06:50:01.408008  2087 net.cpp:86] Creating Layer group0_block2_relu
I0525 06:50:01.408077  2087 net.cpp:408] group0_block2_relu <- group0_block2_sum
I0525 06:50:01.408159  2087 net.cpp:369] group0_block2_relu -> group0_block2_sum (in-place)
I0525 06:50:01.408291  2087 net.cpp:124] Setting up group0_block2_relu
I0525 06:50:01.408380  2087 net.cpp:131] Top shape: 1 16 32 32 (16384)
I0525 06:50:01.408465  2087 net.cpp:139] Memory required for data: 2437120
I0525 06:50:01.408531  2087 layer_factory.hpp:77] Creating layer group0_block2_sum_group0_block2_relu_0_split
I0525 06:50:01.408614  2087 net.cpp:86] Creating Layer group0_block2_sum_group0_block2_relu_0_split
I0525 06:50:01.408803  2087 net.cpp:408] group0_block2_sum_group0_block2_relu_0_split <- group0_block2_sum
I0525 06:50:01.408897  2087 net.cpp:382] group0_block2_sum_group0_block2_relu_0_split -> group0_block2_sum_group0_block2_relu_0_split_0
I0525 06:50:01.409006  2087 net.cpp:382] group0_block2_sum_group0_block2_relu_0_split -> group0_block2_sum_group0_block2_relu_0_split_1
I0525 06:50:01.409114  2087 net.cpp:124] Setting up group0_block2_sum_group0_block2_relu_0_split
I0525 06:50:01.409183  2087 net.cpp:131] Top shape: 1 16 32 32 (16384)
I0525 06:50:01.409266  2087 net.cpp:131] Top shape: 1 16 32 32 (16384)
I0525 06:50:01.409348  2087 net.cpp:139] Memory required for data: 2568192
I0525 06:50:01.409415  2087 layer_factory.hpp:77] Creating layer group1_block0_conv0
I0525 06:50:01.409518  2087 net.cpp:86] Creating Layer group1_block0_conv0
I0525 06:50:01.409590  2087 net.cpp:408] group1_block0_conv0 <- group0_block2_sum_group0_block2_relu_0_split_0
I0525 06:50:01.409684  2087 net.cpp:382] group1_block0_conv0 -> group1_block0_conv0
I0525 06:50:01.410454  2087 net.cpp:124] Setting up group1_block0_conv0
I0525 06:50:01.410537  2087 net.cpp:131] Top shape: 1 32 16 16 (8192)
I0525 06:50:01.410624  2087 net.cpp:139] Memory required for data: 2600960
I0525 06:50:01.410723  2087 layer_factory.hpp:77] Creating layer group1_block0_conv0_bn
I0525 06:50:01.410818  2087 net.cpp:86] Creating Layer group1_block0_conv0_bn
I0525 06:50:01.410890  2087 net.cpp:408] group1_block0_conv0_bn <- group1_block0_conv0
I0525 06:50:01.410975  2087 net.cpp:369] group1_block0_conv0_bn -> group1_block0_conv0 (in-place)
I0525 06:50:01.411134  2087 net.cpp:124] Setting up group1_block0_conv0_bn
I0525 06:50:01.411203  2087 net.cpp:131] Top shape: 1 32 16 16 (8192)
I0525 06:50:01.411288  2087 net.cpp:139] Memory required for data: 2633728
I0525 06:50:01.411396  2087 layer_factory.hpp:77] Creating layer group1_block0_conv0_scale
I0525 06:50:01.411482  2087 net.cpp:86] Creating Layer group1_block0_conv0_scale
I0525 06:50:01.411553  2087 net.cpp:408] group1_block0_conv0_scale <- group1_block0_conv0
I0525 06:50:01.411639  2087 net.cpp:369] group1_block0_conv0_scale -> group1_block0_conv0 (in-place)
I0525 06:50:01.411763  2087 layer_factory.hpp:77] Creating layer group1_block0_conv0_scale
I0525 06:50:01.411934  2087 net.cpp:124] Setting up group1_block0_conv0_scale
I0525 06:50:01.412007  2087 net.cpp:131] Top shape: 1 32 16 16 (8192)
I0525 06:50:01.412091  2087 net.cpp:139] Memory required for data: 2666496
I0525 06:50:01.412187  2087 layer_factory.hpp:77] Creating layer group1_block0_conv0_relu
I0525 06:50:01.412271  2087 net.cpp:86] Creating Layer group1_block0_conv0_relu
I0525 06:50:01.412338  2087 net.cpp:408] group1_block0_conv0_relu <- group1_block0_conv0
I0525 06:50:01.412422  2087 net.cpp:369] group1_block0_conv0_relu -> group1_block0_conv0 (in-place)
I0525 06:50:01.412511  2087 net.cpp:124] Setting up group1_block0_conv0_relu
I0525 06:50:01.412575  2087 net.cpp:131] Top shape: 1 32 16 16 (8192)
I0525 06:50:01.412658  2087 net.cpp:139] Memory required for data: 2699264
I0525 06:50:01.412724  2087 layer_factory.hpp:77] Creating layer group1_block0_conv1
I0525 06:50:01.412844  2087 net.cpp:86] Creating Layer group1_block0_conv1
I0525 06:50:01.412919  2087 net.cpp:408] group1_block0_conv1 <- group1_block0_conv0
I0525 06:50:01.413013  2087 net.cpp:382] group1_block0_conv1 -> group1_block0_conv1
I0525 06:50:01.414362  2087 net.cpp:124] Setting up group1_block0_conv1
I0525 06:50:01.414449  2087 net.cpp:131] Top shape: 1 32 16 16 (8192)
I0525 06:50:01.414551  2087 net.cpp:139] Memory required for data: 2732032
I0525 06:50:01.414650  2087 layer_factory.hpp:77] Creating layer group1_block0_conv1_bn
I0525 06:50:01.414736  2087 net.cpp:86] Creating Layer group1_block0_conv1_bn
I0525 06:50:01.414808  2087 net.cpp:408] group1_block0_conv1_bn <- group1_block0_conv1
I0525 06:50:01.414892  2087 net.cpp:369] group1_block0_conv1_bn -> group1_block0_conv1 (in-place)
I0525 06:50:01.415058  2087 net.cpp:124] Setting up group1_block0_conv1_bn
I0525 06:50:01.415174  2087 net.cpp:131] Top shape: 1 32 16 16 (8192)
I0525 06:50:01.415349  2087 net.cpp:139] Memory required for data: 2764800
I0525 06:50:01.415465  2087 layer_factory.hpp:77] Creating layer group1_block0_conv1_scale
I0525 06:50:01.415553  2087 net.cpp:86] Creating Layer group1_block0_conv1_scale
I0525 06:50:01.415623  2087 net.cpp:408] group1_block0_conv1_scale <- group1_block0_conv1
I0525 06:50:01.415719  2087 net.cpp:369] group1_block0_conv1_scale -> group1_block0_conv1 (in-place)
I0525 06:50:01.415846  2087 layer_factory.hpp:77] Creating layer group1_block0_conv1_scale
I0525 06:50:01.416018  2087 net.cpp:124] Setting up group1_block0_conv1_scale
I0525 06:50:01.416091  2087 net.cpp:131] Top shape: 1 32 16 16 (8192)
I0525 06:50:01.416175  2087 net.cpp:139] Memory required for data: 2797568
I0525 06:50:01.416272  2087 layer_factory.hpp:77] Creating layer group1_block0_proj
I0525 06:50:01.416378  2087 net.cpp:86] Creating Layer group1_block0_proj
I0525 06:50:01.416450  2087 net.cpp:408] group1_block0_proj <- group0_block2_sum_group0_block2_relu_0_split_1
I0525 06:50:01.416564  2087 net.cpp:382] group1_block0_proj -> group1_block0_proj
I0525 06:50:01.416852  2087 net.cpp:124] Setting up group1_block0_proj
I0525 06:50:01.416939  2087 net.cpp:131] Top shape: 1 32 16 16 (8192)
I0525 06:50:01.417026  2087 net.cpp:139] Memory required for data: 2830336
I0525 06:50:01.417189  2087 layer_factory.hpp:77] Creating layer group1_block0_proj_bn
I0525 06:50:01.417284  2087 net.cpp:86] Creating Layer group1_block0_proj_bn
I0525 06:50:01.417354  2087 net.cpp:408] group1_block0_proj_bn <- group1_block0_proj
I0525 06:50:01.417441  2087 net.cpp:369] group1_block0_proj_bn -> group1_block0_proj (in-place)
I0525 06:50:01.417605  2087 net.cpp:124] Setting up group1_block0_proj_bn
I0525 06:50:01.417675  2087 net.cpp:131] Top shape: 1 32 16 16 (8192)
I0525 06:50:01.417758  2087 net.cpp:139] Memory required for data: 2863104
I0525 06:50:01.417871  2087 layer_factory.hpp:77] Creating layer group1_block0_proj_scale
I0525 06:50:01.417958  2087 net.cpp:86] Creating Layer group1_block0_proj_scale
I0525 06:50:01.418030  2087 net.cpp:408] group1_block0_proj_scale <- group1_block0_proj
I0525 06:50:01.418115  2087 net.cpp:369] group1_block0_proj_scale -> group1_block0_proj (in-place)
I0525 06:50:01.418282  2087 layer_factory.hpp:77] Creating layer group1_block0_proj_scale
I0525 06:50:01.418478  2087 net.cpp:124] Setting up group1_block0_proj_scale
I0525 06:50:01.418555  2087 net.cpp:131] Top shape: 1 32 16 16 (8192)
I0525 06:50:01.418653  2087 net.cpp:139] Memory required for data: 2895872
I0525 06:50:01.418752  2087 layer_factory.hpp:77] Creating layer group1_block0_sum
I0525 06:50:01.418839  2087 net.cpp:86] Creating Layer group1_block0_sum
I0525 06:50:01.418910  2087 net.cpp:408] group1_block0_sum <- group1_block0_proj
I0525 06:50:01.418987  2087 net.cpp:408] group1_block0_sum <- group1_block0_conv1
I0525 06:50:01.419075  2087 net.cpp:382] group1_block0_sum -> group1_block0_sum
I0525 06:50:01.419178  2087 net.cpp:124] Setting up group1_block0_sum
I0525 06:50:01.419246  2087 net.cpp:131] Top shape: 1 32 16 16 (8192)
I0525 06:50:01.419332  2087 net.cpp:139] Memory required for data: 2928640
I0525 06:50:01.419396  2087 layer_factory.hpp:77] Creating layer group1_block0_relu
I0525 06:50:01.419477  2087 net.cpp:86] Creating Layer group1_block0_relu
I0525 06:50:01.419545  2087 net.cpp:408] group1_block0_relu <- group1_block0_sum
I0525 06:50:01.419627  2087 net.cpp:369] group1_block0_relu -> group1_block0_sum (in-place)
I0525 06:50:01.419714  2087 net.cpp:124] Setting up group1_block0_relu
I0525 06:50:01.419778  2087 net.cpp:131] Top shape: 1 32 16 16 (8192)
I0525 06:50:01.419862  2087 net.cpp:139] Memory required for data: 2961408
I0525 06:50:01.419927  2087 layer_factory.hpp:77] Creating layer group1_block0_sum_group1_block0_relu_0_split
I0525 06:50:01.420011  2087 net.cpp:86] Creating Layer group1_block0_sum_group1_block0_relu_0_split
I0525 06:50:01.420078  2087 net.cpp:408] group1_block0_sum_group1_block0_relu_0_split <- group1_block0_sum
I0525 06:50:01.420207  2087 net.cpp:382] group1_block0_sum_group1_block0_relu_0_split -> group1_block0_sum_group1_block0_relu_0_split_0
I0525 06:50:01.420395  2087 net.cpp:382] group1_block0_sum_group1_block0_relu_0_split -> group1_block0_sum_group1_block0_relu_0_split_1
I0525 06:50:01.420511  2087 net.cpp:124] Setting up group1_block0_sum_group1_block0_relu_0_split
I0525 06:50:01.420583  2087 net.cpp:131] Top shape: 1 32 16 16 (8192)
I0525 06:50:01.420667  2087 net.cpp:131] Top shape: 1 32 16 16 (8192)
I0525 06:50:01.420750  2087 net.cpp:139] Memory required for data: 3026944
I0525 06:50:01.420815  2087 layer_factory.hpp:77] Creating layer group1_block1_conv0
I0525 06:50:01.420922  2087 net.cpp:86] Creating Layer group1_block1_conv0
I0525 06:50:01.420992  2087 net.cpp:408] group1_block1_conv0 <- group1_block0_sum_group1_block0_relu_0_split_0
I0525 06:50:01.421087  2087 net.cpp:382] group1_block1_conv0 -> group1_block1_conv0
I0525 06:50:01.422400  2087 net.cpp:124] Setting up group1_block1_conv0
I0525 06:50:01.422485  2087 net.cpp:131] Top shape: 1 32 16 16 (8192)
I0525 06:50:01.422574  2087 net.cpp:139] Memory required for data: 3059712
I0525 06:50:01.422672  2087 layer_factory.hpp:77] Creating layer group1_block1_conv0_bn
I0525 06:50:01.422778  2087 net.cpp:86] Creating Layer group1_block1_conv0_bn
I0525 06:50:01.422852  2087 net.cpp:408] group1_block1_conv0_bn <- group1_block1_conv0
I0525 06:50:01.422936  2087 net.cpp:369] group1_block1_conv0_bn -> group1_block1_conv0 (in-place)
I0525 06:50:01.423101  2087 net.cpp:124] Setting up group1_block1_conv0_bn
I0525 06:50:01.423175  2087 net.cpp:131] Top shape: 1 32 16 16 (8192)
I0525 06:50:01.423260  2087 net.cpp:139] Memory required for data: 3092480
I0525 06:50:01.423372  2087 layer_factory.hpp:77] Creating layer group1_block1_conv0_scale
I0525 06:50:01.423460  2087 net.cpp:86] Creating Layer group1_block1_conv0_scale
I0525 06:50:01.423530  2087 net.cpp:408] group1_block1_conv0_scale <- group1_block1_conv0
I0525 06:50:01.423615  2087 net.cpp:369] group1_block1_conv0_scale -> group1_block1_conv0 (in-place)
I0525 06:50:01.423740  2087 layer_factory.hpp:77] Creating layer group1_block1_conv0_scale
I0525 06:50:01.423913  2087 net.cpp:124] Setting up group1_block1_conv0_scale
I0525 06:50:01.423983  2087 net.cpp:131] Top shape: 1 32 16 16 (8192)
I0525 06:50:01.424079  2087 net.cpp:139] Memory required for data: 3125248
I0525 06:50:01.424176  2087 layer_factory.hpp:77] Creating layer group1_block1_conv0_relu
I0525 06:50:01.424259  2087 net.cpp:86] Creating Layer group1_block1_conv0_relu
I0525 06:50:01.424329  2087 net.cpp:408] group1_block1_conv0_relu <- group1_block1_conv0
I0525 06:50:01.424412  2087 net.cpp:369] group1_block1_conv0_relu -> group1_block1_conv0 (in-place)
I0525 06:50:01.424500  2087 net.cpp:124] Setting up group1_block1_conv0_relu
I0525 06:50:01.424566  2087 net.cpp:131] Top shape: 1 32 16 16 (8192)
I0525 06:50:01.424649  2087 net.cpp:139] Memory required for data: 3158016
I0525 06:50:01.424715  2087 layer_factory.hpp:77] Creating layer group1_block1_conv1
I0525 06:50:01.424824  2087 net.cpp:86] Creating Layer group1_block1_conv1
I0525 06:50:01.424897  2087 net.cpp:408] group1_block1_conv1 <- group1_block1_conv0
I0525 06:50:01.424991  2087 net.cpp:382] group1_block1_conv1 -> group1_block1_conv1
I0525 06:50:01.426350  2087 net.cpp:124] Setting up group1_block1_conv1
I0525 06:50:01.426472  2087 net.cpp:131] Top shape: 1 32 16 16 (8192)
I0525 06:50:01.426568  2087 net.cpp:139] Memory required for data: 3190784
I0525 06:50:01.426679  2087 layer_factory.hpp:77] Creating layer group1_block1_conv1_bn
I0525 06:50:01.426769  2087 net.cpp:86] Creating Layer group1_block1_conv1_bn
I0525 06:50:01.426839  2087 net.cpp:408] group1_block1_conv1_bn <- group1_block1_conv1
I0525 06:50:01.426923  2087 net.cpp:369] group1_block1_conv1_bn -> group1_block1_conv1 (in-place)
I0525 06:50:01.427090  2087 net.cpp:124] Setting up group1_block1_conv1_bn
I0525 06:50:01.427162  2087 net.cpp:131] Top shape: 1 32 16 16 (8192)
I0525 06:50:01.427246  2087 net.cpp:139] Memory required for data: 3223552
I0525 06:50:01.427402  2087 layer_factory.hpp:77] Creating layer group1_block1_conv1_scale
I0525 06:50:01.427568  2087 net.cpp:86] Creating Layer group1_block1_conv1_scale
I0525 06:50:01.427641  2087 net.cpp:408] group1_block1_conv1_scale <- group1_block1_conv1
I0525 06:50:01.427728  2087 net.cpp:369] group1_block1_conv1_scale -> group1_block1_conv1 (in-place)
I0525 06:50:01.427853  2087 layer_factory.hpp:77] Creating layer group1_block1_conv1_scale
I0525 06:50:01.428026  2087 net.cpp:124] Setting up group1_block1_conv1_scale
I0525 06:50:01.428097  2087 net.cpp:131] Top shape: 1 32 16 16 (8192)
I0525 06:50:01.428192  2087 net.cpp:139] Memory required for data: 3256320
I0525 06:50:01.428344  2087 layer_factory.hpp:77] Creating layer group1_block1_sum
I0525 06:50:01.428453  2087 net.cpp:86] Creating Layer group1_block1_sum
I0525 06:50:01.428525  2087 net.cpp:408] group1_block1_sum <- group1_block1_conv1
I0525 06:50:01.428603  2087 net.cpp:408] group1_block1_sum <- group1_block0_sum_group1_block0_relu_0_split_1
I0525 06:50:01.428691  2087 net.cpp:382] group1_block1_sum -> group1_block1_sum
I0525 06:50:01.428805  2087 net.cpp:124] Setting up group1_block1_sum
I0525 06:50:01.428876  2087 net.cpp:131] Top shape: 1 32 16 16 (8192)
I0525 06:50:01.428963  2087 net.cpp:139] Memory required for data: 3289088
I0525 06:50:01.429030  2087 layer_factory.hpp:77] Creating layer group1_block1_relu
I0525 06:50:01.429111  2087 net.cpp:86] Creating Layer group1_block1_relu
I0525 06:50:01.429179  2087 net.cpp:408] group1_block1_relu <- group1_block1_sum
I0525 06:50:01.429262  2087 net.cpp:369] group1_block1_relu -> group1_block1_sum (in-place)
I0525 06:50:01.429352  2087 net.cpp:124] Setting up group1_block1_relu
I0525 06:50:01.429419  2087 net.cpp:131] Top shape: 1 32 16 16 (8192)
I0525 06:50:01.429503  2087 net.cpp:139] Memory required for data: 3321856
I0525 06:50:01.429569  2087 layer_factory.hpp:77] Creating layer group1_block1_sum_group1_block1_relu_0_split
I0525 06:50:01.429651  2087 net.cpp:86] Creating Layer group1_block1_sum_group1_block1_relu_0_split
I0525 06:50:01.429719  2087 net.cpp:408] group1_block1_sum_group1_block1_relu_0_split <- group1_block1_sum
I0525 06:50:01.429803  2087 net.cpp:382] group1_block1_sum_group1_block1_relu_0_split -> group1_block1_sum_group1_block1_relu_0_split_0
I0525 06:50:01.429901  2087 net.cpp:382] group1_block1_sum_group1_block1_relu_0_split -> group1_block1_sum_group1_block1_relu_0_split_1
I0525 06:50:01.430013  2087 net.cpp:124] Setting up group1_block1_sum_group1_block1_relu_0_split
I0525 06:50:01.430083  2087 net.cpp:131] Top shape: 1 32 16 16 (8192)
I0525 06:50:01.430168  2087 net.cpp:131] Top shape: 1 32 16 16 (8192)
I0525 06:50:01.430251  2087 net.cpp:139] Memory required for data: 3387392
I0525 06:50:01.430318  2087 layer_factory.hpp:77] Creating layer group1_block2_conv0
I0525 06:50:01.430418  2087 net.cpp:86] Creating Layer group1_block2_conv0
I0525 06:50:01.430490  2087 net.cpp:408] group1_block2_conv0 <- group1_block1_sum_group1_block1_relu_0_split_0
I0525 06:50:01.430593  2087 net.cpp:382] group1_block2_conv0 -> group1_block2_conv0
I0525 06:50:01.431936  2087 net.cpp:124] Setting up group1_block2_conv0
I0525 06:50:01.432021  2087 net.cpp:131] Top shape: 1 32 16 16 (8192)
I0525 06:50:01.432108  2087 net.cpp:139] Memory required for data: 3420160
I0525 06:50:01.432222  2087 layer_factory.hpp:77] Creating layer group1_block2_conv0_bn
I0525 06:50:01.432310  2087 net.cpp:86] Creating Layer group1_block2_conv0_bn
I0525 06:50:01.432382  2087 net.cpp:408] group1_block2_conv0_bn <- group1_block2_conv0
I0525 06:50:01.432466  2087 net.cpp:369] group1_block2_conv0_bn -> group1_block2_conv0 (in-place)
I0525 06:50:01.432631  2087 net.cpp:124] Setting up group1_block2_conv0_bn
I0525 06:50:01.432705  2087 net.cpp:131] Top shape: 1 32 16 16 (8192)
I0525 06:50:01.432790  2087 net.cpp:139] Memory required for data: 3452928
I0525 06:50:01.432902  2087 layer_factory.hpp:77] Creating layer group1_block2_conv0_scale
I0525 06:50:01.432987  2087 net.cpp:86] Creating Layer group1_block2_conv0_scale
I0525 06:50:01.433102  2087 net.cpp:408] group1_block2_conv0_scale <- group1_block2_conv0
I0525 06:50:01.433277  2087 net.cpp:369] group1_block2_conv0_scale -> group1_block2_conv0 (in-place)
I0525 06:50:01.433405  2087 layer_factory.hpp:77] Creating layer group1_block2_conv0_scale
I0525 06:50:01.433580  2087 net.cpp:124] Setting up group1_block2_conv0_scale
I0525 06:50:01.433653  2087 net.cpp:131] Top shape: 1 32 16 16 (8192)
I0525 06:50:01.433749  2087 net.cpp:139] Memory required for data: 3485696
I0525 06:50:01.433849  2087 layer_factory.hpp:77] Creating layer group1_block2_conv0_relu
I0525 06:50:01.433933  2087 net.cpp:86] Creating Layer group1_block2_conv0_relu
I0525 06:50:01.434005  2087 net.cpp:408] group1_block2_conv0_relu <- group1_block2_conv0
I0525 06:50:01.434088  2087 net.cpp:369] group1_block2_conv0_relu -> group1_block2_conv0 (in-place)
I0525 06:50:01.434177  2087 net.cpp:124] Setting up group1_block2_conv0_relu
I0525 06:50:01.434243  2087 net.cpp:131] Top shape: 1 32 16 16 (8192)
I0525 06:50:01.434326  2087 net.cpp:139] Memory required for data: 3518464
I0525 06:50:01.434391  2087 layer_factory.hpp:77] Creating layer group1_block2_conv1
I0525 06:50:01.434499  2087 net.cpp:86] Creating Layer group1_block2_conv1
I0525 06:50:01.434571  2087 net.cpp:408] group1_block2_conv1 <- group1_block2_conv0
I0525 06:50:01.434667  2087 net.cpp:382] group1_block2_conv1 -> group1_block2_conv1
I0525 06:50:01.436060  2087 net.cpp:124] Setting up group1_block2_conv1
I0525 06:50:01.436179  2087 net.cpp:131] Top shape: 1 32 16 16 (8192)
I0525 06:50:01.436275  2087 net.cpp:139] Memory required for data: 3551232
I0525 06:50:01.436375  2087 layer_factory.hpp:77] Creating layer group1_block2_conv1_bn
I0525 06:50:01.436568  2087 net.cpp:86] Creating Layer group1_block2_conv1_bn
I0525 06:50:01.436647  2087 net.cpp:408] group1_block2_conv1_bn <- group1_block2_conv1
I0525 06:50:01.436738  2087 net.cpp:369] group1_block2_conv1_bn -> group1_block2_conv1 (in-place)
I0525 06:50:01.436902  2087 net.cpp:124] Setting up group1_block2_conv1_bn
I0525 06:50:01.436975  2087 net.cpp:131] Top shape: 1 32 16 16 (8192)
I0525 06:50:01.437062  2087 net.cpp:139] Memory required for data: 3584000
I0525 06:50:01.437178  2087 layer_factory.hpp:77] Creating layer group1_block2_conv1_scale
I0525 06:50:01.437266  2087 net.cpp:86] Creating Layer group1_block2_conv1_scale
I0525 06:50:01.437335  2087 net.cpp:408] group1_block2_conv1_scale <- group1_block2_conv1
I0525 06:50:01.437429  2087 net.cpp:369] group1_block2_conv1_scale -> group1_block2_conv1 (in-place)
I0525 06:50:01.437556  2087 layer_factory.hpp:77] Creating layer group1_block2_conv1_scale
I0525 06:50:01.437726  2087 net.cpp:124] Setting up group1_block2_conv1_scale
I0525 06:50:01.437801  2087 net.cpp:131] Top shape: 1 32 16 16 (8192)
I0525 06:50:01.437887  2087 net.cpp:139] Memory required for data: 3616768
I0525 06:50:01.437983  2087 layer_factory.hpp:77] Creating layer group1_block2_sum
I0525 06:50:01.438071  2087 net.cpp:86] Creating Layer group1_block2_sum
I0525 06:50:01.438143  2087 net.cpp:408] group1_block2_sum <- group1_block2_conv1
I0525 06:50:01.438218  2087 net.cpp:408] group1_block2_sum <- group1_block1_sum_group1_block1_relu_0_split_1
I0525 06:50:01.438377  2087 net.cpp:382] group1_block2_sum -> group1_block2_sum
I0525 06:50:01.438555  2087 net.cpp:124] Setting up group1_block2_sum
I0525 06:50:01.438635  2087 net.cpp:131] Top shape: 1 32 16 16 (8192)
I0525 06:50:01.438721  2087 net.cpp:139] Memory required for data: 3649536
I0525 06:50:01.438789  2087 layer_factory.hpp:77] Creating layer group1_block2_relu
I0525 06:50:01.438874  2087 net.cpp:86] Creating Layer group1_block2_relu
I0525 06:50:01.438941  2087 net.cpp:408] group1_block2_relu <- group1_block2_sum
I0525 06:50:01.439025  2087 net.cpp:369] group1_block2_relu -> group1_block2_sum (in-place)
I0525 06:50:01.439113  2087 net.cpp:124] Setting up group1_block2_relu
I0525 06:50:01.439178  2087 net.cpp:131] Top shape: 1 32 16 16 (8192)
I0525 06:50:01.439261  2087 net.cpp:139] Memory required for data: 3682304
I0525 06:50:01.439327  2087 layer_factory.hpp:77] Creating layer group1_block2_sum_group1_block2_relu_0_split
I0525 06:50:01.439532  2087 net.cpp:86] Creating Layer group1_block2_sum_group1_block2_relu_0_split
I0525 06:50:01.439607  2087 net.cpp:408] group1_block2_sum_group1_block2_relu_0_split <- group1_block2_sum
I0525 06:50:01.439697  2087 net.cpp:382] group1_block2_sum_group1_block2_relu_0_split -> group1_block2_sum_group1_block2_relu_0_split_0
I0525 06:50:01.439797  2087 net.cpp:382] group1_block2_sum_group1_block2_relu_0_split -> group1_block2_sum_group1_block2_relu_0_split_1
I0525 06:50:01.439903  2087 net.cpp:124] Setting up group1_block2_sum_group1_block2_relu_0_split
I0525 06:50:01.439970  2087 net.cpp:131] Top shape: 1 32 16 16 (8192)
I0525 06:50:01.440068  2087 net.cpp:131] Top shape: 1 32 16 16 (8192)
I0525 06:50:01.440151  2087 net.cpp:139] Memory required for data: 3747840
I0525 06:50:01.440217  2087 layer_factory.hpp:77] Creating layer group2_block0_conv0
I0525 06:50:01.440317  2087 net.cpp:86] Creating Layer group2_block0_conv0
I0525 06:50:01.440388  2087 net.cpp:408] group2_block0_conv0 <- group1_block2_sum_group1_block2_relu_0_split_0
I0525 06:50:01.440493  2087 net.cpp:382] group2_block0_conv0 -> group2_block0_conv0
I0525 06:50:01.442943  2087 net.cpp:124] Setting up group2_block0_conv0
I0525 06:50:01.443039  2087 net.cpp:131] Top shape: 1 64 8 8 (4096)
I0525 06:50:01.443135  2087 net.cpp:139] Memory required for data: 3764224
I0525 06:50:01.443238  2087 layer_factory.hpp:77] Creating layer group2_block0_conv0_bn
I0525 06:50:01.443326  2087 net.cpp:86] Creating Layer group2_block0_conv0_bn
I0525 06:50:01.443397  2087 net.cpp:408] group2_block0_conv0_bn <- group2_block0_conv0
I0525 06:50:01.443482  2087 net.cpp:369] group2_block0_conv0_bn -> group2_block0_conv0 (in-place)
I0525 06:50:01.443652  2087 net.cpp:124] Setting up group2_block0_conv0_bn
I0525 06:50:01.443723  2087 net.cpp:131] Top shape: 1 64 8 8 (4096)
I0525 06:50:01.443804  2087 net.cpp:139] Memory required for data: 3780608
I0525 06:50:01.443915  2087 layer_factory.hpp:77] Creating layer group2_block0_conv0_scale
I0525 06:50:01.444001  2087 net.cpp:86] Creating Layer group2_block0_conv0_scale
I0525 06:50:01.444070  2087 net.cpp:408] group2_block0_conv0_scale <- group2_block0_conv0
I0525 06:50:01.444164  2087 net.cpp:369] group2_block0_conv0_scale -> group2_block0_conv0 (in-place)
I0525 06:50:01.444291  2087 layer_factory.hpp:77] Creating layer group2_block0_conv0_scale
I0525 06:50:01.444483  2087 net.cpp:124] Setting up group2_block0_conv0_scale
I0525 06:50:01.444583  2087 net.cpp:131] Top shape: 1 64 8 8 (4096)
I0525 06:50:01.444669  2087 net.cpp:139] Memory required for data: 3796992
I0525 06:50:01.444768  2087 layer_factory.hpp:77] Creating layer group2_block0_conv0_relu
I0525 06:50:01.444854  2087 net.cpp:86] Creating Layer group2_block0_conv0_relu
I0525 06:50:01.444922  2087 net.cpp:408] group2_block0_conv0_relu <- group2_block0_conv0
I0525 06:50:01.445016  2087 net.cpp:369] group2_block0_conv0_relu -> group2_block0_conv0 (in-place)
I0525 06:50:01.445109  2087 net.cpp:124] Setting up group2_block0_conv0_relu
I0525 06:50:01.445174  2087 net.cpp:131] Top shape: 1 64 8 8 (4096)
I0525 06:50:01.445253  2087 net.cpp:139] Memory required for data: 3813376
I0525 06:50:01.445320  2087 layer_factory.hpp:77] Creating layer group2_block0_conv1
I0525 06:50:01.445421  2087 net.cpp:86] Creating Layer group2_block0_conv1
I0525 06:50:01.445492  2087 net.cpp:408] group2_block0_conv1 <- group2_block0_conv0
I0525 06:50:01.445588  2087 net.cpp:382] group2_block0_conv1 -> group2_block0_conv1
I0525 06:50:01.450388  2087 net.cpp:124] Setting up group2_block0_conv1
I0525 06:50:01.450525  2087 net.cpp:131] Top shape: 1 64 8 8 (4096)
I0525 06:50:01.450613  2087 net.cpp:139] Memory required for data: 3829760
I0525 06:50:01.450718  2087 layer_factory.hpp:77] Creating layer group2_block0_conv1_bn
I0525 06:50:01.450811  2087 net.cpp:86] Creating Layer group2_block0_conv1_bn
I0525 06:50:01.450884  2087 net.cpp:408] group2_block0_conv1_bn <- group2_block0_conv1
I0525 06:50:01.450971  2087 net.cpp:369] group2_block0_conv1_bn -> group2_block0_conv1 (in-place)
I0525 06:50:01.451283  2087 net.cpp:124] Setting up group2_block0_conv1_bn
I0525 06:50:01.451359  2087 net.cpp:131] Top shape: 1 64 8 8 (4096)
I0525 06:50:01.451442  2087 net.cpp:139] Memory required for data: 3846144
I0525 06:50:01.451555  2087 layer_factory.hpp:77] Creating layer group2_block0_conv1_scale
I0525 06:50:01.451645  2087 net.cpp:86] Creating Layer group2_block0_conv1_scale
I0525 06:50:01.451716  2087 net.cpp:408] group2_block0_conv1_scale <- group2_block0_conv1
I0525 06:50:01.451802  2087 net.cpp:369] group2_block0_conv1_scale -> group2_block0_conv1 (in-place)
I0525 06:50:01.451949  2087 layer_factory.hpp:77] Creating layer group2_block0_conv1_scale
I0525 06:50:01.452118  2087 net.cpp:124] Setting up group2_block0_conv1_scale
I0525 06:50:01.452191  2087 net.cpp:131] Top shape: 1 64 8 8 (4096)
I0525 06:50:01.452273  2087 net.cpp:139] Memory required for data: 3862528
I0525 06:50:01.452370  2087 layer_factory.hpp:77] Creating layer group2_block0_proj
I0525 06:50:01.452483  2087 net.cpp:86] Creating Layer group2_block0_proj
I0525 06:50:01.452558  2087 net.cpp:408] group2_block0_proj <- group1_block2_sum_group1_block2_relu_0_split_1
I0525 06:50:01.452654  2087 net.cpp:382] group2_block0_proj -> group2_block0_proj
I0525 06:50:01.453116  2087 net.cpp:124] Setting up group2_block0_proj
I0525 06:50:01.453197  2087 net.cpp:131] Top shape: 1 64 8 8 (4096)
I0525 06:50:01.453281  2087 net.cpp:139] Memory required for data: 3878912
I0525 06:50:01.453379  2087 layer_factory.hpp:77] Creating layer group2_block0_proj_bn
I0525 06:50:01.453472  2087 net.cpp:86] Creating Layer group2_block0_proj_bn
I0525 06:50:01.453544  2087 net.cpp:408] group2_block0_proj_bn <- group2_block0_proj
I0525 06:50:01.453629  2087 net.cpp:369] group2_block0_proj_bn -> group2_block0_proj (in-place)
I0525 06:50:01.453778  2087 net.cpp:124] Setting up group2_block0_proj_bn
I0525 06:50:01.453847  2087 net.cpp:131] Top shape: 1 64 8 8 (4096)
I0525 06:50:01.453929  2087 net.cpp:139] Memory required for data: 3895296
I0525 06:50:01.454038  2087 layer_factory.hpp:77] Creating layer group2_block0_proj_scale
I0525 06:50:01.454134  2087 net.cpp:86] Creating Layer group2_block0_proj_scale
I0525 06:50:01.454205  2087 net.cpp:408] group2_block0_proj_scale <- group2_block0_proj
I0525 06:50:01.454291  2087 net.cpp:369] group2_block0_proj_scale -> group2_block0_proj (in-place)
I0525 06:50:01.454416  2087 layer_factory.hpp:77] Creating layer group2_block0_proj_scale
I0525 06:50:01.454576  2087 net.cpp:124] Setting up group2_block0_proj_scale
I0525 06:50:01.454648  2087 net.cpp:131] Top shape: 1 64 8 8 (4096)
I0525 06:50:01.454730  2087 net.cpp:139] Memory required for data: 3911680
I0525 06:50:01.454828  2087 layer_factory.hpp:77] Creating layer group2_block0_sum
I0525 06:50:01.454916  2087 net.cpp:86] Creating Layer group2_block0_sum
I0525 06:50:01.454986  2087 net.cpp:408] group2_block0_sum <- group2_block0_proj
I0525 06:50:01.455062  2087 net.cpp:408] group2_block0_sum <- group2_block0_conv1
I0525 06:50:01.455148  2087 net.cpp:382] group2_block0_sum -> group2_block0_sum
I0525 06:50:01.455252  2087 net.cpp:124] Setting up group2_block0_sum
I0525 06:50:01.455319  2087 net.cpp:131] Top shape: 1 64 8 8 (4096)
I0525 06:50:01.455399  2087 net.cpp:139] Memory required for data: 3928064
I0525 06:50:01.455464  2087 layer_factory.hpp:77] Creating layer group2_block0_relu
I0525 06:50:01.455546  2087 net.cpp:86] Creating Layer group2_block0_relu
I0525 06:50:01.455613  2087 net.cpp:408] group2_block0_relu <- group2_block0_sum
I0525 06:50:01.455696  2087 net.cpp:369] group2_block0_relu -> group2_block0_sum (in-place)
I0525 06:50:01.455785  2087 net.cpp:124] Setting up group2_block0_relu
I0525 06:50:01.455849  2087 net.cpp:131] Top shape: 1 64 8 8 (4096)
I0525 06:50:01.455926  2087 net.cpp:139] Memory required for data: 3944448
I0525 06:50:01.455991  2087 layer_factory.hpp:77] Creating layer group2_block0_sum_group2_block0_relu_0_split
I0525 06:50:01.456074  2087 net.cpp:86] Creating Layer group2_block0_sum_group2_block0_relu_0_split
I0525 06:50:01.456183  2087 net.cpp:408] group2_block0_sum_group2_block0_relu_0_split <- group2_block0_sum
I0525 06:50:01.456346  2087 net.cpp:382] group2_block0_sum_group2_block0_relu_0_split -> group2_block0_sum_group2_block0_relu_0_split_0
I0525 06:50:01.456451  2087 net.cpp:382] group2_block0_sum_group2_block0_relu_0_split -> group2_block0_sum_group2_block0_relu_0_split_1
I0525 06:50:01.456565  2087 net.cpp:124] Setting up group2_block0_sum_group2_block0_relu_0_split
I0525 06:50:01.456635  2087 net.cpp:131] Top shape: 1 64 8 8 (4096)
I0525 06:50:01.456715  2087 net.cpp:131] Top shape: 1 64 8 8 (4096)
I0525 06:50:01.456794  2087 net.cpp:139] Memory required for data: 3977216
I0525 06:50:01.456858  2087 layer_factory.hpp:77] Creating layer group2_block1_conv0
I0525 06:50:01.456961  2087 net.cpp:86] Creating Layer group2_block1_conv0
I0525 06:50:01.457032  2087 net.cpp:408] group2_block1_conv0 <- group2_block0_sum_group2_block0_relu_0_split_0
I0525 06:50:01.457129  2087 net.cpp:382] group2_block1_conv0 -> group2_block1_conv0
I0525 06:50:01.461918  2087 net.cpp:124] Setting up group2_block1_conv0
I0525 06:50:01.462046  2087 net.cpp:131] Top shape: 1 64 8 8 (4096)
I0525 06:50:01.462134  2087 net.cpp:139] Memory required for data: 3993600
I0525 06:50:01.462239  2087 layer_factory.hpp:77] Creating layer group2_block1_conv0_bn
I0525 06:50:01.462330  2087 net.cpp:86] Creating Layer group2_block1_conv0_bn
I0525 06:50:01.462404  2087 net.cpp:408] group2_block1_conv0_bn <- group2_block1_conv0
I0525 06:50:01.462488  2087 net.cpp:369] group2_block1_conv0_bn -> group2_block1_conv0 (in-place)
I0525 06:50:01.462653  2087 net.cpp:124] Setting up group2_block1_conv0_bn
I0525 06:50:01.462725  2087 net.cpp:131] Top shape: 1 64 8 8 (4096)
I0525 06:50:01.462807  2087 net.cpp:139] Memory required for data: 4009984
I0525 06:50:01.462920  2087 layer_factory.hpp:77] Creating layer group2_block1_conv0_scale
I0525 06:50:01.463017  2087 net.cpp:86] Creating Layer group2_block1_conv0_scale
I0525 06:50:01.463090  2087 net.cpp:408] group2_block1_conv0_scale <- group2_block1_conv0
I0525 06:50:01.463177  2087 net.cpp:369] group2_block1_conv0_scale -> group2_block1_conv0 (in-place)
I0525 06:50:01.463304  2087 layer_factory.hpp:77] Creating layer group2_block1_conv0_scale
I0525 06:50:01.463467  2087 net.cpp:124] Setting up group2_block1_conv0_scale
I0525 06:50:01.463539  2087 net.cpp:131] Top shape: 1 64 8 8 (4096)
I0525 06:50:01.463619  2087 net.cpp:139] Memory required for data: 4026368
I0525 06:50:01.463716  2087 layer_factory.hpp:77] Creating layer group2_block1_conv0_relu
I0525 06:50:01.463800  2087 net.cpp:86] Creating Layer group2_block1_conv0_relu
I0525 06:50:01.463871  2087 net.cpp:408] group2_block1_conv0_relu <- group2_block1_conv0
I0525 06:50:01.463953  2087 net.cpp:369] group2_block1_conv0_relu -> group2_block1_conv0 (in-place)
I0525 06:50:01.464042  2087 net.cpp:124] Setting up group2_block1_conv0_relu
I0525 06:50:01.464108  2087 net.cpp:131] Top shape: 1 64 8 8 (4096)
I0525 06:50:01.464187  2087 net.cpp:139] Memory required for data: 4042752
I0525 06:50:01.464252  2087 layer_factory.hpp:77] Creating layer group2_block1_conv1
I0525 06:50:01.464354  2087 net.cpp:86] Creating Layer group2_block1_conv1
I0525 06:50:01.464423  2087 net.cpp:408] group2_block1_conv1 <- group2_block1_conv0
I0525 06:50:01.464542  2087 net.cpp:382] group2_block1_conv1 -> group2_block1_conv1
I0525 06:50:01.469302  2087 net.cpp:124] Setting up group2_block1_conv1
I0525 06:50:01.469439  2087 net.cpp:131] Top shape: 1 64 8 8 (4096)
I0525 06:50:01.469529  2087 net.cpp:139] Memory required for data: 4059136
I0525 06:50:01.469635  2087 layer_factory.hpp:77] Creating layer group2_block1_conv1_bn
I0525 06:50:01.469727  2087 net.cpp:86] Creating Layer group2_block1_conv1_bn
I0525 06:50:01.469800  2087 net.cpp:408] group2_block1_conv1_bn <- group2_block1_conv1
I0525 06:50:01.469900  2087 net.cpp:369] group2_block1_conv1_bn -> group2_block1_conv1 (in-place)
I0525 06:50:01.470063  2087 net.cpp:124] Setting up group2_block1_conv1_bn
I0525 06:50:01.470196  2087 net.cpp:131] Top shape: 1 64 8 8 (4096)
I0525 06:50:01.470366  2087 net.cpp:139] Memory required for data: 4075520
I0525 06:50:01.470592  2087 layer_factory.hpp:77] Creating layer group2_block1_conv1_scale
I0525 06:50:01.470696  2087 net.cpp:86] Creating Layer group2_block1_conv1_scale
I0525 06:50:01.470770  2087 net.cpp:408] group2_block1_conv1_scale <- group2_block1_conv1
I0525 06:50:01.470860  2087 net.cpp:369] group2_block1_conv1_scale -> group2_block1_conv1 (in-place)
I0525 06:50:01.470990  2087 layer_factory.hpp:77] Creating layer group2_block1_conv1_scale
I0525 06:50:01.471149  2087 net.cpp:124] Setting up group2_block1_conv1_scale
I0525 06:50:01.471220  2087 net.cpp:131] Top shape: 1 64 8 8 (4096)
I0525 06:50:01.471302  2087 net.cpp:139] Memory required for data: 4091904
I0525 06:50:01.471398  2087 layer_factory.hpp:77] Creating layer group2_block1_sum
I0525 06:50:01.471484  2087 net.cpp:86] Creating Layer group2_block1_sum
I0525 06:50:01.471554  2087 net.cpp:408] group2_block1_sum <- group2_block1_conv1
I0525 06:50:01.471629  2087 net.cpp:408] group2_block1_sum <- group2_block0_sum_group2_block0_relu_0_split_1
I0525 06:50:01.471730  2087 net.cpp:382] group2_block1_sum -> group2_block1_sum
I0525 06:50:01.471837  2087 net.cpp:124] Setting up group2_block1_sum
I0525 06:50:01.471904  2087 net.cpp:131] Top shape: 1 64 8 8 (4096)
I0525 06:50:01.471983  2087 net.cpp:139] Memory required for data: 4108288
I0525 06:50:01.472048  2087 layer_factory.hpp:77] Creating layer group2_block1_relu
I0525 06:50:01.472129  2087 net.cpp:86] Creating Layer group2_block1_relu
I0525 06:50:01.472196  2087 net.cpp:408] group2_block1_relu <- group2_block1_sum
I0525 06:50:01.472280  2087 net.cpp:369] group2_block1_relu -> group2_block1_sum (in-place)
I0525 06:50:01.472368  2087 net.cpp:124] Setting up group2_block1_relu
I0525 06:50:01.472432  2087 net.cpp:131] Top shape: 1 64 8 8 (4096)
I0525 06:50:01.472510  2087 net.cpp:139] Memory required for data: 4124672
I0525 06:50:01.472575  2087 layer_factory.hpp:77] Creating layer global_avg_pool
I0525 06:50:01.472656  2087 net.cpp:86] Creating Layer global_avg_pool
I0525 06:50:01.472724  2087 net.cpp:408] global_avg_pool <- group2_block1_sum
I0525 06:50:01.472808  2087 net.cpp:382] global_avg_pool -> global_avg_pool
I0525 06:50:01.472972  2087 net.cpp:124] Setting up global_avg_pool
I0525 06:50:01.473048  2087 net.cpp:131] Top shape: 1 64 1 1 (64)
I0525 06:50:01.473129  2087 net.cpp:139] Memory required for data: 4124928
I0525 06:50:01.473193  2087 layer_factory.hpp:77] Creating layer fc
I0525 06:50:01.473282  2087 net.cpp:86] Creating Layer fc
I0525 06:50:01.473351  2087 net.cpp:408] fc <- global_avg_pool
I0525 06:50:01.473439  2087 net.cpp:382] fc -> fc
I0525 06:50:01.473698  2087 net.cpp:124] Setting up fc
I0525 06:50:01.473773  2087 net.cpp:131] Top shape: 1 10 (10)
I0525 06:50:01.473851  2087 net.cpp:139] Memory required for data: 4124968
I0525 06:50:01.473948  2087 layer_factory.hpp:77] Creating layer softmax
I0525 06:50:01.474030  2087 net.cpp:86] Creating Layer softmax
I0525 06:50:01.474098  2087 net.cpp:408] softmax <- fc
I0525 06:50:01.474189  2087 net.cpp:382] softmax -> softmax
I0525 06:50:01.474292  2087 net.cpp:124] Setting up softmax
I0525 06:50:01.474359  2087 net.cpp:131] Top shape: 1 10 (10)
I0525 06:50:01.474437  2087 net.cpp:139] Memory required for data: 4125008
I0525 06:50:01.474503  2087 net.cpp:202] softmax does not need backward computation.
I0525 06:50:01.474596  2087 net.cpp:202] fc does not need backward computation.
I0525 06:50:01.474663  2087 net.cpp:202] global_avg_pool does not need backward computation.
I0525 06:50:01.474730  2087 net.cpp:202] group2_block1_relu does not need backward computation.
…
