I0525 07:12:20.195570  2950 caffe.cpp:343] Use CPU.
I0525 07:12:20.222368  2950 net.cpp:53] Initializing net from parameters: 
name: "LeNet"
state {
  phase: TRAIN
  level: 0
  stage: ""
}
layer {
  name: "data"
  type: "Input"
  top: "data"
  input_param {
    shape {
      dim: 1
      dim: 1
      dim: 28
      dim: 28
    }
  }
}
layer {
  name: "conv1"
  type: "Convolution"
  bottom: "data"
  top: "conv1"
  param {
    lr_mult: 1
  }
  param {
    lr_mult: 2
  }
  convolution_param {
    num_output: 20
    kernel_size: 5
    stride: 1
    weight_filler {
      type: "xavier"
    }
    bias_filler {
      type: "constant"
    }
  }
}
layer {
  name: "pool1"
  type: "Pooling"
  bottom: "conv1"
  top: "pool1"
  pooling_param {
    pool: MAX
    kernel_size: 2
    stride: 2
  }
}
layer {
  name: "conv2"
  type: "Convolution"
  bottom: "pool1"
  top: "conv2"
  param {
    lr_mult: 1
  }
  param {
    lr_mult: 2
  }
  convolution_param {
    num_output: 50
    kernel_size: 5
    stride: 1
    weight_filler {
      type: "xavier"
    }
    bias_filler {
      type: "constant"
    }
  }
}
layer {
  name: "pool2"
  type: "Pooling"
  bottom: "conv2"
  top: "pool2"
  pooling_param {
    pool: MAX
    kernel_size: 2
    stride: 2
  }
}
layer {
  name: "ip1"
  type: "InnerProduct"
  bottom: "pool2"
  top: "ip1"
  param {
    lr_mult: 1
  }
  param {
    lr_mult: 2
  }
  inner_product_param {
    num_output: 500
    weight_filler {
      type: "xavier"
    }
    bias_filler {
      type: "constant"
    }
  }
}
layer {
  name: "relu1"
  type: "ReLU"
  bottom: "ip1"
  top: "ip1"
}
layer {
  name: "ip2"
  type: "InnerProduct"
  bottom: "ip1"
  top: "ip2"
  param {
    lr_mult: 1
  }
  param {
    lr_mult: 2
  }
  inner_product_param {
    num_output: 10
    weight_filler {
      type: "xavier"
    }
    bias_filler {
      type: "constant"
    }
  }
}
layer {
  name: "prob"
  type: "Softmax"
  bottom: "ip2"
  top: "prob"
}
I0525 07:12:20.223664  2950 layer_factory.hpp:77] Creating layer data
I0525 07:12:20.223839  2950 net.cpp:86] Creating Layer data
I0525 07:12:20.223943  2950 net.cpp:382] data -> data
I0525 07:12:20.224166  2950 net.cpp:124] Setting up data
I0525 07:12:20.224261  2950 net.cpp:131] Top shape: 1 1 28 28 (784)
I0525 07:12:20.224401  2950 net.cpp:139] Memory required for data: 3136
I0525 07:12:20.224499  2950 layer_factory.hpp:77] Creating layer conv1
I0525 07:12:20.224647  2950 net.cpp:86] Creating Layer conv1
I0525 07:12:20.224740  2950 net.cpp:408] conv1 <- data
I0525 07:12:20.224855  2950 net.cpp:382] conv1 -> conv1
I0525 07:12:20.225600  2950 net.cpp:124] Setting up conv1
I0525 07:12:20.225716  2950 net.cpp:131] Top shape: 1 20 24 24 (11520)
I0525 07:12:20.225814  2950 net.cpp:139] Memory required for data: 49216
I0525 07:12:20.225994  2950 layer_factory.hpp:77] Creating layer pool1
I0525 07:12:20.226109  2950 net.cpp:86] Creating Layer pool1
I0525 07:12:20.226186  2950 net.cpp:408] pool1 <- conv1
I0525 07:12:20.226276  2950 net.cpp:382] pool1 -> pool1
I0525 07:12:20.226451  2950 net.cpp:124] Setting up pool1
I0525 07:12:20.226536  2950 net.cpp:131] Top shape: 1 20 12 12 (2880)
I0525 07:12:20.226629  2950 net.cpp:139] Memory required for data: 60736
I0525 07:12:20.226704  2950 layer_factory.hpp:77] Creating layer conv2
I0525 07:12:20.226819  2950 net.cpp:86] Creating Layer conv2
I0525 07:12:20.226893  2950 net.cpp:408] conv2 <- pool1
I0525 07:12:20.226990  2950 net.cpp:382] conv2 -> conv2
I0525 07:12:20.239562  2950 net.cpp:124] Setting up conv2
I0525 07:12:20.239730  2950 net.cpp:131] Top shape: 1 50 8 8 (3200)
I0525 07:12:20.239837  2950 net.cpp:139] Memory required for data: 73536
I0525 07:12:20.239972  2950 layer_factory.hpp:77] Creating layer pool2
I0525 07:12:20.240082  2950 net.cpp:86] Creating Layer pool2
I0525 07:12:20.240159  2950 net.cpp:408] pool2 <- conv2
I0525 07:12:20.240252  2950 net.cpp:382] pool2 -> pool2
I0525 07:12:20.240381  2950 net.cpp:124] Setting up pool2
I0525 07:12:20.240460  2950 net.cpp:131] Top shape: 1 50 4 4 (800)
I0525 07:12:20.240550  2950 net.cpp:139] Memory required for data: 76736
I0525 07:12:20.240677  2950 layer_factory.hpp:77] Creating layer ip1
I0525 07:12:20.240890  2950 net.cpp:86] Creating Layer ip1
I0525 07:12:20.240974  2950 net.cpp:408] ip1 <- pool2
I0525 07:12:20.241075  2950 net.cpp:382] ip1 -> ip1
I0525 07:12:20.306195  2950 net.cpp:124] Setting up ip1
I0525 07:12:20.306387  2950 net.cpp:131] Top shape: 1 500 (500)
I0525 07:12:20.306493  2950 net.cpp:139] Memory required for data: 78736
I0525 07:12:20.306648  2950 layer_factory.hpp:77] Creating layer relu1
I0525 07:12:20.306758  2950 net.cpp:86] Creating Layer relu1
I0525 07:12:20.306840  2950 net.cpp:408] relu1 <- ip1
I0525 07:12:20.306932  2950 net.cpp:369] relu1 -> ip1 (in-place)
I0525 07:12:20.307040  2950 net.cpp:124] Setting up relu1
I0525 07:12:20.307112  2950 net.cpp:131] Top shape: 1 500 (500)
I0525 07:12:20.307199  2950 net.cpp:139] Memory required for data: 80736
I0525 07:12:20.307267  2950 layer_factory.hpp:77] Creating layer ip2
I0525 07:12:20.307363  2950 net.cpp:86] Creating Layer ip2
I0525 07:12:20.307432  2950 net.cpp:408] ip2 <- ip1
I0525 07:12:20.307524  2950 net.cpp:382] ip2 -> ip2
I0525 07:12:20.308138  2950 net.cpp:124] Setting up ip2
I0525 07:12:20.318281  2950 net.cpp:131] Top shape: 1 10 (10)
I0525 07:12:20.318468  2950 net.cpp:139] Memory required for data: 80776
I0525 07:12:20.318598  2950 layer_factory.hpp:77] Creating layer prob
I0525 07:12:20.318861  2950 net.cpp:86] Creating Layer prob
I0525 07:12:20.318943  2950 net.cpp:408] prob <- ip2
I0525 07:12:20.319041  2950 net.cpp:382] prob -> prob
I0525 07:12:20.319164  2950 net.cpp:124] Setting up prob
I0525 07:12:20.319237  2950 net.cpp:131] Top shape: 1 10 (10)
I0525 07:12:20.319321  2950 net.cpp:139] Memory required for data: 80816
I0525 07:12:20.319391  2950 net.cpp:202] prob does not need backward computation.
I0525 07:12:20.319497  2950 net.cpp:202] ip2 does not need backward computation.
I0525 07:12:20.319573  2950 net.cpp:202] relu1 does not need backward computation.
I0525 07:12:20.319644  2950 net.cpp:202] ip1 does not need backward computation.
…
